dump/classifier_cwru_cua5.pt (torch, 11367 bytes, 2 tensors)

classifier.2.weight f4 [10, 256]
0	0xbc3bcf4d	-0.011462999
1	0xbd81b899	-0.06334037
2	0x3ca78623	0.020449704
3	0xbdcd5590	-0.100260854
4	0xbdeb42e2	-0.11487366
5	0x3da740a2	0.081666246
6	0xbe5b1873	-0.21396045
7	0x3c86c3d6	0.016450804
8	0xbda94455	-0.082649864
9	0xbe259576	-0.16170296
10	0xbd5cf628	-0.05394569
11	0x3d907f3e	0.070555195
12	0xbd5e1522	-0.054219373
13	0xbc0fbfe7	-0.00877378
14	0xbc744e68	-0.014911272
15	0xbd13be10	-0.03606993
16	0xbc00a554	-0.007851917
17	0xbd76c3fe	-0.060245506
18	0xbe051acb	-0.12998502
19	0xbc7f0b04	-0.015566591
20	0x3c87d832	0.016582582
21	0x3c95778e	0.018245485
22	0xbe29c474	-0.16578847
23	0xbd6f58a2	-0.058434136
24	0x3b590941	0.0033117088
25	0xbcc8e162	-0.024521533
26	0xbc0bde7b	-0.00853693
27	0x3d7cf1a0	0.06175387
28	0x3d28206f	0.041046556
29	0x3be1417a	0.0068742605
30	0xbdde0eb8	-0.10842651
31	0x3d714e25	0.058912415
32	0xbe0e40cc	-0.13891906
33	0xbb193711	-0.002337877
34	0x3ab8f31d	0.0014110539
35	0xbc2b12df	-0.010441511
36	0x3cf1d482	0.029520277
37	0x3d0d4e00	0.034498215
38	0x3dad92fd	0.084753014
39	0xbe220f2a	-0.15826097
40	0x3d5b8cc4	0.05360104
41	0x3c6e71a4	0.014553461
42	0x3d65604e	0.056000046
43	0x3b3f782b	0.0029215913
44	0xbcb82300	-0.022477627
45	0xbe260871	-0.16214158
46	0x3c92eef1	0.017936202
47	0xbd2b354e	-0.041798882
48	0x3c75d313	0.015003937
49	0xbac76fa7	-0.001521577
50	0x3de1e2c8	0.11029583
51	0xbde24fd4	-0.11050382
52	0xbc8b0754	-0.016971268
53	0x3d8f7303	0.070043586
54	0xbd1e13e7	-0.0385932
55	0x3d92473a	0.07142492
56	0xbd2430e6	-0.040085696
57	0x3d93d02b	0.07217439
58	0xbd8cc73e	-0.0687394
59	0x3cfed905	0.031109342
60	0x3da29ca0	0.0794003
61	0xbd9ac9db	-0.07558032
62	0x3b5fc590	0.0034144856
63	0xbd4e7ada	-0.05041013
64	0x3c633b7b	0.013869162
65	0x3d21ecb3	0.039532375
66	0x3d6afa6c	0.057367727
67	0xbd6d5c7a	-0.05794952
68	0x3c57b2d5	0.0131651955
69	0xbe0b7bfb	-0.13621514
70	0xbdb53cd2	-0.08849491
71	0x3ba6c0bc	0.0050888937
72	0xbe380da9	-0.17973961
73	0xbd4a27a7	-0.04935422
74	0x3c71317f	0.014721273
75	0xbc0b8bed	-0.008517248
76	0xbcab8a85	-0.020940075
77	0xbdb9aecc	-0.09066543
78	0x3c06a5b7	0.00821822
79	0xbde36eec	-0.11105141
80	0x3d0369de	0.032083385
81	0xbb9af2e0	-0.00472866
82	0xbd0edde5	-0.034879584
83	0xbe4a07f9	-0.19729604
84	0x3d45c46d	0.04828303
85	0xbe10b84b	-0.14132802
86	0x3bedd819	0.007258427
87	0xbd5df388	-0.054187328
88	0x3cc4528c	0.023965143
89	0x3c2ec9ba	0.010668213
90	0xbd859c35	-0.06523935
91	0xbdc86a2c	-0.09785876
92	0xbe195d82	-0.14977077
93	0xbd09df33	-0.033660125
94	0xbc51eadd	-0.012812343
95	0x3d38cf8d	0.04511981
96	0x3d95633e	0.072943196
97	0xbd2ffeb5	-0.042967517
98	0x3db56cb2	0.088586226
99	0xbe32f62c	-0.1747672
100	0x3d8c3f58	0.06848019
101	0xbdf5a1b4	-0.11993733
102	0x3d235083	0.039871704
103	0x3debff11	0.115232594
104	0xbd82a5a7	-0.06379252
105	0xb99f6e93	-0.00030409227
106	0xbc7100d8	-0.014709674
107	0xbbda0f8e	-0.0066546863
108	0xbd69f7d8	-0.057121128
109	0xbd56ebed	-0.05247109
110	0x3d8948ec	0.06703362
111	0xbe2d8e5d	-0.16948839
112	0xbd66de03	-0.05636407
113	0x3d358d76	0.04432436
114	0x3dda45e4	0.10657862
115	0xbd3418f0	-0.043969095
116	0xbd22521a	-0.03962908
117	0xbd600d80	-0.054700375
118	0xbcc179fa	-0.023617733
119	0xbd008604	-0.031377807
120	0xbc5ec171	-0.013595925
121	0xbe483ef2	-0.19555262
122	0xbdf56f16	-0.119840786
123	0xbd8b49f5	-0.068012156
124	0x3cdac62f	0.02670583
125	0x3c747383	0.014920118
126	0xbe48f0fa	-0.19623175
127	0xbd53d3c1	-0.051715616
128	0xbdd232b4	-0.10263577
129	0x3d6d9d39	0.058011267
130	0xbdba0539	-0.090830274
131	0x3d8fb9b1	0.0701784
132	0xbdc87111	-0.09787191
133	0x3d9f000c	0.07763681
134	0x3cce7364	0.025201507
135	0xbd16747b	-0.03673218
136	0xbdf2668e	-0.11835967
137	0xbcd74a8a	-0.02628066
138	0x3a755611	0.0009358833
139	0xbe35608e	-0.17712614
140	0xbe46cfb8	-0.19415176
141	0xbd6b527c	-0.05745171
142	0x3d4095ea	0.04701797
143	0xbd642bd6	-0.055705868
144	0x3d397e7d	0.045286644
145	0xbc43b91d	-0.01194599
146	0x3c8e8c07	0.017400755
147	0xbc2ed682	-0.01067126
148	0x3d4f9576	0.050679646
149	0x3cd479d5	0.025937
150	0xbdad8316	-0.08472268
151	0x3d54c1e5	0.051942725
152	0xbbd93719	-0.0066288826
153	0xbdd35efb	-0.103208505
154	0xbd0b173f	-0.033957716
155	0xbd74df20	-0.0597831
156	0xbd3295b3	-0.043599796
157	0xbd24af03	-0.040205967
158	0x3c684925	0.014177595
159	0x3dd150fa	0.10220523
160	0x3dc2aab9	0.09505219
161	0x3d9d033b	0.07666632
162	0x3bba453c	0.005684523
163	0x3d6e8737	0.05823442
164	0x3d07b273	0.033129167
165	0xbe6611dc	-0.2246775
166	0xbdcb5503	-0.09928324
167	0xbd199064	-0.037491217
168	0xbe11541f	-0.14192246
169	0xbe2c0da7	-0.16802083
170	0xbc2b0946	-0.010439223
171	0xbdf5f184	-0.12008956
172	0x3b8ab667	0.00423317
173	0x3dd8cd03	0.10585978
174	0x3c979990	0.018505841
175	0x3d5ff69b	0.05467854
176	0x3d7c6a70	0.061624944
177	0xbd86b644	-0.06577733
178	0xbcc15f63	-0.023605054
179	0x3be4f410	0.0069871023
180	0xbdaf2d2c	-0.08553538
181	0xbcea1c55	-0.028577963
182	0xbdfbc86d	-0.122940876
183	0xbdba5bca	-0.090995386
184	0xbd631049	-0.055435453
185	0xbd2d85c8	-0.042363912
186	0x3d112fbb	0.03544591
187	0x3d106048	0.03524807
188	0xbd62345c	-0.055225715
189	0xbd2b39be	-0.041803114
190	0xbe26fd5f	-0.16307591
191	0xbd4f80fe	-0.050660126
192	0xbcdd29e8	-0.026997522
193	0x3cce0102	0.025146965
194	0xbd1e1fb0	-0.03860444
195	0x3c6a02e8	0.0142829195
196	0xbd85e148	-0.065371096
197	0x3da361b4	0.0797762
198	0xbd30af64	-0.043136016
199	0xbd8a7f03	-0.06762507
200	0xbda30e11	-0.07961667
201	0xbde4042a	-0.11133607
202	0xbe274c5c	-0.16337723
203	0x3d7fb8a5	0.06243195
204	0x3c9db8f6	0.019253235
205	0x3ca738f8	0.020412907
206	0x3dc0dd98	0.09417266
207	0xbdf52ab1	-0.11971033
208	0xbc9c07e2	-0.019046728
209	0x3cf37e51	0.029723318
210	0xbdfc77c0	-0.12327528
211	0x3d9fdc36	0.07805674
212	0xbd085b92	-0.033290453
213	0x3d659e67	0.056059267
214	0x3cbb199e	0.022839364
215	0x3c09b7e3	0.008405658
216	0xbd431af5	-0.04763313
217	0x3ccfef01	0.02538252
218	0xbd7506ac	-0.059820816
219	0x3dba0936	0.09083788
220	0xbe3e220b	-0.18567674
221	0x3b4f75ed	0.0031655983
222	0xbd1e44f9	-0.038639996
223	0xbd771033	-0.060318183
224	0x3d938383	0.07202818
225	0xbd30fe20	-0.043211102
226	0x3cb6937f	0.022287128
227	0xbdda5331	-0.10660399
228	0xbd8530a2	-0.065034166
229	0x3bd97d0e	0.006637222
230	0x3d8c3480	0.06845951
231	0xbc32e30e	-0.010918392
232	0xbe43782d	-0.19088812
233	0x3dd3b04c	0.1033636
234	0x3d801dfa	0.062557176
235	0x3cb07188	0.02153851
236	0xbd6779d5	-0.056512672
237	0xba4646e3	-0.00075636635
238	0xbd2579a1	-0.040399197
239	0xbdae4f69	-0.0851124
240	0xbe2f3dc9	-0.17113413
241	0xbd1483da	-0.036258556
242	0xb93513c4	-0.00017268868
243	0x3cd62476	0.026140433
244	0xbe3b97f2	-0.18319681
245	0xbbea2be6	-0.0071463464
246	0x3d55a290	0.052156985
247	0x3b98b063	0.004659699
248	0xbcfc580b	-0.0308037
249	0x3c80c53e	0.015719052
250	0xbd8fb486	-0.07016854
251	0xbda6e3ba	-0.08148904
252	0xbdbb8d09	-0.0915776
253	0x3d4a0c22	0.049327977
254	0x3cc53c04	0.02407647
255	0xbe15c88a	-0.14627281

classifier.2.bias f4 [10]
0	0x3da3aaa6	0.07991533
1	0xbcbf6d11	-0.023367437
2	0x3d33da24	0.043909207
3	0x3cf49679	0.029856907
4	0x3d87a41d	0.06623099
5	0x3d5229e6	0.05130949
6	0x3c37ea53	0.011225301
7	0xbc7e4631	-0.015519665
8	0xbc824358	-0.015901253
9	0xbdbd31d0	-0.092380166
