dump/classifier_cwru_cua_adda5.pt (torch, 11367 bytes, 2 tensors)

classifier.2.weight f4 [10, 256]
0	0xbde18790	-0.110121846
1	0xbd17aa85	-0.037027854
2	0x3c8bb8cb	0.01705589
3	0xbbdb0bb8	-0.0066847466
4	0x3d94d18a	0.07266529
5	0xbd4d555b	-0.05013023
6	0xbd52b167	-0.051438715
7	0xbd934472	-0.07190789
8	0x3d0c47df	0.03424823
9	0xbe1b7d81	-0.15184595
10	0x3d4617e4	0.048362628
11	0xbd19dd34	-0.03756447
12	0x3d8365b1	0.064158805
13	0xbb020751	-0.0019840787
14	0xbd267c49	-0.04064587
15	0xbd279f47	-0.040923383
16	0xbd3159aa	-0.0432984
17	0x3d9250a3	0.071442865
18	0xbc154a72	-0.009111987
19	0xbdb000ee	-0.08593927
20	0xbcf2a58a	-0.02961995
21	0xbd5b4595	-0.053533155
22	0x3d7ed5d0	0.062215626
23	0xbe08fc7d	-0.13377567
24	0x3e20f779	0.15719403
25	0xbbdd50f9	-0.0067540375
26	0x3d1a21e9	0.037629995
27	0xbdf71866	-0.120652005
28	0xbd5162e7	-0.05111971
29	0xbd928f92	-0.0715629
30	0x3d0a833a	0.033816554
31	0xbdfdfd73	-0.12401857
32	0x3ceac88e	0.028660085
33	0xbe3c47c9	-0.18386759
34	0x3daacbf3	0.083396815
35	0x3d6efd0f	0.058346804
36	0xbda3f064	-0.08004835
37	0xbd40358f	-0.046926077
38	0x3d148c0f	0.036266383
39	0xbd67cf88	-0.0565944
40	0x3c314cc4	0.010821525
41	0xbc87ae08	-0.016562477
42	0x3d1df0dc	0.03855978
43	0x3d48d8a4	0.04903473
44	0xbe45cfb2	-0.1931751
45	0xbe2cf972	-0.16892031
46	0xbd93b100	-0.072114944
47	0x3cd7ab0d	0.02632668
48	0xbe0e49a2	-0.13895276
49	0xbcbfcf37	-0.023414237
50	0xbd336d58	-0.04380545
51	0xbe37528c	-0.17902583
52	0xbdd16e76	-0.10226147
53	0xbd690ed8	-0.05689892
54	0x3dbc3d1b	0.091913424
55	0xbe35a28f	-0.17737792
56	0xbcf6e1c7	-0.030136956
57	0x3d29ed6b	0.041486185
58	0x3c316b1b	0.010828759
59	0x3dc98f6b	0.09841808
60	0xbd22804a	-0.039673127
61	0xbe208fa9	-0.15679802
62	0xbc0206e2	-0.007936211
63	0x3d656423	0.0560037
64	0xbd8dd9bc	-0.06926295
65	0xbd4d3233	-0.0500967
66	0x3d5fb87a	0.05461929
67	0xbe0bbce3	-0.13646273
68	0xbc832f3a	-0.01601373
69	0xbdf21524	-0.118204385
70	0xbc01e76f	-0.007928713
71	0x3db09163	0.0862148
72	0xbcd6e803	-0.026233679
73	0xbdc7345d	-0.097267844
74	0x3dbfa487	0.09357553
75	0x3c7c35eb	0.015393714
76	0xbd5ee93f	-0.05442166
77	0xbe58b10c	-0.21161288
78	0x3d8bb56b	0.06821712
79	0xbe488872	-0.195833
80	0x3ce32194	0.027725972
81	0xbd6bb10a	-0.057541884
82	0xbe4d3952	-0.20041397
83	0x3cc72241	0.024308326
84	0xbce84d32	-0.028357122
85	0xbd3697bc	-0.0445783
86	0x3d869498	0.06571311
87	0x3c46b7f2	0.012128817
88	0x3e264a36	0.16239247
89	0xbdbad78f	-0.09123146
90	0xbde2f068	-0.1108101
91	0x3d94129b	0.07230111
92	0xbe44b843	-0.19210915
93	0x3d8f9a86	0.07011895
94	0xbd28996a	-0.041161932
95	0xbde0e04a	-0.1098028
96	0x3a89544b	0.0010477392
97	0x3d61f5a0	0.055165887
98	0xbd812e35	-0.063076414
99	0xbd0cae63	-0.034345996
100	0xbe2f4144	-0.1711474
101	0xbd66bdcb	-0.056333344
102	0x3c28e629	0.010308781
103	0xbe195e6d	-0.14977427
104	0x3d9848b8	0.07435745
105	0xbc1af2a7	-0.009457267
106	0x3c139d35	0.009009649
107	0xbd80fb19	-0.06297893
108	0xbe31ada5	-0.17351396
109	0xbde3d3a4	-0.111243516
110	0xbd1f7bec	-0.03893654
111	0xbe240ffd	-0.16021724
112	0xbce94e3d	-0.02847969
113	0x3d9ac465	0.075569905
114	0x3d1915f4	0.03737445
115	0xbd9cbb90	-0.07652962
116	0xbdfbdfbf	-0.122985356
117	0xbdb780e8	-0.08960134
118	0x3c2f6e00	0.010707378
119	0x3d0b4022	0.03399671
120	0xbd85738d	-0.0651618
121	0xbdbe6cb3	-0.092980765
122	0xbdc3a172	-0.095522776
123	0x3d3ef5b7	0.04662105
124	0xbc37e456	-0.011223873
125	0x3ba824f2	0.0051313573
126	0x3be3d5f0	0.0069529936
127	0xbd4ab7af	-0.04949158
128	0x3d290c14	0.041271284
129	0xbd340180	-0.043946743
130	0x3dc26325	0.094915666
131	0xbc224d21	-0.009906084
132	0xbb720a2f	-0.003693234
133	0xbdfee025	-0.12445096
134	0x3c8ed099	0.017433451
135	0xbdcbb590	-0.0994674
136	0x3ad61f75	0.0016336279
137	0xbcc48a97	-0.023991866
138	0x3c858c1e	0.016302165
139	0x3ce9bdf5	0.028532961
140	0xbd97e735	-0.07417146
141	0xbc4a79e0	-0.012358159
142	0xbdb58e60	-0.088650465
143	0xbd4b5f29	-0.0496513
144	0xbd860374	-0.065436274
145	0xbc3484c0	-0.011017978
146	0xbd92d02e	-0.071686134
147	0xbdc35901	-0.095384605
148	0xbdf83e1f	-0.12121224
149	0x3dc4a73d	0.09602211
150	0xbe0df772	-0.13863924
151	0xbd86007f	-0.06543063
152	0xbbf33c50	-0.0074229613
153	0xbd625206	-0.055254005
154	0x3cf190d7	0.02948801
155	0xbca880cc	-0.020569228
156	0xbb8bc1a8	-0.004265029
157	0x3d69adbc	0.05705045
158	0x3b38db98	0.002820706
159	0x3d402e01	0.046918873
160	0xbdfc4066	-0.123169705
161	0xbd819cd2	-0.06328739
162	0xbc8b66da	-0.017016817
163	0x3d6baa30	0.05753535
164	0x3d95e862	0.07319714
165	0xbe0e2d93	-0.13884573
166	0xbe0fe1f1	-0.14051034
167	0xbcfb92ea	-0.030709703
168	0xbba62fde	-0.005071624
169	0xbb3ecd65	-0.0029114124
170	0x3ce14a1e	0.027501162
171	0xbdbaeebd	-0.09127567
172	0x3de0fcfe	0.109857544
173	0x3d89808a	0.0671397
174	0xbd4ca32b	-0.049960297
175	0xbd85624f	-0.065128915
176	0xbe6f3d8c	-0.23363322
177	0xbb5b942b	-0.0033505063
178	0xbdd3f1bd	-0.10348842
179	0xbd0cf002	-0.034408577
180	0xbd290500	-0.041264534
181	0x3db20650	0.0869261
182	0x3c979c3c	0.018507116
183	0xbe063cb4	-0.13109094
184	0xbe212f3e	-0.15740678
185	0x3c6749a3	0.014116677
186	0x3d7da577	0.061925378
187	0xbd426ffd	-0.04747008
188	0xbd6101ed	-0.054933477
189	0x3d183372	0.037158437
190	0xbd97c7a3	-0.074111246
191	0xbe484ac5	-0.19559772
192	0xbc82b168	-0.015953735
193	0x3d478432	0.048710056
194	0xbd172244	-0.036897913
195	0xbd44fbe7	-0.048091795
196	0xbdcabacf	-0.09898912
197	0xbbde8e30	-0.0067918524
198	0xbddef201	-0.10886002
199	0xbd0dd819	-0.034629915
200	0xbd04aa31	-0.03238887
201	0xbd8575e5	-0.06516627
202	0x3da8deaa	0.08245595
203	0xbe1bda34	-0.15219957
204	0xbcc48e89	-0.023993747
205	0x3cba7a67	0.022763444
206	0x3c83af76	0.016074877
207	0xbdc4135e	-0.095740065
208	0x3d95a6ed	0.07307229
209	0x3d5e3c7c	0.0542569
210	0xbc8af339	-0.01696168
211	0xbc9b87c8	-0.018985644
212	0x3d9095ba	0.07059808
213	0x3d0a12a0	0.03370917
214	0xbcf287a7	-0.0296057
215	0x3d4f09b3	0.05054636
216	0x3dea833c	0.11450812
217	0xbd554f8b	-0.05207781
218	0x3daf0f08	0.08547789
219	0xbd820a61	-0.06349636
220	0xbd725a8e	-0.05916839
221	0xbde63fd1	-0.11242641
222	0x3d70bf70	0.05877632
223	0x3d8371b5	0.06418172
224	0x3dbaf63a	0.09128995
225	0x3d98a737	0.07453769
226	0xbcbc911b	-0.02301841
227	0xbe454ec0	-0.19268322
228	0x3d9ee35b	0.07758208
229	0xbdfed933	-0.12443771
230	0xbe065d13	-0.13121442
231	0xbe347760	-0.17623663
232	0xbd1f3408	-0.03886798
233	0xbd4208fc	-0.04737185
234	0x3cd38b34	0.025823213
235	0x3cb7f265	0.02245445
236	0xbe703992	-0.23459461
237	0xbdff16bd	-0.12455509
238	0xbd8580fe	-0.06518744
239	0xbd634b8e	-0.055491976
240	0xbb8d7132	-0.0043164724
241	0xbdac12c4	-0.08402017
242	0x3c9b1ff9	0.018936144
243	0xbc8ca564	-0.017168708
244	0xbc88be7c	-0.016692393
245	0xbd5916a9	-0.053000126
246	0xbdabf520	-0.08396363
247	0x3b053840	0.0020327717
248	0x3c1f32fd	0.009716746
249	0xbe2419d4	-0.16025478
250	0x3c10651a	0.008813167
251	0xba8c919f	-0.0010724551
252	0xbdc225d1	-0.09479869
253	0x3ce7f5e4	0.028315492
254	0xbccf88e0	-0.025333822
255	0xbc9902b6	-0.01867805

classifier.2.bias f4 [10]
0	0x3d8859d3	0.066577576
1	0x3ce46c6b	0.027883729
2	0x3cdc4655	0.026889006
3	0xbc9f2bfa	-0.01943015
4	0x3d8f4abb	0.069966756
5	0xbd0a10f9	-0.033707593
6	0xbd0b468a	-0.03400282
7	0xbcd42203	-0.025895124
8	0x3c531041	0.012882293
9	0xbe095a0c	-0.13413256
