dump/classifier_cwru_cua_so5.pt (torch, 11367 bytes, 2 tensors)

classifier.2.weight f4 [10, 256]
-0.08385355 -0.06638527 -0.018123912 0.08071049 -0.062009614 -0.08638471 -0.057330847 0.0066972603
0.029077316 -0.084443875 0.03285907 0.019297136 0.019317478 -0.1435217 0.089615256 -0.122492105
-0.17545536 -0.032873496 0.018652888 -0.00720089 0.082701184 -0.16407762 0.0266453 -0.032676976
-0.0068876627 -0.10324816 -0.018356735 0.1432745 -0.039078362 0.036134683 -0.14471667 0.043833435
-0.054094158 -0.07836124 0.04031682 0.17106111 -0.15731977 0.08950079 -0.06506663 -0.04099688
0.031165492 -0.04936493 0.03289727 -0.100587256 -0.061513517 0.022160778 0.018584818 -0.048533402
0.06790845 -0.057908364 -0.10231851 -0.023695154 -0.16267626 0.09038945 -0.0006063593 -0.004132114
-0.038271014 -0.054049518 -0.19455624 -0.03035841 0.08126912 -0.16974255 0.16754545 0.07092496
0.06980584 -0.0666235 0.056386292 -0.15168631 0.054147143 -0.008941428 0.034634575 -0.050739344
-0.16141056 -0.15999718 -0.14433575 -0.052533712 0.058175944 -0.037592366 -0.04834785 -0.03764767
-0.24234171 -0.0036430927 -0.07819921 -0.04217396 0.032123663 0.06365389 -0.07884465 0.02435831
-0.057117574 -0.026608642 -0.014998163 -0.09969228 0.028494716 -0.056268767 0.017341638 -0.07705679
0.03740825 0.022217315 0.020684905 -0.05715524 0.046038024 -0.0027277544 0.08397943 -0.17498876
-0.040929466 -0.026227072 -0.060056068 0.07714073 -0.1122514 0.075779855 -0.12234697 0.013912338
-0.035495136 -0.12862293 0.13783428 0.03350812 -0.17348933 -0.08610441 0.01901257 -0.052650183
-0.106669724 -0.19369109 0.013219698 -0.10331606 -0.03174702 -0.15264113 0.07266648 0.036088638
-0.06670789 -0.028676923 0.08622298 0.013413318 -0.015482493 -0.039495755 -0.049536355 0.049210533
-0.09722052 0.021450737 -0.057709828 -0.11609348 0.038450535 -0.057752978 -0.20397972 0.052892525
-0.052671198 -0.042370144 0.048605494 0.02769671 0.008407834 0.036014687 -0.012555264 0.04503076
-0.02717428 -0.0387604 -0.029828636 -0.073245525 -0.15648206 -0.05686226 -0.0876702 -0.17868243
-0.031840585 0.006975155 -0.032249477 0.0022600908 -0.02339278 0.00475232 -0.03469416 -0.16749474
-0.046156663 7.625792e-05 0.052148886 -0.027646398 -0.027180448 -0.06980813 -0.023700062 -0.0024162584
-0.10190805 -0.05904241 -0.021981033 -0.19922595 -0.1887745 -0.008821584 -0.048716743 -0.058560643
0.0077309064 0.0420365 -0.030696565 -0.1401838 -0.055804767 0.09668108 -0.081055 0.077195995
0.029412191 0.022587504 -0.021053521 0.025924193 -0.18387151 -0.052723534 0.03554467 -0.058430936
-0.0075453045 -0.0149960015 -0.082476445 -0.005395882 -0.0913221 0.037801072 -0.011056006 -0.019187456
-0.04083744 0.063935496 -0.02089625 -0.025513332 0.088308476 0.029311331 -0.026736436 0.07526211
-0.0056375847 -0.09726736 0.009527613 -0.005437102 -0.030190175 0.0077900016 -0.10447799 -0.054910757
-0.00838422 0.07089781 -0.11491337 -0.08600472 -0.001082577 0.017034106 0.038690686 -0.122609414
-0.23098516 -0.0055277995 -0.005823113 -0.010423196 -0.029729256 0.061727826 0.044795632 0.00032252853
0.080598556 -0.03858867 -0.06027229 -0.13817617 0.05434551 -0.13764544 -0.14973766 -0.142391
-0.14808623 0.013352103 -0.009918946 -0.06546168 -0.010469373 0.07290771 0.0021030551 -0.028546095
00000000: 69bb abbd 00f5 87bd 9978 94bc 8b4b a53d
00000010: cbfd 7dbd 78ea b0bd c0d3 6abd b174 db3b
00000020: 8d33 ee3c e9f0 acbd 3b97 063d 0715 9e3c
00000030: b03f 9e3c 5af7 12be 3488 b73d 24dd fabd
00000040: 92aa 33be 5ca6 06bd f1cd 983c 72f5 ebbb
00000050: 3d5f a93d f703 28be 3f47 da3c 4bd8 05bd
00000060: e7b1 e1bb c573 d3bd dd60 96bc 8db6 123e
00000070: a210 20bd f601 143d 9b30 14be b08a 333d
00000080: d691 5dbd dc7b a0bd 4023 253d a52a 2f3e
00000090: 6f18 21be 314c b73d a741 85bd 58ec 27bd
000000a0: c64e ff3c e132 4abd 4abf 063d b100 cebd
000000b0: 99f5 7bbd 858a b53c 303f 983c f6ca 46bd
000000c0: 9613 8b3d 5231 6dbd 5e8c d1bd 571c c2bc
000000d0: 9b94 26be 1b1e b93d 15f4 1eba af66 87bb
000000e0: 11c2 1cbd 0763 5dbd c039 47be 33b2 f8bc
000000f0: 6d70 a63d fed0 2dbe 0991 2b3e 1b41 913d
00000100: 5df6 8e3d e771 88bd 50f5 663d a853 1bbe
00000110: 65c9 5d3d 117f 12bc fcdc 0d3d 0fd4 4fbd
00000120: cf48 25be 4dd6 23be c0cc 13be 972d 57bd
00000130: e649 6e3d 74fa 19bd 6508 46bd 7134 1abd
00000140: 6d28 78be f4c0 6ebb e826 a0bd 9abe 2cbd
00000150: 1a94 033d f85c 823d 4e79 a1bd 148b c73c
00000160: 1ef4 69bd 5efa d9bc dbba 75bc 772b ccbd
00000170: c06d e93c 147a 66bd 0d10 8e3c f3cf 9dbd
00000180: 6539 193d 1601 b63c 6473 a93c 9d1b 6abd
00000190: 5e92 3c3d 20c4 32bb 68fd ab3d 4130 33be
000001a0: a8a5 27bd 28da d6bc 5afd 75bd f6fb 9d3d
000001b0: 10e4 e5bd 7832 9b3d 0c91 fabd 93f0 633c
000001c0: 5963 11bd bbb5 03be 6e24 0d3e cf3f 093d
000001d0: 30a7 31be 8257 b0bd 40c0 9b3c b8a7 57bd
000001e0: a875 dabd f556 46be 6f97 583c 5f97 d3bd
000001f0: 2a09 02bd f54d 1cbe 2ad2 943d aed1 133d
00000200: 259e 88bd deeb eabc ac95 b03d 89c3 5b3c
00000210: 48aa 7dbc 4dc6 21bd a2e6 4abd fc90 493d
00000220: 8d1b c7bd 75b9 af3c 2461 6cbd 6bc2 edbd
00000230: 4f7e 1d3d 638e 6cbd 0fe0 50be d5a5 583d
00000240: c1bd 57bd 518c 2dbd 8e16 473d 36e4 e23c
00000250: 03c1 093c 2384 133d 98b4 4dbc 2d72 383d
00000260: 989c debc 3ac3 1ebd 2f5b f4bc c001 96bd
00000270: d53c 20be 67e8 68bd 6f8c b3bd 87f8 36be
00000280: 466b 02bd d78f e43b 0718 04bd 081e 143b
00000290: 37a2 bfbc 59b9 9b3b 771b 0ebd be83 2bbe
000002a0: c50e 3dbd a9ec 9f38 129a 553d b37a e2bc
000002b0: 88a9 debc 91f7 8ebd a226 c2bc 175a 1ebb
000002c0: 2bb5 d0bd 74d6 71bd 9111 b4bc e301 4cbe
000002d0: 1a4e 41be 6888 10bc 358b 47bd 49dd 6fbd
000002e0: 8b53 fd3b 772e 2c3d 5d77 fbbc 588c 0fbe
000002f0: 8a93 64bd bb00 c63d 2a00 a6bd ef18 9e3d
00000300: d6f1 f03c 6e09 b93c 6f78 acbc f95e d43c
00000310: d048 3cbe a2f4 57bd 4a97 113d 4755 6fbd
00000320: 9a3e f7bb cab1 75bc 69e9 a8bd f0cf b0bb
00000330: 1507 bbbd 4cd5 1a3d 4024 35bc 032f 9dbc
00000340: 2945 27bd 9df0 823d 9d2e abbc 5601 d1bc
00000350: 13db b43d 511e f03c 5f06 dbbc 0523 9a3d
00000360: 7dbb b8bb 1c34 c7bd b519 1c3c b829 b2bb
00000370: 6351 f7bc 4543 ff3b 8ef8 d5bd 1aea 60bd
00000380: f85d 09bc df32 913d b357 ebbd 3e23 b0bd
00000390: 42e5 8dba 1c8b 8b3c 207a 1e3d a51a fbbd
000003a0: 6087 6cbe 8b22 b5bb d0cf bebb 0dc6 2abc
000003b0: c58a f3bc 51d6 7c3d a07b 373d 0c19 a939
000003c0: db10 a53d 270f 1ebd 14e0 76bd 0e7e 0dbe
000003d0: 6699 5e3d edf2 0cbe d454 19be f2ce 11be
000003e0: eba3 17be c7c2 5a3c 1383 22bc c610 86bd
000003f0: bc87 2bbc a350 953d 69d3 093b 80d9 e9bc

classifier.2.bias f4 [10]
0.0766642 0.031615272 -0.022473644 0.0069181346 0.06850326 -0.008075783 -0.06570913 -0.046697553
0.063291915 -0.06616388
00000000: 1f02 9d3d 047f 013d a61a b8bc 85b1 e23b
00000010: 704b 8c3d 4a50 04bc 8292 86bd ef45 3fbd
00000020: 319f 813d ee80 87bd
