dump/classifier_cwru_cua_so.pt (torch, 11367 bytes, 2 tensors)

classifier.2.weight f4 [10, 256]
0	0x3cd9f4b9	0.02660595
1	0x3d4b218a	0.049592532
2	0xbd6733ca	-0.056445874
3	0xbd824a85	-0.0636187
4	0xbda420b0	-0.08014047
5	0xbd5d19a8	-0.053979546
6	0x3d84c175	0.064822115
7	0xbe433c95	-0.19066079
8	0x3d39a9d6	0.045327984
9	0xbcb1888e	-0.02167156
10	0x3d8de808	0.06929022
11	0xbdc6d607	-0.09708791
12	0xbd607414	-0.0547982
13	0x3cff59bc	0.031170718
14	0xbd4fd5be	-0.05074095
15	0x3c328260	0.010895342
16	0xbcada7be	-0.02119815
17	0xbbbee6d5	-0.005825857
18	0xbcb69a13	-0.022290265
19	0x3d54baa0	0.051935792
20	0xbdcb1f32	-0.099180594
21	0xbd051741	-0.03249288
22	0xbca2ff3c	-0.019897096
23	0xbcab6130	-0.020920366
24	0x3d4b72df	0.049670096
25	0x3d6c6e1d	0.0577222
26	0xbd92651b	-0.071481906
27	0xbd819b76	-0.0632848
28	0x3c446523	0.0119870035
29	0x3c1c76b3	0.0095497845
30	0xbd9be177	-0.076113634
31	0x3cf72e38	0.030173406
32	0xbdb69c22	-0.08916499
33	0x3d5c373a	0.053763606
34	0xbda35edc	-0.07977077
35	0xbcd778bc	-0.026302688
36	0x3cadbe86	0.021209013
37	0x3d42ca8d	0.04755645
38	0xbc973527	-0.018457962
39	0x3d76ce5d	0.060255397
40	0x3bf922ea	0.007603039
41	0xbe1cb5a6	-0.15303668
42	0xbb2f70c3	-0.0026770092
43	0x3d52d87c	0.051475987
44	0x3d310dc0	0.043226004
45	0xbd015114	-0.031571463
46	0x3cb6a425	0.022295067
47	0x3cc88070	0.024475306
48	0x3d4021ad	0.046907116
49	0x3d1f9c03	0.038967144
50	0x3cc55be3	0.024091667
51	0xbd3556f1	-0.044272367
52	0xbd5a5ec9	-0.05331305
53	0xbe2bf07a	-0.16790953
54	0x3d037d85	0.032102127
55	0x3e06b45f	0.13154744
56	0x3c904f7f	0.017616032
57	0xbd810380	-0.06299496
58	0xbbdbdc46	-0.0067096082
59	0x3d1123d8	0.035434574
60	0x3ca7df54	0.020492233
61	0xbb91a8a5	-0.004445153
62	0x3db42a93	0.08797183
63	0x3d64605c	0.055755958
64	0x3d802a05	0.062580146
65	0xbd307863	-0.04308356
66	0xbca47119	-0.02007346
67	0xbd0bfd46	-0.034177087
68	0xbc47c85e	-0.012193767
69	0x3d015550	0.0315755
70	0x3daaa0bc	0.08331439
71	0x3dd5835e	0.10425447
72	0x3d0e491a	0.034737684
73	0xbc3f7dd9	-0.011687719
74	0x3c4c4d70	0.012469634
75	0xbda86735	-0.0822281
76	0xbd0fe9ff	-0.035135265
77	0x3d73adb9	0.059491847
78	0x3dbeb7e1	0.09312416
79	0x3d4cd095	0.050003607
80	0xbbe924c7	-0.00711498
81	0xbd9611af	-0.07327592
82	0x3d693d5e	0.05694329
83	0xbc2fba6c	-0.010725599
84	0xbd84c212	-0.064823285
85	0xbcb02880	-0.021503687
86	0xbc401040	-0.011722624
87	0x3d68d10d	0.05683999
88	0xbdd33427	-0.10312682
89	0xbd9fd8c5	-0.078050174
90	0xbc9c6fdc	-0.019096307
91	0x3d02b911	0.031914774
92	0x3d50d4d0	0.050984204
93	0xbb651717	-0.003495639
94	0x3d851805	0.06498722
95	0xbd333e4e	-0.04376059
96	0xbc7f4c03	-0.015582087
97	0xbc3d1430	-0.011540458
98	0x3d6200e6	0.055176638
99	0x3da3dae1	0.08000732
100	0x3d66a02d	0.0563051
101	0x3d61a123	0.055085313
102	0x3d32b85c	0.04363285
103	0xba8ddf52	-0.0010824001
104	0x3cdc94c0	0.026926398
105	0x3e019891	0.12655856
106	0x3cddcc33	0.027074909
107	0x3d6b58c0	0.057457685
108	0xbe010f58	-0.1260351
109	0x3d3723cb	0.04471187
110	0xbddc07c4	-0.10743669
111	0xbd2cdafc	-0.042201027
112	0x3c8e615a	0.017380405
113	0x3d37328c	0.04472594
114	0xbe335742	-0.17513755
115	0xbdb4f2d0	-0.08835375
116	0xbe12e714	-0.14345962
117	0xbce0c759	-0.027438806
118	0xbd2255cd	-0.039632607
119	0xbd0b9fb9	-0.03408787
120	0xbbf8841c	-0.007584108
121	0xbdc54bec	-0.096336216
122	0xbbc57c3e	-0.0060267737
123	0xbd9d4c13	-0.07680526
124	0x3cb70f07	0.022346033
125	0xbda29344	-0.07938245
126	0xbcd86558	-0.026415512
127	0xbd916cc7	-0.07100826
128	0x3a9198ca	0.0011108157
129	0xbe0bbcbd	-0.13646217
130	0xbde3136d	-0.110876895
131	0x3dbe21df	0.09283804
132	0x3d10b2bd	0.035326708
133	0x390d19c9	0.00013456414
134	0xbc3cf73e	-0.0115335565
135	0xbd77edcc	-0.060529515
136	0x3d5e6f8a	0.05430559
137	0x3d8a2edd	0.0674722
138	0xbe260097	-0.16211163
139	0x3ae307d2	0.0017321056
140	0x3cca646b	0.024706086
141	0x3b31eeeb	0.0027150463
142	0x3da65664	0.081219465
143	0xbd8245f4	-0.06360999
144	0x3cad172e	0.021129217
145	0xbad64e40	-0.0016350225
146	0xbd028e4c	-0.031873986
147	0x3c682638	0.014169268
148	0x3d1e8a8d	0.03870635
149	0xbd98e50f	-0.074655645
150	0xbb14612e	-0.0022640931
151	0xbdcc5511	-0.09977163
152	0x3d91323e	0.07089661
153	0x3d64d25b	0.055864673
154	0x3d573d3e	0.05254864
155	0xbe341e0e	-0.1758959
156	0xbc97dfd0	-0.01853934
157	0xbd77d5e2	-0.06050671
158	0x3e096ee2	0.13421205
159	0xbd9153a8	-0.07096034
160	0xbda0ff55	-0.07861201
161	0xbe2ade40	-0.16686344
162	0x3ca561b5	0.020188192
163	0xbd62e026	-0.055389546
164	0xbd8dcd69	-0.069239445
165	0x3da3e0d3	0.08001866
166	0xbc2fd1fe	-0.010731218
167	0x3b814816	0.003945361
168	0x3c19d5ca	0.00938935
169	0xbdcee727	-0.101026826
170	0xbe293639	-0.1652459
171	0xbca0237d	-0.019548172
172	0x3de0589a	0.109543994
173	0x3c522a68	0.012827493
174	0x3d64167e	0.055685513
175	0xbcb6a079	-0.022293316
176	0x3b4389d6	0.0029836795
177	0xbd280606	-0.04102137
178	0x3b6e4f38	0.0036363136
179	0x3ab6a276	0.0013933915
180	0x3cda2aab	0.026631674
181	0x3dc3426d	0.09534154
182	0xbd0b27f9	-0.033973668
183	0xbdcdb697	-0.10044592
184	0x3c8e6db4	0.017386295
185	0x3ce6ff1a	0.028197814
186	0x3bda53c5	0.006662818
187	0xbb19d238	-0.0023471247
188	0xbd942445	-0.0723348
189	0xbcfec37b	-0.031099072
190	0xbbc1bcca	-0.005912398
191	0xbd50b3fd	-0.0509529
192	0xbd5d156a	-0.0539755
193	0xbd069549	-0.032857213
194	0x3d72277a	0.05911968
195	0x3d162fd8	0.03666672
196	0xbe261442	-0.16218665
197	0xbc0ec7b7	-0.008714608
198	0x3c21fd8d	0.009887111
199	0xbe1d809b	-0.1538109
200	0xbe3d4a56	-0.18485388
201	0xbd917944	-0.07103208
202	0xbdf1e1a2	-0.11810614
203	0xbcb07099	-0.021538066
204	0x3d06371d	0.032767404
205	0x3cc1a60b	0.023638746
206	0x3c7304ac	0.014832657
207	0xbd976a5f	-0.073933356
208	0x3d093bc5	0.033504266
209	0xbd1e545b	-0.038654666
210	0x3d0e8d61	0.0348028
211	0xbcfabe3e	-0.030608293
212	0xbd1c26e0	-0.03812301
213	0xbdd9cc60	-0.106346846
214	0xbd930864	-0.07179335
215	0x3d428fcd	0.04750042
216	0x3cac4d22	0.021032874
217	0xbd22014b	-0.039552014
218	0x3d2bf6cc	0.04198341
219	0xbdbd8852	-0.09254517
220	0x3cc503cc	0.024049662
221	0x3d9ba571	0.07599915
222	0xbd3d54c2	-0.04622341
223	0xbd5eff81	-0.054442886
224	0x3bab98aa	0.005236705
225	0xbd85317d	-0.0650358
226	0xbd82f399	-0.06394119
227	0xbb15a73f	-0.0022835282
228	0x3ca29058	0.01984422
229	0xbdac026b	-0.08398899
230	0x3c5a601b	0.013328577
231	0x3bbf2a3a	0.005833891
232	0xbd0caa4b	-0.03434209
233	0xbd3a7c43	-0.04552866
234	0xbcf44ec6	-0.029822718
235	0xbd3f7ac0	-0.046747923
236	0xbe47a6ad	-0.19497176
237	0x3cd344fc	0.02578973
238	0xbd665aa9	-0.056238804
239	0xbb6342c9	-0.0034677258
240	0xbd120ca1	-0.035656575
241	0x3d01c8a6	0.031685494
242	0xbdb555d0	-0.08854258
243	0x3c1b20e8	0.009468295
244	0xb99787eb	-0.0002890223
245	0xbc8ca5cf	-0.017168907
246	0x3d1084e5	0.035282988
247	0xbe287c3e	-0.16453645
248	0xbdd362f1	-0.10321606
249	0x3d23afc0	0.03996253
250	0x3c983504	0.018579967
251	0xbcf1fbfb	-0.029539099
252	0x3d994237	0.074833326
253	0xbd815086	-0.06314187
254	0x3cdabcc8	0.026701346
255	0x3db0a6b4	0.08625546

classifier.2.bias f4 [10]
0	0xbc640c79	-0.013918989
1	0x3da9c29b	0.08289071
2	0x3d859678	0.0652284
3	0x3d087a4f	0.033319768
4	0xbcdd70fa	-0.02703141
5	0xbcc5e991	-0.024159225
6	0x3da06a94	0.07832828
7	0x3d34615b	0.044038158
8	0xbba6e94b	-0.0050937287
9	0xbc9fc8e2	-0.019504968
