dump/classifier_cwru_supervised.pt (torch, 11367 bytes, 2 tensors)

classifier.2.weight f4 [10, 256]
0	0xbb5e9dc0	-0.0033968538
1	0xbd16c198	-0.03680572
2	0xbdab2953	-0.08357491
3	0xbd80f5ed	-0.062969066
4	0xbe04a4fb	-0.1295356
5	0x3d13be85	0.036070365
6	0x3d38367b	0.04497383
7	0x3c5c6263	0.013451192
8	0x3ba657ec	0.005076399
9	0xbd44abc5	-0.048015375
10	0x3cb1b9bc	0.02169501
11	0xba60dc65	-0.0008577763
12	0xbd3f94e8	-0.046772867
13	0x3d08bf04	0.03338529
14	0x3ca12876	0.019672614
15	0x3cfab3ed	0.030603373
16	0xbda2b157	-0.07943981
17	0x39a92183	0.0003225916
18	0xbd5e37c0	-0.054252386
19	0xbe2facec	-0.17155808
20	0x3d95f085	0.07321266
21	0xbd89d375	-0.06729785
22	0xbd24dc49	-0.040249143
23	0x3cfc5798	0.030803487
24	0x3d82ade2	0.06380822
25	0xbdcc10e8	-0.09964162
26	0xbd2a4952	-0.04157383
27	0x3bb2d46f	0.005457453
28	0x3d073e5e	0.033018462
29	0x3d29b481	0.041431908
30	0x3d8d7c25	0.06908444
31	0x3d8c5b7e	0.06853388
32	0xbdcd1088	-0.10012919
33	0x3d246d67	0.040143397
34	0xbd81090b	-0.06300553
35	0xbd2bfd65	-0.041989703
36	0xbddbe190	-0.10736382
37	0xbbc7d439	-0.006098297
38	0x3d792c0e	0.06083303
39	0x3ceebcac	0.0291427
40	0xbc54d824	-0.012990985
41	0x3d111291	0.035418097
42	0xbbd34175	-0.006447012
43	0xbda7b776	-0.08189289
44	0x3db5af4b	0.08871325
45	0xbd2114cd	-0.039326478
46	0xbd3e2d7b	-0.046430092
47	0xbd9c8d55	-0.076441444
48	0xbd85a480	-0.065255165
49	0x3c43c8c5	0.011949723
50	0xbe00ceed	-0.12578936
51	0xbe2b6ebf	-0.16741465
52	0xbd7ad538	-0.061238497
53	0xbdbe985f	-0.09306406
54	0xbd3cc863	-0.04608954
55	0xbd375b52	-0.044764824
56	0x3dc04ff7	0.09390252
57	0x3c703aab	0.014662425
58	0x3b25c669	0.0025295264
59	0x3c46f2fc	0.012142893
60	0x3dad3d54	0.08458963
61	0x3c8df570	0.017328948
62	0x3d1e6f83	0.038680565
63	0xbdcdb782	-0.10044767
64	0xbda1c2f2	-0.07898511
65	0xbdf4fa56	-0.1196181
66	0x3d4546f0	0.048163354
67	0xba3b9c80	-0.0007156804
68	0xbd00a03c	-0.03140281
69	0x3cb20ab6	0.021733623
70	0xbd09af34	-0.033614352
71	0xbca3d61e	-0.01999956
72	0x3dd6ef26	0.10494833
73	0xbd1b5f19	-0.03793249
74	0xbd94fce4	-0.072747976
75	0x3c491ced	0.012274963
76	0x3bd74fef	0.006570808
77	0x3d99be9e	0.075070605
78	0xbccb8e6e	-0.02484819
79	0x3cd2791c	0.025692515
80	0xbdb591d3	-0.088657044
81	0xbe0e0d8d	-0.13872357
82	0xbd78cbf3	-0.060741376
83	0xbdccae41	-0.09994174
84	0xbd42fc0a	-0.047603644
85	0x3d89ffd5	0.06738249
86	0x3daece80	0.085354805
87	0x3cf1c674	0.029513575
88	0x3cb80582	0.022463564
89	0xbafd233b	-0.0019312868
90	0xbd2e599b	-0.042565923
91	0xbe158d22	-0.14604619
92	0xbd361ca1	-0.044460896
93	0x3d7d188a	0.06179098
94	0x3d9523b7	0.07282203
95	0x3d4f2559	0.050572727
96	0xbbc8a792	-0.0061234916
97	0xbc80860c	-0.015688919
98	0x3ce87cd8	0.028379843
99	0xbc110473	-0.008851158
100	0x3d321c30	0.043483913
101	0xbd298754	-0.041388825
102	0xbae15bf5	-0.0017193543
103	0xbd447e66	-0.047972105
104	0x3baa3118	0.0051938407
105	0x3dcbb4e9	0.09946615
106	0xbe0dd916	-0.13852343
107	0x3d16c55c	0.03680931
108	0xbd8c1d43	-0.06841519
109	0xbcbcf6f4	-0.023066975
110	0x3e02bace	0.12766573
111	0x3cd15b32	0.02555618
112	0x3d69b8c7	0.057060983
113	0xbd563b54	-0.052302673
114	0xbe278711	-0.16360117
115	0xbd79ccab	-0.060986202
116	0x3d2d43a3	0.04230083
117	0xbba0b9fc	-0.0049049836
118	0xbe1d9bf0	-0.15391517
119	0xbdd7ec9e	-0.10543178
120	0x3c8e22f5	0.017350653
121	0x3d98f21c	0.07468054
122	0xbd730b76	-0.059337102
123	0xbdd19eff	-0.10235404
124	0xbc8bdfaa	-0.017074425
125	0x3d6e6cc6	0.058209203
126	0x3c754cd5	0.014971931
127	0xbdb4828a	-0.08813961
128	0x3c3e8171	0.011627541
129	0xbd2b0562	-0.04175318
130	0x3d5e5dcc	0.05428867
131	0xbcb1d3d3	-0.021707451
132	0xbdc02345	-0.09381727
133	0xbd26ea58	-0.04075083
134	0xbdf39fed	-0.11895738
135	0xbc8a99d3	-0.016919052
136	0xbe1bc077	-0.15210138
137	0xbc306fb6	-0.010768821
138	0xbdfa4e5c	-0.12221977
139	0x3c199f06	0.009376293
140	0x3d15c62e	0.036565952
141	0xbd851203	-0.06497576
142	0xbdd1e0d3	-0.1024796
143	0x3d89a03d	0.06720016
144	0xbd387a7a	-0.045038678
145	0xbce863d1	-0.028367909
146	0x3cb816be	0.022471782
147	0x3d8617a7	0.0654748
148	0xbdb7c29c	-0.08972666
149	0x3b723d74	0.0036962898
150	0xbe295234	-0.16535264
151	0xbc13c79b	-0.009019758
152	0xbc1dfa30	-0.009642169
153	0x3d5f3a96	0.05449923
154	0xbd8fba3f	-0.070179455
155	0xbddb7ee6	-0.10717563
156	0xbdb63990	-0.08897698
157	0xbd81d375	-0.0633916
158	0xbcfe0e1d	-0.03101259
159	0xbc8f8567	-0.017519666
160	0xbce9e955	-0.028553644
161	0xbb634d4c	-0.0034683524
162	0x3d55af88	0.052169353
163	0x3d8c6e6c	0.06856999
164	0xbd98825b	-0.07446738
165	0xbd4f8b91	-0.05067021
166	0xbe1b208c	-0.15149134
167	0xbdd122dd	-0.10211728
168	0x3c7069eb	0.01467369
169	0xbddb89a5	-0.10719613
170	0xbdcefcca	-0.101068094
171	0xbc1400ed	-0.009033424
172	0x3dca7e85	0.09887413
173	0xbd0e7b49	-0.034785543
174	0x3c2e73e2	0.010647746
175	0xbd2bbac0	-0.041926146
176	0x3d5181d7	0.051149216
177	0xbde8e327	-0.11371451
178	0xbe003dad	-0.12523527
179	0x3d84870e	0.06471072
180	0xbd09c370	-0.03363365
181	0xbcbde190	-0.023178846
182	0xbb72bb8d	-0.0037038059
183	0xbe178813	-0.14798002
184	0xbdd08ff7	-0.10183709
185	0xbc14b55a	-0.009076441
186	0xbccb5d66	-0.02482481
187	0xbdc3e2f1	-0.0956477
188	0xbe09f922	-0.13473943
189	0x3d087bd4	0.033321217
190	0xbda2d013	-0.07949843
191	0xbc5a09dc	-0.013308015
192	0x3db68c54	0.08913484
193	0x3c9f4f16	0.01944689
194	0x3d12a6ab	0.03580348
195	0xbdddba44	-0.10826543
196	0xbbfaac1a	-0.0076499106
197	0xbe248fd4	-0.16070491
198	0x3dc6673c	0.09687659
199	0x3d5087ba	0.05091069
200	0x3d47249d	0.0486189
201	0xbd56947d	-0.052387703
202	0xbd9f0fd0	-0.07766688
203	0xbe432614	-0.19057494
204	0xbdcefcee	-0.10106836
205	0xbd314238	-0.04327604
206	0x3b8ac4cd	0.0042348863
207	0xbdb80ff1	-0.089874156
208	0x3d46ac22	0.048504002
209	0x3e03dc14	0.12876922
210	0xbaf25f8d	-0.0018491611
211	0x3d815f5e	0.06317018
212	0xbd6f3c51	-0.05840713
213	0x3d9933a9	0.074805565
214	0x3d1f5781	0.03890181
215	0x3c8b4c15	0.017004052
216	0xbd782812	-0.06058509
217	0x3d1007bc	0.035163626
218	0x3c537dba	0.0129083935
219	0x3d5ca41d	0.053867448
220	0xbdc3203f	-0.09527635
221	0xbdf42c65	-0.1192253
222	0xbd9f077c	-0.077650994
223	0xbd8d530b	-0.06900605
224	0xbd15d5b1	-0.036580745
225	0x3c5d807d	0.0135194035
226	0x3d4668df	0.048439857
227	0x3c1d622c	0.0096059255
228	0xbab2b921	-0.0013635495
229	0x3da66c95	0.08126179
230	0x3c80e990	0.015736371
231	0x3d120d91	0.03565747
232	0x3d53cb73	0.051707696
233	0xbd1cb5ae	-0.0382592
234	0xbc93d938	-0.018047914
235	0xbe23747b	-0.15962403
236	0x3cf74b0e	0.030187156
237	0xbd2115f0	-0.03932756
238	0x3aeee759	0.0018226906
239	0x3d0ac62a	0.03388039
240	0xbc983853	-0.018581545
241	0xbd33db55	-0.043910343
242	0x3d6f1f2a	0.05837933
243	0xbd8dd103	-0.069246314
244	0xbd30f515	-0.04320248
245	0xbd7c7574	-0.06163545
246	0x3c9ce668	0.019152835
247	0x3d9e0f50	0.077177644
248	0xbd52e33e	-0.051486246
249	0xbe046b2f	-0.12931512
250	0xbe07f71e	-0.13277861
251	0xbc4c8800	-0.012483597
252	0x3c8bf404	0.01708413
253	0x3d2e439a	0.04254494
254	0x3da6e09b	0.08148309
255	0xbdcc83c7	-0.09986072

classifier.2.bias f4 [10]
0	0x3d786d47	0.06065109
1	0xbd6b5956	-0.057458244
2	0xbd596053	-0.053070378
3	0xbd38882f	-0.04505175
4	0x3d5ca5f6	0.05386921
5	0x3d4f8dfe	0.050672524
6	0xbd3ca3c3	-0.046054613
7	0xbbaf2779	-0.0053452817
8	0x3ce78b66	0.028264713
9	0x3ae8d2ae	0.0017762983
