dump/classifier_cwru_cua.pt (torch, 11367 bytes, 2 tensors)

classifier.2.weight f4 [10, 256]
0	0x3c08235c	0.008309212
1	0xbd30a72c	-0.043128178
2	0xbcdebfe3	-0.027191108
3	0x3c901554	0.017588295
4	0xbb15a579	-0.0022834225
5	0xbce05a16	-0.027386706
6	0x3ca209ac	0.019780003
7	0x3d290bfe	0.041271202
8	0x3d6b35f8	0.057424515
9	0xbd423b7c	-0.04742001
10	0xbc34dc74	-0.011038888
11	0x3c4bf4e0	0.0124485195
12	0xbe4cd2fd	-0.2000236
13	0xbd20f00d	-0.03929143
14	0xbd602d83	-0.054730903
15	0x3afb4a2f	0.0019171889
16	0xbcee4de1	-0.02908987
17	0xbe2859c5	-0.16440494
18	0x3d1aeae3	0.03782166
19	0x3cbbc4cc	0.022920989
20	0xbc9e9237	-0.01935683
21	0x3d36feae	0.044676475
22	0x3d5da056	0.054107986
23	0xbd83d53f	-0.06437158
24	0x3d01ff81	0.03173781
25	0xbd6381f5	-0.05554386
26	0x3c94bf6f	0.018157689
27	0xbd5fb788	-0.05461839
28	0xbdd38b42	-0.10329296
29	0x3c8768ce	0.016529467
30	0x3d1ddf1c	0.03854285
31	0xbe221e36	-0.15831837
32	0x3d7c4df6	0.061597787
33	0xbcdb460a	-0.026766796
34	0xbe4ee8eb	-0.20206039
35	0x3c8b5d31	0.01701221
36	0x3cbf7449	0.023370879
37	0x3d629936	0.055321895
38	0x3d3d689c	0.04624234
39	0xbda0e0c9	-0.07855374
40	0x3d91ad2f	0.0711311
41	0x3b7cfa45	0.003860132
42	0xbe4913f0	-0.19636512
43	0x3db25fc8	0.08709675
44	0x3cd011b4	0.025399067
45	0xbd01e6fc	-0.031714424
46	0x3d9e5a51	0.0773207
47	0x3d500208	0.050783187
48	0xbe4169c2	-0.18888
49	0x3c3b4cc8	0.01143188
50	0x3d226c3b	0.039653998
51	0x3b70de93	0.0036753758
52	0x3cbed2b0	0.023293823
53	0xbc40cc6a	-0.011767486
54	0xbc1ebbd2	-0.009688335
55	0x3cc8dbb9	0.024518834
56	0xbdc647f9	-0.096816964
57	0xbe0e5136	-0.13898167
58	0x3d92f3f7	0.07175439
59	0x3c292d8d	0.010325802
60	0x3dc48cca	0.09597166
61	0x3d6b7855	0.057487804
62	0x3d49a3de	0.04922854
63	0xbd797f6f	-0.060912546
64	0x3b93f79d	0.004515602
65	0x3c23fbc8	0.01000876
66	0x3d6f47f9	0.058418248
67	0x3cea5af8	0.02860783
68	0xbd714445	-0.058902998
69	0xbceb2524	-0.028704233
70	0xbcfe8876	-0.031070929
71	0x3bdaddac	0.0066792574
72	0xbcc7722f	-0.02434644
73	0x3d43dca9	0.04781786
74	0xbcd44798	-0.025913045
75	0x3d2bef23	0.041976105
76	0xba7595fd	-0.00093683583
77	0x3d7bdd03	0.06149007
78	0x3d5706e1	0.052496795
79	0x3bc433f6	0.0059876395
80	0xbe13ee76	-0.14446434
81	0xbce3f52c	-0.027826868
82	0x3ab3a452	0.0013705587
83	0xbc2a1fae	-0.01038353
84	0xbd82d27c	-0.06387803
85	0xbc633001	-0.0138664255
86	0xbda41699	-0.08012123
87	0xbd19baf2	-0.0375318
88	0x3cdf45c9	0.027254956
89	0xbe0d95ce	-0.13826677
90	0xbdfedaca	-0.124440745
91	0x3c9feeca	0.019523043
92	0xbe15ab83	-0.14616208
93	0x3d396e06	0.045270942
94	0x3e018781	0.12649347
95	0xbd9040bb	-0.07043596
96	0x3ccfaebc	0.025351875
97	0xbddaf21e	-0.106907114
98	0xbcca965b	-0.024729898
99	0x3c304895	0.010759492
100	0x3d8426e8	0.06452733
101	0xbd86c065	-0.06579665
102	0xbd8387e2	-0.06422402
103	0x3d8e964c	0.069622606
104	0x3d0b0681	0.03394175
105	0xbca2282e	-0.01979455
106	0x3d9ae157	0.075625114
107	0x3d9c3e17	0.0762903
108	0xbb3d2dc0	-0.002886638
109	0x3d573c1e	0.052547567
110	0x3daee358	0.08539456
111	0xbd02328f	-0.031786498
112	0xbe214fdd	-0.15753122
113	0x3dbc12b2	0.09183253
114	0x3db34df5	0.087551035
115	0xbd447750	-0.047965348
116	0xbd4d14d1	-0.05006868
117	0xbd758f61	-0.05995119
118	0x3b9203b7	0.0044560093
119	0xbd21a0f3	-0.039460134
120	0x3d179670	0.037008703
121	0xbd1973b3	-0.037463855
122	0xbe1c9708	-0.15291989
123	0xbc3e03d7	-0.011597595
124	0x3cf58444	0.029970296
125	0xbe1f1538	-0.15535438
126	0xbcea3f05	-0.028594503
127	0xbd1ad24a	-0.037798204
128	0xbd59705a	-0.053085662
129	0xbc6a41d7	-0.014297924
130	0x3bd3138b	0.0064415387
131	0xbd8c7715	-0.068586506
132	0xbd8acb63	-0.06777074
133	0x3c1fd34b	0.009754966
134	0x3d11ed62	0.035626777
135	0x3d1dfad3	0.038569283
136	0xbbc30dbc	-0.005952565
137	0xbc643120	-0.013927728
138	0xbe03e274	-0.12879354
139	0xbd0a1c32	-0.033718295
140	0xbce6d8ba	-0.028179515
141	0xbdb598a5	-0.08867005
142	0x3d25ff0a	0.040526427
143	0xbd6624fe	-0.056187622
144	0xbd475b26	-0.04867091
145	0x3d14cffa	0.036331154
146	0xbd80aab1	-0.06282557
147	0xbd264de0	-0.04060161
148	0xbe47b03f	-0.19500826
149	0xbe434daa	-0.19072595
150	0x3c97368d	0.018458629
151	0xbd249d9a	-0.040189363
152	0x3ac55310	0.0015054662
153	0xbd96c0eb	-0.07361015
154	0xbc196ed5	-0.009364803
155	0x3d665643	0.05623461
156	0x3cb020d4	0.021500029
157	0xbda3e000	-0.08001709
158	0x3b4855e8	0.0030568782
159	0x3bd7ea22	0.00658919
160	0xbbc7ece7	-0.006101239
161	0xbb1915a0	-0.0023358837
162	0xbdc947b1	-0.09828127
163	0x3c85429d	0.016267115
164	0x3b413a00	0.0029484034
165	0xbda42e2e	-0.080166206
166	0xbdcd613b	-0.10028311
167	0xbdcc77f7	-0.09983819
168	0x3c0eee45	0.0087238
169	0xbcde0535	-0.027102092
170	0x3bb83dae	0.005622587
171	0xb9326d7d	-0.0001701619
172	0x3cb09493	0.02155522
173	0x3d870447	0.06592613
174	0x3d8bbaa2	0.06822707
175	0xba6f6ce5	-0.0009133353
176	0xbd1086e5	-0.035284895
177	0x3bb0b4b4	0.0053926352
178	0xbd3544b9	-0.044254992
179	0x3ca28d3f	0.019842742
180	0xbd903d0f	-0.07042896
181	0xbdc67f0a	-0.096921995
182	0xbe372503	-0.17885213
183	0xbbcd56d5	-0.0062664547
184	0x3b447ee0	0.002998285
185	0x3d10ce2f	0.035352882
186	0x3d3f6202	0.046724327
187	0x3c0ab9c6	0.008467143
188	0x3cd56472	0.026048873
189	0xbd1651bf	-0.036699053
190	0x3c734635	0.014848282
191	0xbe01482b	-0.12625186
192	0xbe4afa0e	-0.19821951
193	0xbd1e90f2	-0.03871245
194	0x3d1c793c	0.038201556
195	0x3d29ffd6	0.04150375
196	0xbde90740	-0.11378336
197	0xbcc5e14d	-0.024155283
198	0x3d5df593	0.054189276
199	0xbdbf72b4	-0.0934805
200	0xbd5f4fc3	-0.054519426
201	0x3cbe86c4	0.02325762
202	0x3d9af64a	0.07566507
203	0xbc72e5bd	-0.014825282
204	0xbe4f2a98	-0.20231092
205	0x3d38e56f	0.04514068
206	0xbc7ff671	-0.015622721
207	0xbca51179	-0.020149933
208	0x3d60f866	0.05492439
209	0xbdc1ed12	-0.09469046
210	0xbd98942f	-0.07450139
211	0xbd267369	-0.040637407
212	0xbd717c96	-0.058956705
213	0xbd97e1b1	-0.07416094
214	0x3cb3246a	0.02186795
215	0xbc101d54	-0.008796055
216	0xbc602a7c	-0.013682004
217	0xbd92cb3f	-0.07167672
218	0xbaf51000	-0.0018696785
219	0xbd84d04a	-0.064850405
220	0x3c834e60	0.016028583
221	0x3d1e1a8e	0.038599543
222	0x3d9c6bab	0.076377235
223	0x3d9078f8	0.07054323
224	0xbcb83410	-0.022485763
225	0x3d070e4c	0.03297262
226	0xbc364011	-0.011123673
227	0x3d2c5963	0.042077433
228	0x3ccabfc6	0.024749648
229	0xbb4b0df1	-0.0030983652
230	0xbd275103	-0.040848743
231	0xbbc5e7bf	-0.006039589
232	0xbd8d5402	-0.06900789
233	0x3b86e442	0.004116566
234	0xbd46473a	-0.04840777
235	0x3cc53899	0.02407484
236	0xbbeecada	-0.0072873654
237	0xbdb075f9	-0.086162515
238	0xbbc623e1	-0.0060467576
239	0xbe2a599e	-0.16635749
240	0x3c77f67b	0.015134449
241	0x3d5f1098	0.054459184
242	0x3d9872d6	0.07443778
243	0x3d15cd7b	0.036572915
244	0xbd2066d8	-0.03916058
245	0x3d43d460	0.04780996
246	0xbe32d395	-0.17463525
247	0xbd1c2f79	-0.03813121
248	0xbdd62c51	-0.104576714
249	0xbd91662d	-0.070995666
250	0x3d4ec106	0.05047705
251	0x3bd0f3ad	0.0063767047
252	0xbd91b542	-0.0711465
253	0xbe38c49f	-0.18043755
254	0xbe066301	-0.13123704
255	0xbdeefd4c	-0.11669406

classifier.2.bias f4 [10]
0	0xba0d6ea5	-0.00053952105
1	0xbd4445c4	-0.047918096
2	0x3d2f7d1c	0.042843923
3	0xbd3c2d69	-0.045941744
4	0x3d764a00	0.060129166
5	0x3bb5e944	0.005551489
6	0x3c89d1f8	0.016823754
7	0xbd537da9	-0.05163351
8	0xbd2d549b	-0.042317014
9	0xbd60d256	-0.054888092
