dump/classifier_cwru_supervised5.pt (torch, 11367 bytes, 2 tensors)

classifier.2.weight f4 [10, 256]
0	0xbe2769b5	-0.16348918
1	0x3d8f9cc7	0.07012325
2	0xbdeb4156	-0.11487071
3	0x3d6b2862	0.05741156
4	0xbcae4d71	-0.021277161
5	0xbd82c4f9	-0.06385226
6	0x3d1e0494	0.038578585
7	0x3cb4320e	0.021996524
8	0x3cee3ebc	0.029082648
9	0x3bb057c5	0.0053815567
10	0xbe135786	-0.14388856
11	0xbdacfb0b	-0.0844632
12	0xbd7bd814	-0.061485365
13	0xbcc6e00c	-0.024276756
14	0xbe528dfd	-0.20561977
15	0xbb9203e6	-0.004456031
16	0x3cc2791c	0.02373939
17	0xbca281a0	-0.0198372
18	0xbd082798	-0.033240885
19	0xbe296908	-0.16543972
20	0xbd35a4de	-0.044346683
21	0xbd115aee	-0.035487108
22	0xbd7fad3b	-0.062421065
23	0x3d3c4fb7	0.04597446
24	0x3c062840	0.008188307
25	0xbdb1d5ad	-0.086833335
26	0x3bf37ad0	0.007430412
27	0x3bea1b43	0.007144363
28	0x3dd201f8	0.10254282
29	0x3d85bed9	0.06530542
30	0xbc79f186	-0.015255338
31	0xbd584e31	-0.052808944
32	0xbcef0711	-0.029178174
33	0xbdb583eb	-0.08863052
34	0xbc9ec488	-0.019380823
35	0xbdaf701c	-0.08566305
36	0xbe46a31c	-0.19398159
37	0x3b925f60	0.004466936
38	0xbb688fa0	-0.0035485998
39	0x3d32c50e	0.043644957
40	0xbd3c8cf9	-0.04603288
41	0xbe2534b1	-0.16133381
42	0xbe4abedf	-0.19799374
43	0xbc370d88	-0.01117266
44	0x3bc9f36e	0.0061630523
45	0xbc646868	-0.013940908
46	0xbd82f9dd	-0.06395314
47	0x3c89d005	0.016822824
48	0xbe16a081	-0.14709665
49	0x3c6b6894	0.014368195
50	0xbcad5080	-0.02115655
51	0xbca2d9f1	-0.019879313
52	0xbd618f4b	-0.055068295
53	0x3cb4a7a3	0.022052592
54	0x3bb7ec52	0.0056128884
55	0xbd4297ee	-0.047508173
56	0xbd9ecc2b	-0.07753786
57	0x3db2ce44	0.08730748
58	0xbd46cac0	-0.0485332
59	0xbd8d3a51	-0.068958886
60	0xbd10b544	-0.03532912
61	0xbdab6667	-0.08369141
62	0xbc07ad37	-0.008281044
63	0xbddf1fc7	-0.10894733
64	0xbd342870	-0.043983877
65	0x3d5e6390	0.05429417
66	0x3d376f7e	0.04478406
67	0xbbf3bd33	-0.007438326
68	0xbc56f81b	-0.013120676
69	0xbd5efd5f	-0.054440852
70	0xbdefca3a	-0.117084935
71	0xbd094780	-0.033515453
72	0xbdb93406	-0.09043126
73	0xba0cc219	-0.0005369499
74	0x3dbb4425	0.09143857
75	0xbda3e810	-0.08003247
76	0xbdbcf94b	-0.09227236
77	0xbe174036	-0.14770588
78	0x3d505cf9	0.050869916
79	0xbe070496	-0.13185343
80	0xbc605491	-0.013692037
81	0xbd59a85c	-0.053139076
82	0xbde74207	-0.112918906
83	0xbc32120d	-0.010868561
84	0xbd44d59c	-0.048055276
85	0xbd467350	-0.048449814
86	0xbe28843b	-0.16456692
87	0x3da0a640	0.0784421
88	0xbd13c4d2	-0.036076374
89	0xbe32a089	-0.17444052
90	0xbe4bfabe	-0.1991987
91	0xbcb64a43	-0.022252208
92	0xbd341060	-0.04396093
93	0xbd481f56	-0.04885801
94	0x3d72a5f7	0.059240308
95	0x3e530a86	0.20609483
96	0x3e1138dd	0.14181848
97	0xbe5e5e70	-0.21715713
98	0xbcc4841d	-0.023988778
99	0xbe5613c1	-0.20905973
100	0x3d45ef12	0.0483237
101	0xbd8a5b52	-0.06755699
102	0x3c93ed25	0.018057415
103	0xbd959d43	-0.07305386
104	0x3d558851	0.052131955
105	0xbda996ce	-0.08280717
106	0xbc415a0d	-0.011801255
107	0x3c9efd2f	0.019407837
108	0xbc7f5588	-0.015584357
109	0x3dbb5632	0.091473
110	0xbd6edafd	-0.058314312
111	0xbdd81382	-0.10550596
112	0xbc3e40f0	-0.011612162
113	0x3c94db6c	0.018171035
114	0xbd22b2fe	-0.03972148
115	0xbcadefdb	-0.021232536
116	0xbd120dc2	-0.03565765
117	0x3d9c99fa	0.07646556
118	0x3c4f97e4	0.012670491
119	0xbd135f0c	-0.035979316
120	0x3cf07a64	0.029355235
121	0x3dd695f1	0.10477818
122	0xbd0c4696	-0.034247003
123	0xbce38894	-0.027775086
124	0xbc0ac5f5	-0.008470048
125	0xbd88d00b	-0.06680306
126	0xbd0dd1d6	-0.034623943
127	0xbb52f655	-0.0032190282
128	0xbae9cb00	-0.0017836988
129	0xbcc3753b	-0.02385961
130	0xbd11eb6d	-0.03562491
131	0xbe47f904	-0.19528586
132	0x3c178270	0.009247407
133	0xbe1e6011	-0.15466334
134	0x3da159f2	0.07878484
135	0x3cfbce08	0.030737892
136	0xbc5f45f9	-0.013627523
137	0xbd714f27	-0.058913376
138	0xbdafdf15	-0.085874714
139	0xbe204ea2	-0.15654996
140	0x3dada4a7	0.084786706
141	0xbe226572	-0.15859011
142	0xbe110945	-0.14163692
143	0x3cf2c768	0.0296361
144	0xba502446	-0.00079399755
145	0xbd18d9f9	-0.03731725
146	0x3e544176	0.20728096
147	0xbcc76828	-0.024341658
148	0x3cc7b630	0.024378866
149	0xbc043196	-0.008068463
150	0x3c465ba7	0.012106813
151	0x3cf657a8	0.030071095
152	0xbe225ebc	-0.15856451
153	0x3c9ff9c5	0.01952828
154	0xbdd44c57	-0.10366123
155	0xbd5f8e0e	-0.054578833
156	0x3dd9cebf	0.10635137
157	0x3d8b04cd	0.06788025
158	0x3da14599	0.07874603
159	0xbe6a1cf5	-0.22862609
160	0x3b6e084d	0.0036320866
161	0xbc581331	-0.013188169
162	0x3d483ffa	0.048889138
163	0x3cd25521	0.025675358
164	0x3da9472e	0.082655296
165	0x3d4b6beb	0.049663465
166	0xbd5a3a82	-0.053278454
167	0xbda05176	-0.078280374
168	0xbd6d08cf	-0.05786973
169	0xbcc536da	-0.024074007
170	0xbd4b7bc5	-0.049678583
171	0xbdb0a18c	-0.086245626
172	0xbc35d690	-0.011098519
173	0xbc85c114	-0.016327418
174	0x3d97db0c	0.07414827
175	0xbcd3e669	-0.025866704
176	0x3d94a172	0.07257356
177	0xbd4b986d	-0.04970591
178	0xbd551082	-0.052017696
179	0xbddf28d3	-0.108964585
180	0x3d3d6137	0.04623529
181	0x3d50d8c3	0.05098797
182	0x3c86b52c	0.016443811
183	0x3d49247d	0.049107064
184	0xbe4695a3	-0.1939302
185	0x3b6f78d4	0.0036540525
186	0xbe65e08a	-0.22448936
187	0xbba6c260	-0.0050890893
188	0xbcad6c8f	-0.021169929
189	0xb9332607	-0.00017084937
190	0xbce1940c	-0.027536415
191	0xbd9783b5	-0.07398168
192	0x3d1e6c2a	0.038677372
193	0xbd9a5b52	-0.07536949
194	0xbe5c817e	-0.21533772
195	0xbd55b87d	-0.052177895
196	0xbe655b57	-0.22398125
197	0xbd1b4053	-0.03790314
198	0x3d60aebb	0.054854136
199	0x3d665d24	0.05624117
200	0xbc9fe5ab	-0.019518694
201	0xbd2452b1	-0.040117923
202	0xbd5bf6c3	-0.053702127
203	0xbd452403	-0.048130047
204	0xbd0a12c8	-0.033709317
205	0xbd2f2328	-0.042758137
206	0x3d24dc25	0.04024901
207	0x3c281d8e	0.010260953
208	0xbdb60320	-0.08887315
209	0xbd8097cb	-0.06278952
210	0xbd09573c	-0.03353046
211	0xbe3be836	-0.183503
212	0xbdf3a3b2	-0.11896457
213	0xbd62d186	-0.0553756
214	0xbbe4d7fc	-0.006983755
215	0xbd1a1c81	-0.03762484
216	0x3c1d797c	0.009611484
217	0xbdc41810	-0.09574902
218	0xbd2c79bb	-0.04210828
219	0xbd839e19	-0.06426639
220	0xbdf7c6c8	-0.120984614
221	0xbd5257a3	-0.05135311
222	0xbd011706	-0.031516097
223	0x3d042e4a	0.032270707
224	0x3c331e50	0.01093252
225	0x3d866d3c	0.065638036
226	0xbd33a747	-0.0438607
227	0x3d610dd7	0.05494484
228	0x3c301c0e	0.010748876
229	0x3ca34899	0.019932078
230	0xbe1ca7e0	-0.15298414
231	0xbdd625f4	-0.10456458
232	0xbdd867e1	-0.10566688
233	0xba4966cd	-0.000768286
234	0xbcd331a0	-0.025780499
235	0x3dc70b50	0.097189546
236	0x3d1284d4	0.035771206
237	0xbd59dc15	-0.053188402
238	0xbe3c1717	-0.18368183
239	0x3c558b1b	0.013033654
240	0xbe0c578f	-0.13705276
241	0xbd7c9328	-0.061663777
242	0x3c929d9f	0.017897425
243	0xbc1fac54	-0.009745676
244	0x3d0e347e	0.03471803
245	0xbe473bfd	-0.19456477
246	0x3c6fb90f	0.014631524
247	0xbe4cbc89	-0.19993795
248	0x3de09520	0.10965943
249	0x3d3ad7a6	0.045615815
250	0x3e0f4d25	0.13994272
251	0xbc436a89	-0.011927255
252	0xbe322990	-0.17398667
253	0x3d17b561	0.03703821
254	0x3abb5d19	0.0014294713
255	0xbd9cc6b0	-0.07655084

classifier.2.bias f4 [10]
0	0xbd0aad55	-0.03385671
1	0x3d90cdc9	0.070705004
2	0x3c47bbcb	0.012190769
3	0xbc8abd5d	-0.016935999
4	0xbc72a73e	-0.014810381
5	0x3c82342a	0.015894014
6	0xbd001d34	-0.03127785
7	0x3cde3b29	0.02712782
8	0x3d2cf70f	0.0422278
9	0xbd8abb1e	-0.06773971
