dump/classifier_cwru_cua_adda.pt (torch, 11367 bytes, 2 tensors)

classifier.2.weight f4 [10, 256]
00000000: a484 783c ef4e 2ebe b54b 173b 1895 9dbc
00000010: e890 f0bc c415 3c3d ace8 6d3d 13fc 2cbe
00000020: 0434 5cbc d99d 723b 730a 113d 1d78 debb
00000030: 7ef2 07be 2135 1dbe 6e54 94bc a648 d33c
00000040: 7765 adbd 4258 f7bc ab3b 4fbd 10bc b7bc
00000050: 14d8 7dbd 265d 0e3d 52f3 803a 388a 3fbb
00000060: b851 b33c 800e de3c bf07 5e3d a912 56bd
00000070: c547 2bbc 6631 8abd 824c 8fbc 2f0e 983c
00000080: d8b6 69bc b3a1 13bc 1188 70bd 17c2 0dbe
00000090: f07c 09bd d55f a93d 5710 83bd 75a0 ce3d
000000a0: 164a c0bb 9db7 a63d 95e0 523c 7023 84bc
000000b0: e2f7 f9bb d021 dd3c e006 c3bd 392d d9bd
000000c0: ab69 a1bd 004f f9ba 9e39 aabb 7009 a33c
000000d0: 68fa 5e3d 677b 81bd 8248 4bbe 1830 aa3a
000000e0: c291 1ebd e017 3fbe 45de 0a3d 1ff4 dcbc
000000f0: e044 27bd faad d13d 9ee4 c63c 41d3 afbd
00000100: 01b0 89bd 4eac 6abd 7206 b8bd 3afd b53d
00000110: 2b74 0bbe 429f 78bd 9724 913c e6c2 abbc
00000120: 9b6f 1a3c c7aa d63d 2a9c 4cbd 6720 c23c
00000130: 4785 3c3d 3794 8c3b be18 aa3d 9262 a3bd
00000140: f197 213d e1ee c63c 73ad dcbd d060 863d
00000150: cee8 1abd 873c 27bd fa14 4ebd b471 9e3d
00000160: 10cc f0bb c979 a63d 34cb 423d 9b92 eebd
00000170: 4ed7 ccbd a38f 1fbe e79f 8dbd c9bf 4d3d
00000180: 15de 66bd fed5 d1bc eab4 9c3d fc07 8f3d
00000190: 265a 2abd fdaa 35be ba3d 5d3c fb85 3dbd
000001a0: f0ee edbc bada 04bd ba3a 623c bb2e 9a3b
000001b0: ca24 87bd c332 973c 17a4 753d 00d6 0fbd
000001c0: ac76 bcbc c16e 6cbc 64c3 10be d50b 4abe
000001d0: c76a 7f3d 3591 2abd 2c16 78bc bf04 bbbd
000001e0: 0e0b 76bd 60ee 5abb c586 dbbc 9f49 3a3d
000001f0: 0c50 acbd eeae f83c 79f6 f43c 5b90 433d
00000200: ff29 ebbd 61f2 67bc 98ca 2dbd 7459 8e3c
00000210: 76b5 68bd 3844 59bd 158f dabd 41e2 893d
00000220: ebe2 5cbd 74a3 31be b2e0 d23d 5758 40be
00000230: f3e1 ac3d d7cd 51bd d091 c0bd e1d9 823c
00000240: 5814 02bd 4dc7 393d 6cbb a3bc b49b 87bc
00000250: 6b3c 1d3e a0d4 463d e93f be3c f952 bebd
00000260: 8c57 65bc dd6d 233d 2625 24be 4a12 033d
00000270: 1886 7b3d aa17 663d a95a babc 496d c93c
00000280: 5971 d5bb 3990 ed3d 01c2 64bc 0a30 98bd
00000290: 14cc bdbd 181e 2fbd 0db6 0bbe d4bc 1ebd
000002a0: bb54 5dbb d9ab 223c 907f e0ba 86fe e2bd
000002b0: b7e3 6c3c 4747 d3bb b170 a33c f4cd 463d
000002c0: f0be 583c 1b3e d9bd 0450 213c d0ac 073d
000002d0: b0aa 1ebe c5b8 203d f780 66bd b5d5 d2bd
000002e0: c468 bd3c 0ea4 a43d e482 a83c 243c 873c
000002f0: 59bc d1bc 2520 e8bc a4b7 9abc d3be fd3d
00000300: e986 a73c d60e 13be d1f4 693d 6a0f f7bc
00000310: 403b 9a3a e611 5e3d b92e 1c3c f694 8f3d
00000320: e358 563d 1b02 11bb cb1d febd 0716 593d
00000330: 977f 4cbc bc99 22bb ffb4 343c 7887 4dbd
00000340: b471 ddbd 2d8e 82bd 531f c03d 7fc7 fbbc
00000350: 1443 373d 6a21 9bbd 0c7d 223d 0a8d 623d
00000360: a6f4 d4bd 4778 7ebc 2d35 75bd c0aa 39be
00000370: b3f9 033d 57b0 313c de32 b83d 0842 5bbc
00000380: 9e2a 03bd 8e20 d2bd eb86 cbbc fb66 5ebd
00000390: d990 77bd 8728 30bd db23 4dbd 9fd6 3d3d
000003a0: 3292 023d 0fc8 29be c8cf 933d cf16 ccbc
000003b0: a7e3 46bd 484f 24bd 3d3d 61bc a49e 9cbd
000003c0: 0b0e 19bc 8a54 abbd 34e9 85bc ecc8 2a3d
000003d0: cb9c aebb 91cd 643b 11e6 af39 dd57 833d
000003e0: 0e7d 4abc e3c8 923c 765b f9bc 3ebb f23c
000003f0: a419 a93d e168 90bd 59de 78bc 64ea d4bd
0.015168343 -0.17022298 0.0023085896 -0.019236133 -0.029365972 0.045919195 0.05808322 -0.16893034
-0.013440136 0.0037020354 0.035410356 -0.006789221 -0.13276097 -0.15352298 -0.018106665 0.025791477
-0.084666185 -0.030193452 -0.050594013 -0.022428542 -0.061973646 0.034756802 0.000983814 -0.0029226672
0.021889552 0.027106524 0.054206606 -0.05226389 -0.010454123 -0.06747703 -0.017492536 0.01856145
-0.014264785 -0.00901072 -0.058723513 -0.1384357 -0.033566415 0.08270232 -0.06399601 0.100891985
-0.0058682067 0.0814049 0.012870927 -0.01613018 -0.007628427 0.026993662 -0.09522796 -0.10604329
-0.07881483 -0.0019020736 -0.005194857 0.019901961 0.054438025 -0.06322365 -0.19851878 0.0012984304
-0.038713224 -0.18661451 0.03390338 -0.026971875 -0.04083717 0.102382615 0.024278935 -0.08585215
-0.06723023 -0.05729323 -0.08985604 0.0888619 -0.13618533 -0.060698755 0.017717643 -0.020966958
0.009426023 0.10481792 -0.049953617 0.023697091 0.04602554 0.0042901295 0.083055004 -0.07977785
0.039451543 0.024283828 -0.1077527 0.06561434 -0.037819676 -0.040829208 -0.050312974 0.07736531
-0.007348545 0.081286974 0.04755707 -0.116490565 -0.100020036 -0.15582137 -0.069152646 0.05023173
-0.056364138 -0.025614735 0.07651694 0.06983945 -0.04158988 -0.17741008 0.013503486 -0.04627035
-0.029044598 -0.032435156 0.013807947 0.0047052777 -0.06598814 0.018456822 0.05997094 -0.035116196
-0.023005806 -0.014430703 -0.14137036 -0.19731076 0.06235769 -0.041642386 -0.015142005 -0.091317646
-0.060069136 -0.0033406243 -0.026797662 0.045480367 -0.08413705 0.03035685 0.029902684 0.04774509
-0.114826195 -0.014156909 -0.042429537 0.017376639 -0.05681368 -0.053043574 -0.10671822 0.06732608
-0.053927343 -0.17347509 0.102967635 -0.18783699 0.08441534 -0.051221695 -0.094028115 0.015973033
-0.031757683 0.045356084 -0.01998683 -0.016553737 0.15355079 0.04854262 0.023223834 -0.092931695
-0.013997924 0.039899696 -0.16029796 0.031999864 0.06140718 0.05617491 -0.022748308 0.024588244
-0.0065137562 0.11599774 -0.01396227 -0.07431038 -0.092674404 -0.04275331 -0.13643666 -0.0387543
-0.0033772427 0.009928667 -0.001712786 -0.11083703 0.014458588 -0.006447706 0.019951196 0.048536256
0.013229117 -0.10607549 0.009845737 0.03312379 -0.154948 0.03923871 -0.056275334 -0.10294668
0.023121245 0.080391034 0.020570226 0.01650817 -0.025602506 -0.02833564 -0.018886395 0.123899125
0.020450072 -0.14361128 0.05711824 -0.030158717 0.0011766925 0.054216288 0.009532624 0.07010834
0.052330863 -0.00221265 -0.12408026 0.052999523 -0.012481592 -0.002481087 0.011029481 -0.05017802
-0.10812703 -0.06374774 0.093809746 -0.030734776 0.044741705 -0.075747326 0.039670035 0.055310287
-0.103982255 -0.015531606 -0.059865166 -0.18131542 0.032220554 0.010845265 0.08994077 -0.013382442
-0.032023065 -0.102601156 -0.024844607 -0.05429743 -0.060440872 -0.0430074 -0.050083023 0.046347257
0.031877704 -0.16580223 0.072173655 -0.02491322 -0.04855695 -0.04011467 -0.0137475105 -0.07647446
-0.009341727 -0.08365734 -0.016346551 0.04169552 -0.00532875 0.0034912566 0.00033550014 0.06413243
-0.012358917 0.017918056 -0.03043912 0.0296303 0.08256844 -0.07051254 -0.015189731 -0.10396269

classifier.2.bias f4 [10]
00000000: 9e33 a83d 4e7b 1a3c 5d11 963d 87ec 2abd
00000010: 8f7b 803c 18ca cb3c ead3 4abd 3d84 c5bc
00000020: 1670 443d fa46 9fbd
0.0821297 0.009428812 0.073275305 -0.041729476 0.015683917 0.02487664 -0.049518503 -0.024110908
0.047958456 -0.077772096
