dump/source_encoder_cwru_supervised.pt (torch, 284865 bytes, 12 tensors)

encoder.0.weight f4 [8, 1, 32]
000000 13 d1 f2 bc 41 9f c1 3d 66 92 1f 3e b4 fa 8a be
       -0.02964071 0.094542034 0.1558319 -0.27144396
000010 1f 4b 26 3c 2b 1f 60 3e b4 22 31 3c 80 8e 2d be
       0.010149746 0.2188689 0.0108114965 -0.1694889
000020 d1 66 e7 bd f7 4f 33 3d 0a aa 31 3e 63 b4 30 be
       -0.112989075 0.043777432 0.17350021 -0.17256312
000030 d0 70 75 be ec 1b 6f 3d 5c b0 42 3e 1d 26 bb bd
       -0.23968816 0.058376238 0.19012588 -0.09138129
000040 76 c2 36 be 35 f3 55 3e cb 75 8a 3e ca 77 3a be
       -0.17847618 0.20893557 0.27042994 -0.18209758
000050 58 92 5d be c0 04 9a 3d 33 74 61 3e 75 16 15 3e
       -0.21637857 0.07520437 0.22016983 0.14559348
000060 7e dc ea bd dc 5e b2 3d e4 aa 6b 3e a9 83 64 3e
       -0.11467837 0.08709499 0.23014408 0.2231585
000070 78 e8 89 3c d0 25 1a be 4f 6d e2 3d 32 90 51 3e
       0.016834483 -0.15053487 0.11056005 0.20465162
000080 db a1 2a 3e fe dd d0 bd f7 5d 19 be 44 04 ea 3d
       0.16663305 -0.10198592 -0.14977251 0.11426595
000090 21 af b7 bd 11 f3 5a bc 14 20 00 3e f0 59 22 3e
       -0.0896895 -0.013363616 0.12512237 0.15854621
0000a0 ef 3b b2 3d b9 d1 d1 bd 79 78 01 3e c7 73 c5 bd
       0.08702838 -0.102450795 0.12643613 -0.096412234
0000b0 f1 95 8e bd 20 00 2b bd 28 fc 92 bd bc 9d 15 be
       -0.06962193 -0.041748166 -0.07177001 -0.14610952
0000c0 7c a9 04 be 37 3c ae bb 21 f6 38 3e 56 30 10 be
       -0.12955278 -0.0053172368 0.1806264 -0.14080939
0000d0 eb 88 da 3d 3d 2a 89 3b 18 66 1f be ef 59 df bd
       0.10670646 0.0041859434 -0.1556629 -0.10905825
0000e0 dd cb 7c bd 69 e8 5c bd f3 15 36 be 8c 03 0b 3e
       -0.061717857 -0.05393258 -0.1778181 0.13575572
0000f0 51 e3 f0 3d b3 78 04 bd ce 5c 58 bd d6 fd 4e 3e
       0.11762107 -0.03234167 -0.05282288 0.20214018
000100 92 64 8c 3b cd 30 34 3e ad 00 64 bd 24 9e 8c bd
       0.00428445 0.17596741 -0.055664707 -0.068661004
000110 27 c0 c4 3d c4 b9 a4 bd bc b8 84 bc 09 7f c1 3d
       0.09606963 -0.080432445 -0.01620137 0.09448058
000120 d9 83 b9 bd 0d 3e 23 bd f5 e9 40 3e f4 67 0f 3e
       -0.09058351 -0.039854098 0.18839248 0.14004499
000130 cf 43 91 be 54 9b dc 3b b2 f9 4b 3e c9 12 15 3e
       -0.28372046 0.0067323837 0.1991947 0.14557947
000140 79 60 45 be bc 4e 2b 3e 27 ad 3e 3e 1e 1a f1 ba
       -0.19275083 0.16729254 0.1862074 -0.0018394624
000150 4e 79 33 be a4 e9 63 3c 48 fc 5f 3e 78 0a c7 bd
       -0.17526743 0.013910685 0.21873581 -0.09718794
000160 d1 c6 b3 3d 23 b1 a7 3d b8 4a da bd 28 b3 f0 3d
       0.087781556 0.08188083 -0.10658783 0.11752921
000170 3c 3c f4 3d 25 b4 95 3d d7 69 71 3d ea be 1c 3e
       0.11925551 0.073097505 0.058938827 0.15307203
000180 b5 9e 05 3e aa 59 27 3e 1c 13 4d be b9 92 95 3d
       0.13048823 0.16342798 -0.20026821 0.07303376
000190 00 79 b4 3d 6b 6b e0 bd fb 63 01 bd be a9 b0 3d
       0.088121414 -0.10957988 -0.03158949 0.08626126
0001a0 c3 47 34 3e 6b df 6e be 8e 1f b3 bd e5 62 0a 3d
       0.176055 -0.23327415 -0.08746253 0.03378572
0001b0 1d 0b 13 3d c3 f9 f8 bd 83 33 55 3d d1 e9 01 3e
       0.03589927 -0.12157013 0.05205108 0.1268685
0001c0 b0 bb 4f be fb 7b fe 3d 56 d8 a9 bb ce 09 0e be
       -0.20286441 0.12425991 -0.00518326 -0.13870928
0001d0 a6 f7 83 bd 99 c8 3d 3e 1c 6c 19 be 1e fc 17 be
       -0.064437196 0.18533553 -0.14982647 -0.14842269
0001e0 ec b8 3a 3e 33 b2 c7 3d 2c e8 42 be 9a aa 65 be
       0.18234605 0.09750786 -0.19033879 -0.2242836
0001f0 46 29 71 3e 6f a2 4f 3e 1c 0b 0f bd 09 b6 d1 3d
       0.23550901 0.20276807 -0.034922704 0.102397986
000200 27 3a ab 3d 17 58 f0 bc 62 dc c2 bd ec e7 f5 3d
       0.08360701 -0.02933888 -0.09514691 0.12007126
000210 5a 22 ea 3c 78 d5 11 3e f2 74 10 3e df 61 1e be
       0.028580833 0.14241588 0.14107111 -0.15467022
000220 23 bb b9 bd da 62 db 3d ad d4 0a bd 53 17 26 be
       -0.090688966 0.10712214 -0.03389423 -0.16219835
000230 13 86 fd bd 6b 36 0c 3d ee ac 8d 3d 41 4d 0d 3d
       -0.12379088 0.034231585 0.06917749 0.034497503
000240 ba 4f 8f 3d 2d 05 f7 3d c3 c9 59 3d d7 db 36 3c
       0.069976285 0.12061534 0.05317093 0.011160812
000250 ba 2c c2 bb 41 93 30 be 78 57 52 be 92 a5 5e 3e
       -0.005925742 -0.17243673 -0.20541179 0.21742848
000260 24 e3 44 3e 65 18 a4 bd 4c c7 00 3c 94 26 0c 3e
       0.19227272 -0.080124654 0.007860016 0.13686591
000270 d9 fe 12 bc 24 95 85 bc 9d bb 44 bd 50 94 c4 bd
       -0.008971893 -0.016306467 -0.048030484 -0.09598601
000280 96 cd c6 bd 11 87 4b 3d 14 0a 96 bd c2 14 a3 bd
       -0.09707181 0.049689356 -0.07326141 -0.079629436
000290 77 3d d0 3c 47 ae 70 bd c0 3b ba bd 2e cd 49 be
       0.025419934 -0.058759954 -0.09093428 -0.19707176
0002a0 6c 26 58 3e 31 13 00 bd ce 16 ea 3d 0b e8 41 bd
       0.21108407 -0.031268302 0.11430131 -0.047340434
0002b0 4b fd 8a bc 80 0e df 3d b4 0e 57 be c8 0f 0f 3e
       -0.016966483 0.108914375 -0.21001703 0.13970864
0002c0 3c 95 5d 3e 79 2b 25 bd 5c 8e ec bd f3 93 3d 3e
       0.2163896 -0.040324662 -0.115505904 0.1851347
0002d0 4e 58 45 be 9c 84 86 bd b6 1f 3f 3e b0 5b cf 3d
       -0.19271967 -0.06568262 0.1866444 0.1012491
0002e0 fb 0b 83 bd 66 71 f5 3d 13 ee 98 3d e1 87 63 be
       -0.063987695 0.1198452 0.07467284 -0.22219802
0002f0 ad a6 80 bd 11 9e 1f 3d 47 aa f5 3d e3 3f d7 bd
       -0.06281791 0.038969103 0.119953685 -0.10510232
000300 2f 7f 0a be ac fa 96 3d 6b a8 13 be 85 2f 27 bb
       -0.13525079 0.073720306 -0.14419715 -0.0025510502
000310 a6 68 f4 3d 94 52 44 be f4 ad 98 3c a5 bf e7 bd
       0.119340226 -0.19172126 0.018637635 -0.1131585
000320 04 66 f9 bd 30 5b 46 be a9 02 ea 3d dd b1 03 3e
       -0.12177661 -0.19370723 0.11426289 0.12860818
000330 24 11 77 3d 9a 36 32 be c4 72 ba 3d 0a 07 0e 3e
       0.06031908 -0.17403641 0.09103921 0.13869873
000340 ae 60 25 3d 87 b7 81 bd 1c 21 4a 3e 67 74 ae bd
       0.040375404 -0.06333833 0.19739193 -0.08518296
000350 9b a6 e7 3d ab 32 2a bd 43 4f 03 bd 87 a1 22 be
       0.11311074 -0.041552227 -0.03205801 -0.1588193
000360 1f 6d 29 3e 64 03 12 3e 84 0a 83 be fa 73 04 be
       0.16545533 0.14259106 -0.2559396 -0.12934867
000370 eb 26 50 3e c0 2c 47 3e b2 2b 59 be 84 47 25 be
       0.20327346 0.19450665 -0.21208075 -0.16140562
000380 3b 29 db bd 71 fb 39 be 82 f5 8a bc 82 8d f7 bd
       -0.107012235 -0.18162324 -0.01696277 -0.12087537
000390 f4 96 0b 3d 20 ab 64 3c d9 13 23 be f2 eb 23 3e
       0.034079507 0.013956815 -0.1592554 0.16007975
0003a0 5a 88 8a 3c 73 6d 65 3c 7b a8 9e bd 89 5c cd 3c
       0.01691072 0.0140031455 -0.07746979 0.025068538
0003b0 c3 8e ef bd 00 d7 2b 3d 77 ad 68 3e a8 77 96 3c
       -0.116971515 0.041953087 0.22722422 0.018367603
0003c0 fd 40 43 be 90 b7 b6 3d c9 82 b7 bd d3 32 45 be
       -0.1906776 0.089217305 -0.08960492 -0.19257669
0003d0 cc b5 5d 3d 45 52 06 3b 12 d1 2e be 42 6a b7 bd
       0.054128453 0.0020495814 -0.17071941 -0.08955814
0003e0 fc 0f 15 3d 3c f7 1e 3d d2 3a 36 be 46 c1 38 bd
       0.036392197 0.03881 -0.17795876 -0.045106195
0003f0 25 5c 1c 3d 88 df d8 bd ae 84 20 3e b2 d0 a7 bd
       0.038173813 -0.1058951 0.15675613 -0.08194102

encoder.0.bias f4 [8]
000000 34 35 d3 bd 02 c7 41 bd c8 5c 07 3e 17 b7 10 3e
       -0.10312882 -0.04730893 0.13218987 0.14132343
000010 b7 68 21 3e f1 2c ee bc bf b4 c2 bd cc 4c 33 3e
       0.15762602 -0.029074164 -0.09507131 0.17509764

encoder.3.weight f4 [16, 8, 16]
000000 72 31 3e 3d 1a 22 8b 3d 5c 4a 6d 3d d1 ba 69 3d
       0.046433873 0.06793614 0.057932243 0.057062928
000010 59 96 dc 3d eb 30 f3 3d 3c 74 72 3b 50 d7 c7 3d
       0.10770864 0.11874565 0.003699555 0.097578645
000020 91 2b 06 3e 83 a2 d7 3c 65 a4 80 3d 2d 56 0b 3e
       0.13102557 0.026322609 0.06281356 0.13607092
000030 cc a8 cd 3d 06 82 cc 3d 94 0e 85 3d ca f1 4e 3d
       0.10041961 0.099857375 0.06496921 0.050523557
000040 d1 6a 1c bd 75 55 49 3d 02 b5 f8 3d d1 09 a7 3d
       -0.038187806 0.049153764 0.121438995 0.08156169
000050 66 8c e6 3c 6c 29 ab 3d e1 c0 3e 3d 2a aa 9c 3d
       0.028143119 0.0835751 0.046570662 0.07649644
000060 25 78 92 3d 69 8b ad 3c 68 35 7a 3d 43 56 48 3d
       0.07151822 0.02118464 0.06108609 0.04891039
000070 45 d4 a9 3d ad b0 91 3d 97 c2 9d 3d 7b 75 62 3c
       0.0829244 0.07113776 0.07703131 0.013821955
000080 db e2 2e bd 05 f9 fc 3c 4c fa 01 bd 14 35 70 bd
       -0.042696815 0.03088046 -0.031732842 -0.05864437
000090 60 cb 28 3d d2 17 5f 3d b5 ed 9a bd 22 a8 67 bd
       0.04120958 0.054466076 -0.0756487 -0.05655683
0000a0 9b 81 ab bc 3e 84 90 bd 50 e8 a4 bd 1a a2 9b 3c
       -0.020935824 -0.07056473 -0.080521226 0.018998194
0000b0 ae b1 04 bd 7f 67 ce bc 99 98 a3 bd 28 d3 8d bd
       -0.03239601 -0.025195835 -0.0798809 -0.069250405
0000c0 9a f0 67 3d 47 ba d2 3d f2 24 1d 3c 1a 23 8e bd
       0.05662594 0.10289436 0.009591328 -0.06940289
0000d0 f8 42 c8 3d e6 b6 11 3d 5e 48 83 bd 02 d0 03 3d
       0.09778398 0.035574816 -0.06410287 0.032180794
0000e0 9c 0b c5 bc a5 66 91 3d 01 cb 03 3d 12 5e 9c 3d
       -0.024053387 0.07099656 0.03217602 0.0763513
0000f0 b8 af 51 bd 0b c7 52 bd c9 c9 a5 3d 0d d7 ec bc
       -0.05119297 -0.051459353 0.08095128 -0.028911138
000100 e2 08 d1 3c 92 f3 81 3d 31 b8 91 3d 87 99 40 3d
       0.025516931 0.063452855 0.0711521 0.047021415
000110 50 4d 52 3d ee 17 92 bc 1a 81 8b 3d 87 c2 b1 3d
       0.051343262 -0.017833676 0.068117335 0.08679681
000120 4d dd a2 bc cc 52 1e bd 8b 49 b8 b8 5a 6e f1 b9
       -0.019880915 -0.03865318 -8.787502e-05 -0.0004604932
000130 e4 e8 99 bd a6 61 50 bd d9 07 7e bd 16 3d 60 bd
       -0.075151235 -0.050874375 -0.062019203 -0.054745756
000140 f5 21 df bc 64 81 ea 3d d8 5b b7 3d dc 68 d1 3c
       -0.027237872 0.114504606 0.08953065 0.025562696
000150 0b 88 0d bd aa 34 c8 3c 40 ec 88 3d f7 2e a1 3d
       -0.03455357 0.024439175 0.06685686 0.07870286
000160 2d bd d7 3d d9 bc c3 3d d1 a5 90 3d 30 62 85 3d
       0.10534129 0.09557504 0.07062877 0.065128684
000170 05 ba 95 3d a1 8e d9 3b b9 98 bf bc 99 b9 9a 3d
       0.07310871 0.006639317 -0.023388254 0.07554931
000180 66 0f e9 3d a4 ab f4 3d 3e b5 08 3c 4c 8a d7 3d
       0.1137989 0.119468 0.008343993 0.10524425
000190 f2 0c cd bc eb 91 00 3e 8f 47 a8 bb 2d 81 9f 3c
       -0.025030587 0.12555663 -0.0051354836 0.019470775
0001a0 55 16 fb 3d bf 88 ca bc 7b ef da 3d 28 5d 1f 3d
       0.12260119 -0.024723409 0.106902085 0.0389072
0001b0 98 fb ba 3d e6 3c a8 bc 09 58 e8 bc 67 95 9b 3d
       0.09130019 -0.020536851 -0.028362291 0.075968556
0001c0 72 2d 57 bc bf d0 b4 3d ba 68 3a 3c 57 7a 96 bd
       -0.013133394 0.08828878 0.011377508 -0.07347553
0001d0 7e 28 a8 3d c5 54 5b bc 33 13 65 3c 02 61 5e bd
       0.08210848 -0.01338691 0.013981628 -0.054291733
0001e0 ec a0 26 3c be d5 33 bc e2 ba c4 bd 9f 63 61 3d
       0.010170203 -0.010976253 -0.096059576 0.055026647
0001f0 00 a2 75 bd 00 9b d3 3c 82 63 8c bd 75 5d 52 bd
       -0.05996895 0.025830746 -0.06854917 -0.05135866
000200 70 6a b3 3d c1 18 77 bd 0d 48 3f bd 69 9a 23 3d
       0.08760536 -0.06032634 -0.046699572 0.03994218
000210 a0 2c 8b 3d b0 f4 14 3d df 0c c9 3d 74 32 a2 3d
       0.06795621 0.036366165 0.09816908 0.079197794
000220 97 f8 17 3e 8d 87 1f 3e ee 5e 11 3e 3a 4e 1a 3e
       0.14840923 0.15579052 0.14196369 0.15068904
000230 b5 52 31 3c b7 d4 cb 3d b5 a2 10 3d a2 4f 18 3e
       0.010822942 0.099526815 0.03531142 0.14874128
000240 e9 01 a5 bb c6 e5 ae bb 10 6c 92 3d 47 ff f5 bb
       -0.005035628 -0.0053374497 0.071495175 -0.007507238
000250 9f 03 d0 bc be 1e 42 3d 5f 65 d2 bc d2 37 d7 3d
       -0.025392352 0.0473926 -0.025683103 0.10508694
000260 9a 97 68 3d 14 9b c9 3d 77 2f 3f 3d 13 eb 5d 3d
       0.056785204 0.09844032 0.046676125 0.054179262
000270 1e 57 7e 3d 95 8e 3d 3d 30 dc 0c 3e 94 6c 23 3d
       0.0620948 0.046278555 0.1375587 0.03989847
000280 48 95 ed 3c e9 b3 25 3d c5 9c dc bc ff 3b da 3d
       0.029001847 0.04045478 -0.026930222 0.106559746
000290 2e 28 71 3d 2b 2e 04 3d d5 28 ec 3d 35 a0 c8 3d
       0.05887621 0.03227059 0.115312256 0.09796182
0002a0 f9 d6 81 3b b2 d9 74 3d c4 c0 44 3d e5 84 a2 bc
       0.0039623943 0.059777923 0.048035398 -0.01983876
0002b0 2c 7a f5 3d a4 54 05 3e 73 83 0e 3e 8e 7c f6 3d
       0.11986193 0.13020569 0.13917331 0.12035476
0002c0 02 c6 dc 3c f5 fd 6a bd f3 fd d2 3d 32 f5 4b bd
       0.026949886 -0.0573711 0.10302343 -0.049794383
0002d0 07 bc 6a 3c 3e f0 ba 3a d2 90 c7 3d cb d4 95 3d
       0.014327056 0.0014262272 0.09744419 0.07315978
0002e0 af 01 e4 bc 5e cd f1 3d c7 e9 5c 3d 98 b3 a6 3d
       -0.027832834 0.11806749 0.053933885 0.081397235
0002f0 9a 0c 4f 3c 94 d3 a0 bc 2f 93 db 3d c8 2d 08 3e
       0.012637282 -0.019632138 0.107214324 0.13298714
000300 21 d9 93 3d af 59 04 3d 31 b3 aa 3d 0e 37 19 3d
       0.072191484 0.03231209 0.08334959 0.03740602
000310 f6 1a d1 3d bb dc 14 bd f0 ee 12 3d 73 18 e7 3d
       0.102102205 -0.036343317 0.0358724 0.1128396
000320 9e c5 94 3d 85 da 4f 3d 8f b9 f0 3d 49 c3 ec 3d
       0.07264255 0.050745506 0.117541425 0.11560685
000330 c0 53 f6 3d 48 31 3a bb 80 9f 0b 3e e1 17 0e 3e
       0.12027693 -0.0028410722 0.13635063 0.13876297
000340 32 79 16 3a a3 6c b5 3d 56 13 13 3c 60 6b 55 3c
       0.00057401054 0.088586114 0.008976778 0.0130260885
000350 2e 4e f1 3d 81 0e b4 3d 3c 09 54 3b 1f 5f 52 3d
       0.1178249 0.08791829 0.0032354137 0.051360246
000360 cb aa 2e 3d e0 03 6a 3d f3 79 b0 b9 cb d1 9f 3d
       0.04264335 0.0571326 -0.00033660195 0.07803687
000370 da 59 21 3d 74 4e 18 3e 87 47 80 3d 59 ef 06 3e
       0.03939233 0.14873677 0.06263643 0.13177241
000380 33 d0 d2 3b 18 0c 1f bd 3d 38 48 bd 22 7c d0 bc
       0.0064335107 -0.038829893 -0.048881758 -0.025449816
000390 17 b4 19 3d ba f9 d0 bb 97 3f a1 bc a9 ae 0b 3e
       0.037525263 -0.006377426 -0.019683642 0.13640846
0003a0 ab 87 fd 3d 02 6f 6a bc 7e ef ef 3d ee 0a 89 3b
       0.12379392 -0.014308693 0.117156014 0.004182211
0003b0 b7 70 78 3d 06 63 2d 3d 7a 0c 87 3c 10 3d 02 3e
       0.06065437 0.042330764 0.016485441 0.12718606
0003c0 ee 41 d1 3d e3 7c de 3d 1b c0 45 3d e1 c2 c1 bc
       0.10217653 0.10863664 0.04827891 -0.023652496
0003d0 39 f6 1a 3b c6 95 a7 3b 9d 90 56 3d 5a d6 72 3d
       0.0023645295 0.00511429 0.052384008 0.059286453
0003e0 1b fa 00 3d 27 4d 4f bc 11 ae e3 bc 9c f3 f4 3c
       0.03148852 -0.012652672 -0.027792962 0.029901318
0003f0 d5 30 02 bd 37 63 dd 3d 36 2c 0c bd 4b 37 4f 3c
       -0.03178485 0.10809939 -0.03422185 0.01264746

encoder.3.bias f4 [16]
000000 11 2e 07 3c 05 59 61 3c bc a8 4e 3d 25 77 46 bd
       0.008250729 0.013754134 0.050453886 -0.04845347
000010 d7 6f 47 bd a3 ef c2 3d db 5c 99 3d 86 b6 ac bd
       -0.048690643 0.09518363 0.07488414 -0.08433251
000020 ca 1b fe 3d 1a 69 94 bd 3e 03 5f bc f6 b1 bf bc
       0.12407644 -0.07246609 -0.013611613 -0.023400288
000030 82 4d e9 3d 94 55 89 3d a8 e8 d1 bd b3 27 26 3d
       0.113917366 0.06705776 -0.10249454 0.040565204

encoder.6.weight f4 [32, 16, 8]
000000 e8 3f 98 bd 40 9c 01 bd 03 c9 1f bd 2e 56 91 bd
       -0.07434064 -0.031643152 -0.03901006 -0.070965156
000010 b3 65 3a 3c fa 6e d9 bb 37 39 81 bc e9 f1 38 bd
       0.011376786 -0.006635544 -0.015774352 -0.04515258
000020 99 14 29 3d 21 b8 ab 3d 38 fd b5 3d 6d 12 f6 bc
       0.04127941 0.08384729 0.08886188 -0.030038083
000030 2c ec c6 bc 99 92 84 3d a7 74 25 3d f0 0b a3 3d
       -0.024282537 0.06473274 0.04039445 0.07961261
000040 8b 69 d8 bc e9 ab 70 bd fa c0 c6 bd 03 22 3c 3d
       -0.026417514 -0.058757696 -0.09704776 0.045930874
000050 8d 04 51 3d 5a fe 5c bd 79 7a d1 3c be cf 64 bd
       0.05102973 -0.053953506 0.025571095 -0.05586218
000060 8c 24 cf bc 30 d3 b6 bd 94 84 38 bd c9 38 8a bd
       -0.025285982 -0.089269996 -0.04504831 -0.06749112
000070 dd 80 9a 3d 08 a5 34 bd 2b 4c a1 bd 34 92 1a bd
       0.0754411 -0.0441027 -0.07875856 -0.037737086
000080 6a f2 e0 bc b2 5d bb 3c 7b ee 64 bc 1e f9 53 bc
       -0.027459342 0.022871826 -0.013972874 -0.012937812
000090 a6 e7 25 3d 63 7f 3e bd 38 8f 65 bd a6 7a 2f bd
       0.04050412 -0.046508204 -0.056044787 -0.042841576
0000a0 a7 79 7b 3d 67 c9 45 3a 80 15 9c 3d af ef 41 bd
       0.061395314 0.0007544965 0.07621288 -0.04734772
0000b0 cc 54 be bc b6 b0 06 3c 2e 14 c2 3d a2 f6 68 3d
       -0.023233794 0.008220842 0.09476505 0.056875832
0000c0 09 e3 31 bd 78 44 05 3c 18 7e 36 39 6e 41 3c 3d
       -0.04342941 0.008134 0.00017403846 0.045960836
0000d0 c4 3e be 3d a3 c8 68 3d ea 42 22 bd b8 de 54 3d
       0.09289315 0.056831967 -0.039614595 0.051970214
0000e0 90 5f 7a bc fb 4a d1 3c 75 51 2c 3d dd 19 ac 3d
       -0.015281573 0.025548449 0.04206987 0.084033705
0000f0 50 46 f4 3c 71 9e c1 bd cc 94 93 bb c3 54 20 bd
       0.029818684 -0.094540484 -0.004503822 -0.039143335
000100 70 8d de 3d 26 8d bc 3d 18 1c 1f b8 ac 95 e7 3d
       0.10866821 0.092066094 -3.793472e-05 0.113078445
000110 27 54 10 3e c6 bb ed bc d9 0f 4a 3d 0f 18 d2 bb
       0.14094602 -0.029020201 0.04933152 -0.0064115594
000120 a1 95 e4 bb f9 a8 d5 bc 28 b7 64 bd 10 46 96 bb
       -0.006975845 -0.026081549 -0.055838734 -0.004585989
000130 8c 0e 40 3d c7 39 c2 3c a0 b7 ef 3c 5e 17 11 bd
       0.046888873 0.023709191 0.029262364 -0.035422675
000140 c7 10 3d 3d 19 fa 07 3d 93 6c b0 3d 3e 23 ac bc
       0.04615858 0.033197496 0.08614459 -0.021012899
000150 e3 2e 86 bd 86 88 16 bd 2d 05 0f 3d 83 94 6b bd
       -0.06551912 -0.036751293 0.034917045 -0.05751468
000160 ba 40 1b 3c 72 e7 9f 3d 4c 7c 64 bd 27 ba 40 bd
       0.009475881 0.078078166 -0.0557826 -0.04705253
000170 36 6e 85 3c 7d 4d 97 3d 73 fc 03 bd c2 d8 69 3d
       0.016287904 0.073878266 -0.032223176 0.057091482
000180 9a 03 fe 3d 58 83 8b 3d 91 8a be bc a3 92 d7 3d
       0.12403031 0.06812161 -0.023259433 0.105260156
000190 19 0d 1a 3a 8b f2 35 ba 4a f0 00 3a 94 5a 22 bc
       0.00058765855 -0.0006940744 0.00049186184 -0.009909291
0001a0 a0 33 46 bc fe d7 84 3c 17 e2 29 3d c1 a0 05 3d
       -0.012097269 0.016216274 0.04147538 0.03262401
0001b0 f1 42 57 bb 04 92 a9 3d 02 3d 7a 3d 06 56 60 3d
       -0.0032846297 0.082798034 0.061093338 0.05476954
0001c0 b0 70 66 3d 67 b2 ab bd 64 6e b8 bd bb b8 2e bc
       0.05625981 -0.08383637 -0.0900543 -0.01066416
0001d0 69 61 ce bd 33 68 f1 3b f6 38 a4 bd 87 6c 38 bd
       -0.10077173 0.007367158 -0.08018677 -0.045025375
0001e0 fc 64 1d 3d ff 53 8a bd 64 35 d7 3c 54 f4 de 3c
       0.038426384 -0.06754302 0.026270576 0.027216114
0001f0 6e 6c 43 bd dd 0d 7e bd ae 6e 0a bc 91 2f 00 3c
       -0.04771083 -0.06202494 -0.00844924 0.007823841
000200 3b f8 55 bd e2 20 90 3d 4a 2d 85 3c 32 d5 d1 3c
       -0.052238684 0.07037522 0.016256947 0.025614355
000210 af 92 a1 bd e8 da ac 3c f0 3f a7 bd fb d0 ad 3c
       -0.07889306 0.021100476 -0.08166492 0.021217814
000220 c7 35 65 3d 27 7b 81 bd 50 6a 01 3d 8f 95 80 3d
       0.05595949 -0.063223176 0.031595528 0.06278526
000230 18 f9 ff 3b 87 ec 21 3d a2 7b 30 bd 36 a6 a9 bd
       0.0078116767 0.03953221 -0.043086655 -0.08283655
000240 71 86 2e 39 83 64 8a bc 4f c0 a9 bd 7b 4b 6f 3d
       0.00016644016 -0.01689363 -0.08288633 0.058421593
000250 c1 ab 8e 3c dc 94 85 3d 8a 4d 99 3a 75 b0 91 3d
       0.017415883 0.06522533 0.0011696082 0.07113735
000260 0b b0 5d 3d a8 3e 21 bd 93 f9 24 bc 94 75 13 bd
       0.054122966 -0.039366394 -0.010069269 -0.036000803
000270 be 8d da bc cd ca bc bc f9 41 ae bd 88 7f 33 bd
       -0.026678916 -0.023045922 -0.08508677 -0.043822795
000280 0a 08 4a 3d 20 f8 60 bc 00 60 86 b7 50 1b a4 3d
       0.049324073 -0.013731033 -1.6018748e-05 0.08013022
000290 63 f4 19 3d cd f7 a1 3d 69 ee 5a bd 57 e1 ae 3d
       0.03758658 0.079085924 -0.053450022 0.08539074
0002a0 83 31 39 3d af 90 55 bd fc 47 03 3d ab 1f 3a bd
       0.045213234 -0.052139934 0.03205107 -0.045440357
0002b0 32 b9 92 bd d8 9e 25 3c 14 db 3b bd 43 ef d7 bc
       -0.071642295 0.010108672 -0.045863226 -0.026359206
0002c0 98 89 6a bc f9 07 9e 3c c3 17 b3 3c e1 6c 54 3d
       -0.0143150315 0.019290911 0.021861916 0.051861648
0002d0 ab 55 b4 bc f7 ac 29 3d 4c 1c a4 bd f1 74 fe 3c
       -0.022013506 0.041424718 -0.0801321 0.031061621
0002e0 e4 bc 8f 3c 2b 9e 20 bd 75 11 06 3d e5 db 25 bd
       0.017546125 -0.03921334 0.032731492 -0.04049291
0002f0 db 27 8f bc 2b b4 52 bd c2 c6 88 bd 38 88 64 bd
       -0.01747506 -0.051441353 -0.06678535 -0.05579397
000300 75 2a 03 bd a0 13 14 bb e7 4f a0 3c f7 82 ac bd
       -0.032022912 -0.0022594705 0.01956935 -0.08423417
000310 35 06 43 3d ac 8d 22 bc 16 e2 26 bd 9f 2a 65 3d
       0.04761334 -0.0099214725 -0.040742956 0.05594885
000320 6e 27 8b 3d 04 45 c9 bc ac b0 8a 3d 36 1e 4a bd
       0.0679463 -0.024569042 0.06771979 -0.049345218
000330 de f0 90 3b e7 91 7c bd 96 c7 0f bd 0d 38 f9 bc
       0.004423245 -0.06166258 -0.03510245 -0.030422235
000340 6f f9 93 bd f4 d8 8f bd 49 1c 9d 3d 9d 8d 8c 3d
       -0.0722531 -0.070238024 0.076714106 0.06862948
000350 ff b6 14 3d 2b 69 96 3d 60 88 62 bc 80 f6 25 bb
       0.03630733 0.07344278 -0.01382646 -0.0025323927
000360 24 c4 3a 3b 35 b8 98 bd fe fc 1f bd 98 aa 0a bc
       0.0028498257 -0.0745701 -0.03905963 -0.008463524
000370 26 e8 a2 bd 4e 8a 9b 3d 1e 42 9f bd 65 bb 34 3d
       -0.07954435 0.07594739 -0.07776283 0.044124026
000380 46 a9 af bd 8e 5f 27 bd dd 1f 43 ba da 1e 28 bd
       -0.08577208 -0.040862612 -0.00074434077 -0.041045047
000390 ca ef b9 bc d8 04 c0 bc 8d 00 bf bc b9 61 72 bc
       -0.022697348 -0.02343981 -0.023315692 -0.014793807
0003a0 ed 81 99 bd 4b 1f 31 3d ca dc 54 bd 39 b0 9d bc
       -0.074954845 0.043242734 -0.051968373 -0.019249069
0003b0 1c 26 a5 bd 29 e2 52 3d e9 53 21 bd ea 5d 6a 3d
       -0.080639094 0.051485214 -0.039386664 0.05721847
0003c0 16 34 01 bc ad d2 b4 3b 06 f1 9a bd d0 8a 48 bc
       -0.007885953 0.0055182786 -0.07565503 -0.012240127
0003d0 45 34 85 3d 5d 9c a1 bd c0 35 5c bb 2c b6 a4 3c
       0.0650411 -0.07891152 -0.0033601373 0.020106398
0003e0 dd c4 5b 3d f3 ea a3 3c 1f 72 a3 3d ce 90 33 3d
       0.05365454 0.020009493 0.07980751 0.04383927
0003f0 ad 0a 80 3c 2b 10 ad bd 22 ea 8e bd d7 97 a4 3d
       0.01563009 -0.084503494 -0.06978251 0.08036774

encoder.6.bias f4 [32]
000000 b0 d2 05 3e e4 21 ab bd c5 ab 97 bd 37 c7 d9 3d
       0.13068652 -0.083560735 -0.07405809 0.106337
000010 a8 75 92 3c d1 db 69 bd 00 5c cf bd d5 db 85 bd
       0.017878368 -0.0570944 -0.101249695 -0.0653607
000020 27 28 b1 bd b2 c6 99 bd 6c ba 80 3d 30 f8 b7 bd
       -0.086502366 -0.07508601 0.06285557 -0.08982885
000030 52 fb db 3c 34 58 a1 bd d9 39 a0 bd 9f 5f 99 bc
       0.026853237 -0.078781515 -0.078235336 -0.018722354
000040 61 61 f8 bd 5d 16 c2 bd ff 33 c0 bd 2d d8 b9 3d
       -0.121279486 -0.09476922 -0.093849175 0.090744354
000050 5f 7d ef 3d 5b 6c a7 bd 3d 8b 3c 3d 12 c3 9f bd
       0.116938345 -0.08174964 0.046031225 -0.078008786
000060 8f 98 8b bd 4c b8 de 3d df b9 00 bc 14 70 f8 3d
       -0.068162076 0.108749956 -0.007856815 0.12130752
000070 86 d0 7b 3d c8 f9 cd 3d 32 7e 0b 3e 06 48 9b bd
       0.06147816 0.100574076 0.13622358 -0.07582097

encoder.9.weight f4 [32, 32, 8]
000000 c9 1d e5 3c 55 24 b2 bd 24 3f 0a bd ca 71 5b bd
       0.027968304 -0.08698336 -0.03375162 -0.053575315
000010 0d 2a 66 bd 57 ad bf bb 5b 64 e7 3c d8 d3 4f bc
       -0.056192447 -0.005849521 0.028246095 -0.012684785
000020 c6 48 2a bd 76 f7 50 3d bb cb 7c 3d 38 88 22 3c
       -0.04157331 0.051017247 0.06171773 0.009920172
000030 7c 97 04 3d 28 1f 2d 3d 90 07 55 3d 0c d1 74 bd
       0.03237103 0.04226604 0.052009165 -0.059769675
000040 4d 91 54 bc 7d 0b be 3d 98 fd 8a 3d 94 6a 93 3c
       -0.0129740955 0.09279535 0.067866504 0.017995156
000050 55 2b a3 3d cb e3 97 3d 54 a7 40 3c e7 39 83 3d
       0.07967249 0.07416495 0.011758644 0.06407528
000060 a2 dc 79 bd 56 69 81 bd 35 ac 34 3d 14 9e 00 3d
       -0.061001427 -0.06318919 0.044109542 0.031400755
000070 45 51 62 bc 48 70 a3 bd 87 ca 14 3d a3 62 28 3d
       -0.0138133215 -0.079804 0.036325958 0.041109692
000080 7e f2 65 3d 54 26 05 bd a3 b3 40 3d 2a 42 24 3d
       0.05613946 -0.032507256 0.047046315 0.04010216
000090 f5 95 58 3d 20 67 42 bd f4 06 58 3d a4 b1 8c 3d
       0.052877385 -0.04746163 0.052741006 0.0686982
0000a0 fa 46 69 3c 2c 20 07 bd 29 a5 f0 3b a6 e1 c9 3c
       0.014238114 -0.032989666 0.0073439074 0.02464373
0000b0 ed e0 c9 3c c9 43 8d 3d e3 40 7d 3d 39 2e 91 3d
       0.024643386 0.068976946 0.06182946 0.070888944
0000c0 b9 54 4c 3d 94 15 19 3d 5f 17 a3 3d 29 fc bc 3c
       0.049885485 0.037374094 0.07963442 0.023069458
0000d0 6a 25 1c 3d de 93 0f 3d 8c ef ba 3c 0a 99 b8 3c
       0.03812162 0.035053127 0.022819303 0.022533912
0000e0 7b c0 5c 3d 8b 96 ab 3d 32 56 0e 3c 81 8c 91 3d
       0.0538945 0.08378323 0.008687543 0.07106877
0000f0 30 3b 9d 3c 2a 70 33 3d 8e 36 af 3d fa 9d 8b 3d
       0.019193262 0.04380814 0.08555327 0.06817241
000100 44 eb 1b 3d 8f e1 66 3c 0b 40 86 3d 9c 76 90 3d
       0.038066164 0.014091863 0.06555184 0.07053873
000110 57 57 41 3d 0c d3 c1 3d 76 2a 6d 3d b9 65 a8 3d
       0.047202434 0.09464082 0.057901822 0.08222527
000120 5b a9 26 bc 5d a3 c4 3d a0 27 02 bc 01 cf 92 3d
       -0.010172213 0.096014716 -0.007944018 0.07168389
000130 d7 64 da bc bd 96 87 3c 62 d7 5e 3c 92 6c a9 3c
       -0.026659412 0.01655137 0.013601156 0.020681653
000140 7c ab 83 3d 43 14 8d 3d 27 6c 9b 3d ce aa ec 3d
       0.064291924 0.0688863 0.07588988 0.11556016
000150 7f 01 93 3d 7a 18 78 3c d7 6d 98 3d d6 4d ce 3b
       0.0717802 0.015142554 0.07442825 0.0062959
000160 01 a5 b3 3c 30 8f a4 3c 44 d1 44 3d 43 04 35 3c
       0.021929266 0.020087808 0.048051134 0.011048379
000170 b3 59 d8 bc 14 3b 51 3d b8 6c 68 3d d0 b0 91 bb
       -0.02640996 0.051081732 0.056744307 -0.0044461265
000180 a8 42 58 3d f1 61 84 3d 1e 61 78 3d a7 64 e9 3b
       0.052797943 0.06463993 0.060639493 0.0071225944
000190 63 98 f1 3c 91 8f 56 bd e4 fc 69 3d c2 04 41 3c
       0.029491609 -0.05238301 0.05712594 0.0117809195
0001a0 0c 42 80 3d 81 31 4b 3d 06 a9 9d bc 1a 0f 50 bc
       0.062625974 0.049607757 -0.019245636 -0.012698913
0001b0 f9 c5 95 3d 66 bf 5b bc f0 f4 0a bd 24 36 b3 3d
       0.07313151 -0.013412332 -0.033924997 0.08750561
0001c0 ef 06 26 bb a8 21 72 3d 2f 97 bc 3c dc 1c 0f bd
       -0.0025333723 0.05911413 0.023021309 -0.03493963
0001d0 19 41 45 3d 6e a4 de bc 54 1b e5 3c 1e 03 61 3b
       0.048157785 -0.027178016 0.027967133 0.0034334133
0001e0 f6 1b 62 3d 4b de a3 3d e2 7c 44 ba bc 97 8c 3d
       0.055202447 0.080013834 -0.00074954156 0.068648785
0001f0 3d dd 9e 3d 4f bc 1b bc 33 f9 6a 3c fd 41 a3 3d
       0.077570416 -0.0095053455 0.01434164 0.07971571
000200 21 a9 a3 3d 0d 13 b9 3d 0c be 9c 3d aa 8f d6 3c
       0.07991243 0.09036837 0.07653436 0.026191551
000210 c0 19 48 3d f7 cb 62 3d e1 a0 62 3d f3 f8 a0 3d
       0.048852682 0.055370297 0.055329207 0.07859983
000220 73 67 25 3c b2 66 b4 3d d4 fa 13 bc ec 1b a9 3d
       0.010095465 0.0880865 -0.00903197 0.08257279
000230 b5 09 62 3d fe 8e 91 bc e7 b6 af 3d 0f df 94 3d
       0.05518504 -0.01776838 0.08579808 0.072691076
000240 c8 1e 63 3d c3 58 13 3d 83 f0 70 3d a8 e9 af 3c
       0.055449277 0.03597332 0.05882312 0.02147372
000250 60 fc e6 3c 61 3e 26 3d 12 fa 1f bb 68 6a c5 3d
       0.028196514 0.040586833 -0.0024410528 0.09639436
000260 7b dc 34 bd 18 49 10 3d 42 f7 5c 3d af f3 f9 3b
       -0.04415558 0.035225958 0.05394674 0.0076279263
000270 7a 8a 33 bd 8e 59 dc 3a 6d 7e 20 3d 81 ef 3d bc
       -0.043833233 0.0016811357 0.03918307 -0.011592747
000280 01 2b ab bd 7f 92 d8 bc 0b f6 9b bd 56 87 cb 3c
       -0.08357812 -0.026437042 -0.07615288 0.024844807
000290 2e cd b1 bc f1 00 45 bd 32 f5 a9 bb c3 36 b6 bd
       -0.021704283 -0.0480966 -0.0051867003 -0.08897164
0002a0 25 e7 80 3d a6 cc 87 3d 6b b4 c8 3d 23 e9 be bc
       0.06294087 0.066308305 0.09800037 -0.023304528
0002b0 85 44 2e 3a e8 42 64 3c 7c 95 74 3c c9 26 90 3d
       0.00066477834 0.013931967 0.014928218 0.07038648
0002c0 7d c9 05 bb 72 d3 41 3d 7e 63 0e bc d9 7c 02 bd
       -0.0020414286 0.04732079 -0.008690713 -0.031857345
0002d0 e7 69 37 bd 5b d0 97 bc 3e 95 1c 3d 98 ed d5 3c
       -0.04477873 -0.018531969 0.038228266 0.02611427
0002e0 ad 95 6b 3d 9d 2f 46 3c 0b 23 a8 3d 31 b7 d1 bb
       0.05751579 0.012096313 0.08209809 -0.006400012
0002f0 76 2d 9a 3d f7 6e 1e 3d a1 50 37 3d 0e 8d 82 3d
       0.07528202 0.038680043 0.044754628 0.0637456
000300 02 92 66 bd b4 0d 35 3c 63 a0 f4 bc 54 1e 68 3d
       -0.056291588 0.01105063 -0.029861635 0.05666955
000310 84 1e 89 3c 3c 1a ce 3b a7 e2 03 3d ee 08 74 bd
       0.016738184 0.0062897485 0.032198574 -0.05957883
000320 54 0c fa bc ca 9e ec bc 4f 0f 58 bd 30 5b f6 3c
       -0.030523457 -0.02888431 -0.052748974 0.030072778
000330 03 a6 4f bd 84 d7 69 bc 51 1f 1e 3d 55 0e 85 b9
       -0.05069543 -0.014272574 0.038604084 -0.00025378415
000340 cc aa e4 3b 20 ec 5f 3a f2 65 4e 3d 95 3b c1 3c
       0.0069783684 0.000854196 0.05039019 0.023587981
000350 f3 38 87 bd c4 2d 74 bd 15 b4 8d bb b8 a5 b6 3c
       -0.06602659 -0.059613958 -0.004324446 0.022295818
000360 dd b6 ba bc 10 e9 84 bd 99 93 a5 bc 47 7a c8 bc
       -0.022792274 -0.06489766 -0.020211982 -0.024472369
000370 10 84 98 3c 26 c2 a9 3c da 03 a5 bc 85 c7 42 bd
       0.01861766 0.02072246 -0.020143438 -0.047553558
000380 d5 a0 e4 3c 71 77 31 bd 6f 22 e7 3c 94 82 40 3d
       0.027908722 -0.0433268 0.028214661 0.04699953
000390 f9 d3 81 bd 7d 4d 74 3d ba 6b 1a 3d a7 ff 6d 3d
       -0.06339259 0.05964421 0.037700392 0.058105137
0003a0 08 0a 57 3b 80 c1 1d 3d 5d 86 9d 3c fe 76 85 bd
       0.0032812376 0.038514614 0.019229108 -0.065168366
0003b0 ab 1d 9e 3b cf 29 6a bd e3 62 62 bd 93 8a 83 3d
       0.004825314 -0.057168778 -0.055270087 0.06422915
0003c0 77 82 ce 3c 43 cd 4b 3c e9 3d 1a bd c9 2b ae bd
       0.025208695 0.012439075 -0.0376567 -0.08504445
0003d0 e5 0a 56 bd 7f a7 59 bc cb 20 05 3d 9f 83 45 bc
       -0.052256484 -0.013284563 0.032501977 -0.012055307
0003e0 ca ef a8 3c f8 ee 00 3b 78 2f 42 3d 67 ce 45 3d
       0.020622153 0.0019673686 0.04740855 0.048292544
0003f0 bb bc 66 bc e3 27 1b 3c cd 4d 84 3d 15 d3 a7 3c
       -0.014083083 0.009469959 0.06460152 0.020486394

encoder.9.bias f4 [32]
000000 51 98 bb bc e8 b6 21 3d 0b 18 ed 3c 66 81 a0 bd
       -0.022899779 0.039481074 0.028942129 -0.07837181
000010 07 c7 2a bd 8c 93 a8 3b 5b b7 d1 3d ed 0e 3b 3d
       -0.041693714 0.005144542 0.102400504 0.04566853
000020 6f 83 6d 3c 7a d6 9e bd a1 21 8c bc 52 86 c1 bd
       0.014496668 -0.07755752 -0.01710588 -0.09449448
000030 42 92 8a 3d 37 3a 13 bd fa 8d c5 bd ec b2 6c bd
       0.06766178 -0.03594419 -0.096462205 -0.05778782
000040 e5 20 0a 3d 3c bd 3d bd 1f 84 95 3b 2a 74 8d bd
       0.033722777 -0.046323046 0.004562869 -0.06906922
000050 41 58 88 3c 9b ca 90 3d a6 f0 95 bd e0 70 b0 bd
       0.016643645 0.07069894 -0.07321291 -0.08615279
000060 6a a0 ba 3d 97 13 00 3d 6c bf 16 bd 5c f0 93 bb
       0.09112628 0.031268682 -0.036803648 -0.004514737
000070 52 05 a2 bc 5a 9c 00 3d 52 b7 85 bd 6f 71 48 3d
       -0.019777928 0.03139911 -0.06529106 0.048936304

encoder.12.weight f4 [64, 32, 3]
000000 27 58 72 bd d5 fd 99 bd 8e 90 0e bd 90 69 25 3d
       -0.0591661 -0.07519118 -0.034805827 0.040383875
000010 46 39 35 bd 0f b2 5e 3d 6d ba 94 ba 08 b2 5f 3d
       -0.044244073 0.05436903 -0.0011347063 0.054613143
000020 64 5f f0 3b 37 92 b4 3d 4d 66 98 3d 8e b6 2b 3d
       0.00733559 0.08816951 0.07441387 0.041922145
000030 9c 13 25 3d b4 49 91 bd 40 85 83 3d 2a d8 be bd
       0.040301904 -0.07094136 0.064219 -0.09318574
000040 96 37 56 3d 8e ab c2 bd 06 e5 da 3d 92 62 83 3d
       0.052299105 -0.09505378 0.10688214 0.06415285
000050 0e 12 11 3e 72 d3 5a bd e2 e5 2b bd 10 7a 08 3e
       0.14167044 -0.053424306 -0.04196728 0.13327813
000060 75 72 11 3c 6e 18 4c 3d cf 48 8c 3d d5 43 31 3c
       0.008877386 0.049827985 0.06849825 0.010819395
000070 fd c5 c9 bd 8b ba f1 3c 05 63 1f bd 25 39 11 bd
       -0.098522164 0.029507896 -0.03891279 -0.035454888
000080 73 0d 67 3d 73 a9 93 3d 47 ec 85 3c f9 36 bd bd
       0.05640931 0.07210054 0.016348017 -0.09239001
000090 b3 d4 78 3d 0d f6 1c 3d 09 bf 44 3d fd 18 dd 3d
       0.06074972 0.03832059 0.048033748 0.10795782
0000a0 73 db 27 bd 68 65 12 bd 30 35 8b bd 90 2c 9e 3d
       -0.040980767 -0.03574124 -0.06797254 0.07723343
0000b0 c9 42 48 bd d3 ae bd 3d 5b eb 01 bd 70 6a a8 3c
       -0.048891816 0.09261861 -0.031718593 0.020558566
0000c0 4b fb 91 3c c3 6f 48 b9 9c 87 ac 3b 09 3a 5f bd
       0.017820021 -0.00019115121 0.0052651893 -0.054498706
0000d0 eb cc 9b 3d 7e 15 d9 bd f5 59 b0 3d ee 4d 5b bc
       0.076074444 -0.105998024 0.08610908 -0.013385279
0000e0 88 1e 00 3b b6 23 f6 3c 06 f1 92 3c cf 00 55 bd
       0.0019549448 0.030046325 0.017937195 -0.052002724
0000f0 9c a7 6f bd 46 46 6a 3c ba ab 82 bd c9 5b 80 bb
       -0.058509454 0.014298981 -0.063804105 -0.0039171916
000100 82 e2 a8 3d 19 08 9c 3c d6 13 de bd d7 85 a8 bb
       0.08246328 0.01904683 -0.10843627 -0.005142908
000110 80 87 d3 bd d0 0f 41 bd d8 9b b0 3d 85 92 31 3c
       -0.10328579 -0.04713422 0.08623475 0.010838156
000120 9c 2e 16 3e 01 0c 13 3e c1 3e f1 3d 5a ac 8f 3d
       0.14666218 0.14360048 0.117795475 0.07015295
000130 a1 f8 e3 3d cd b7 ed 3d 47 39 5a bd 4c 5b 61 bd
       0.111314066 0.11607323 -0.05327728 -0.055018708
000140 99 2e 76 3d 01 8d 56 39 d2 87 f5 3c 38 66 29 3d
       0.060103033 0.00020461158 0.02997199 0.04135725
000150 27 14 b8 bd 4a 1a c5 bd 72 44 42 3b 6b 02 be bc
       -0.08988219 -0.09624155 0.0029642847 -0.023194512
000160 f7 e4 10 bb 15 bc df 3d cc 3a 82 bc e0 9d b4 3d
       -0.002210913 0.10924546 -0.015897177 0.08819175
000170 10 48 c7 3d 07 59 0b 3e 31 8c 30 bd 67 fc 42 3c
       0.09730542 0.1360818 -0.043102447 0.011900998
000180 d1 b1 2c 3c 20 16 b6 bb ba 08 b2 3d d2 17 d5 3d
       0.010540442 -0.0055568367 0.08693071 0.10404934
000190 f7 4c 47 bd 25 7f 00 3e 84 6a 90 3d 05 b9 ad bc
       -0.048657384 0.12548502 0.07051566 -0.021206388
0001a0 92 28 6e bd 35 32 66 bd dd 53 04 3e 8a 3b 7b 3d
       -0.05814416 -0.056200225 0.12922616 0.061336078
0001b0 cb 90 cb bc 65 e6 c7 3c 0d 04 d8 3d 83 3a 95 3b
       -0.024849316 0.024401853 0.105476476 0.0045540943
0001c0 6e 43 ba 3c e8 c6 2e bd 51 48 6e bd 8c 33 b9 bd
       0.022737231 -0.04267016 -0.058174435 -0.09043035
0001d0 64 98 94 3d 5a cc f4 3c c6 ae 01 bd 3a 83 d8 bd
       0.07255629 0.029882599 -0.031660818 -0.105719045
0001e0 e6 d1 c0 bb 77 c3 d7 3d 56 42 e0 3d 78 9b 8f 3d
       -0.005884397 0.10535329 0.109501526 0.07012075
0001f0 be b0 95 bc b2 6d d6 3d 48 c8 04 3d fc 18 e5 3d
       -0.018272754 0.104701415 0.032417566 0.11186406
000200 a0 d3 b5 3d 72 3a bc bc b6 89 f7 3c f4 29 84 bd
       0.08878255 -0.022977088 0.030217033 -0.064533144
000210 b7 a9 94 bb c4 40 99 3d f9 a0 a8 3d a4 1a 96 bd
       -0.004536833 0.07483056 0.08233828 -0.073293
000220 43 38 12 3e a1 d6 8d 3d 73 51 6d 3d ff 3a 11 3e
       0.14279275 0.06925703 0.057939004 0.14182661
000230 9d 5c bd 3d bf bb 8d 3c 17 5e b4 3d 12 af 96 bd
       0.0924618 0.017301438 0.08807009 -0.07357611
000240 85 f6 89 3d 91 34 a5 3c 65 ae b7 3d bd c3 b5 3d
       0.06736473 0.020166667 0.0896881 0.08875225
000250 de b1 38 bd 0c 17 01 3e 34 e5 de 3d 68 fc 82 bd
       -0.045091502 0.12606448 0.10883561 -0.06395799
000260 ca e7 ba 3d 91 7f 47 bc 4d 5c 1f 3d 43 5e ab 3a
       0.091262415 -0.01217641 0.038906384 0.0013074357
000270 e3 59 73 bd af ba 25 3c 4b e7 cd 3d 29 bb e3 bc
       -0.059411895 0.01011531 0.10053881 -0.027799206
000280 c6 b0 55 3d 0b 68 b1 bd 9a e2 eb 3d 35 9e 35 bd
       0.052170537 -0.08662423 0.1151783 -0.04434033
000290 2c 66 3a 3d 30 b7 4e 3d 4e b2 19 bc 35 0e af 3c
       0.045507595 0.05046767 -0.00938089 0.02136908
0002a0 96 41 5d bd 14 99 b0 bd d2 0b e1 bb 0c c7 82 3d
       -0.054017626 -0.08622947 -0.006867864 0.063856214
0002b0 68 36 cd bc 67 c3 d6 3d 25 aa 91 bd c9 23 6f 3c
       -0.025050357 0.10486489 -0.071125306 0.014595934
0002c0 69 2f 74 3d e6 da 8c bd 51 9a 36 3d da 40 83 3d
       0.059615526 -0.06877689 0.04458076 0.06408854
0002d0 ed 34 41 bd ef d5 76 3c de 72 9d 3d 28 2b b2 3c
       -0.047169615 0.015065654 0.07687925 0.021749094
0002e0 1e d6 72 bc 22 e3 e9 bc 4a 9f b6 3d 9e 67 e5 bc
       -0.014821557 -0.028550688 0.08917101 -0.02800351
0002f0 98 49 c8 3d 46 fd b8 bc e3 85 5b bd 0b ca 25 bc
       0.09779662 -0.022581708 -0.05359448 -0.010118972
000300 72 99 ee bd 67 11 e6 3a 9e fa 42 bd 2b ce 67 3d
       -0.11650361 0.0017552794 -0.04760229 0.0565931
000310 db b0 de 3a 27 2c 80 bd df d0 a8 bd 32 c9 ca bd
       0.0016989963 -0.062584214 -0.08242964 -0.09901656
000320 bb 9d 54 3d c2 67 3f 3d 65 1a 03 bd 88 78 82 3b
       0.051908236 0.04672981 -0.032007594 0.0039816536
000330 f5 05 2e bd 02 01 08 3e ff 9f e8 3c f7 43 95 3c
       -0.04248615 0.13281634 0.028396605 0.018220885
000340 86 07 73 3d a3 19 a2 3d 42 59 fd 3c b1 4d 60 bd
       0.059333347 0.07915046 0.03092635 -0.054761592
000350 11 54 7a 3d e1 dd 67 3d aa 6a 4f 3d 7c 48 a9 3d
       0.06111533 0.056608085 0.050638832 0.082657784
000360 e8 40 6e bd 6a 0d fe bc a2 61 b6 3d 2c 6e 08 bd
       -0.05816737 -0.031012256 0.08905341 -0.033308193
000370 3e 03 98 3d 05 09 cb bd 8d ee 12 3d 25 c1 d0 bd
       0.074224934 -0.0991383 0.03587203 -0.101930894
000380 64 ec c8 bd 04 0c 49 bd 5e 3c 67 3d 70 f7 14 bd
       -0.09810713 -0.049083725 0.056454055 -0.036368787
000390 ca f6 cb 3d f0 eb be 3d 03 d3 9f 3d 5c b5 29 bd
       0.09959181 0.09322345 0.07803919 -0.041432723
0003a0 66 5c 37 bd 4a 56 93 3b 33 8f cc bd 85 21 94 bd
       -0.044765852 0.0044963704 -0.099882506 -0.07232956
0003b0 53 f9 3c bd c2 91 a6 bd 81 a9 1f 3d 05 a6 72 ba
       -0.04613621 -0.0813327 0.03898001 -0.0009256306
0003c0 c4 d8 96 bd d7 32 64 3d 77 04 2f 3d 2a 91 46 bd
       -0.073655635 0.055712547 0.042728867 -0.048478283
0003d0 e4 99 6d bd 9c c5 89 bd 12 94 2a bd dd 2e cc 3d
       -0.05800809 -0.06727144 -0.041645117 0.09969876
0003e0 58 b8 32 3d b4 18 77 bd ba f3 27 3d 0d 66 ae bd
       0.043632835 -0.060326293 0.04100392 -0.085155584
0003f0 d7 33 1e 3c 82 df 37 bd 0f d4 8b bb b8 42 c4 bc
       0.009655914 -0.044890888 -0.0042672227 -0.023957595

encoder.12.bias f4 [64]
000000 bf 34 0a 3e 9b d8 0b bc f4 91 2e bd 4e 8b 64 3d
       0.13496684 -0.0085355295 -0.04261966 0.055796914
000010 14 b8 97 3c 54 38 b4 3d 91 9d c5 3d 0f 9f e1 3d
       0.018520392 0.08799806 0.09649194 0.11016666
000020 77 b7 c9 bd 97 20 7b bd 8e fd 82 3d 76 bb 13 be
       -0.09849446 -0.061310377 0.06396018 -0.1442698
000030 e0 1c 9b bd f7 ae e5 bd 0f 07 4b bd d0 28 18 3d
       -0.07573867 -0.112150125 -0.04956728 0.037148297
000040 9e c6 7b bd c9 30 1e bc a7 7f fa 3d 44 a0 7f 3c
       -0.061468713 -0.009655186 0.12231379 0.015602175
000050 80 ca 34 bd 4e 03 d0 bd fe c3 8a 3d 99 87 87 bd
       -0.04413843 -0.1015688 0.06775664 -0.0661766
000060 df ae 82 bc 79 9c 17 bd ec 2a d2 3c ad 06 d1 3d
       -0.015952526 -0.03701446 0.025655232 0.102063514
000070 f3 06 0b be b1 4c e3 ba a6 cb f9 3d 64 16 81 bd
       -0.1357687 -0.0017341581 0.12197046 -0.06303099
000080 98 3f 7c bd 27 db d9 3d 0c 88 1d bd e5 08 17 3c
       -0.061584085 0.10637503 -0.038459823 0.009218429
000090 b1 1a e1 bd eb 8b 7e bd 47 fb 9c bd 73 f9 08 3d
       -0.10991419 -0.062145155 -0.07665115 0.03344102
0000a0 ce b4 e8 bd 1a 1b 9e 3d a6 be f3 3d df 4d 2b 3d
       -0.11362611 0.07720013 0.11901598 0.04182231
0000b0 0d 3c 05 3d 4a 92 10 3e ac ca 1f 3d 5a eb 18 be
       0.032527972 0.14118305 0.039011642 -0.1493353
0000c0 65 b2 38 3d ad 15 89 3d 18 ce cf bd 4d a0 36 3d
       0.045092005 0.066935875 -0.10146731 0.04458647
0000d0 20 3f 99 bd 97 d3 c4 3d 96 31 b2 bd e1 81 52 bd
       -0.07482743 0.0961067 -0.08700864 -0.051393393
0000e0 8c e7 9e bc af e5 c5 bd 8f 4d 51 3d c9 19 b3 3d
       -0.01939752 -0.09662949 0.051099356 0.087451525
0000f0 89 ff d4 bd 24 7a 0b 3e 58 c0 0d 3e a6 f0 a7 bd
       -0.10400302 0.13620812 0.13842905 -0.08200197

encoder.15.weight f4 [256, 192]
000000 40 27 84 3d 39 f8 03 3d b6 83 77 bc 6f 08 84 3a
       0.06452799 0.032219145 -0.015107086 0.0010073314
000010 a7 8a 83 bd b8 26 f5 bc e0 8a 75 3d 72 4a 4b 3d
       -0.0642293 -0.02992569 0.059946895 0.049631543
000020 e1 74 5f 3b 9c 4d 4e 3d bd 54 0a 3b 29 71 d0 3c
       0.0034096765 0.050366983 0.0021107637 0.025444584
000030 1e 78 03 bd 97 0a c4 3c f4 c1 8d bd 5a d0 7c bb
       -0.032096975 0.02393083 -0.06921759 -0.0038576336
000040 d6 99 ca 3c d2 d1 fa 3b cb e4 3a bd 2b 05 10 3d
       0.024731558 0.007654407 -0.04562835 0.03516118
000050 6e 7d 13 bd 53 b3 68 3d 8c 6a 61 3a 4a 72 41 3d
       -0.03600829 0.056811642 0.00085989456 0.047228135
000060 7e 07 6d bd aa ac 93 bb a4 3c b7 bb ad a9 fa 3c
       -0.057868473 -0.004506667 -0.0055919457 0.030598486
000070 44 95 63 3d a0 92 ab 3c 1d f5 41 bc 89 22 e9 ba
       0.055562273 0.02094394 -0.011838225 -0.0017786782
000080 48 e2 0d bd 42 00 d0 3c ed ea ca bc 6a 13 a1 3b
       -0.034639627 0.025390748 -0.024770224 0.0049156444
000090 b3 96 fe bc d8 ea 7a bb f0 74 68 bd b2 af d5 bb
       -0.031077718 -0.003828695 -0.056752145 -0.0065211887
0000a0 19 dd 87 3d 84 1d 8f 3d a5 cf 84 bd 8a dc e5 bc
       0.06633968 0.069880515 -0.064849176 -0.028059263
0000b0 bb 7b 7a bd dc 13 41 3d 1a 43 73 3d 4c 52 83 3d
       -0.061153155 0.04713808 0.059390165 0.06412181
0000c0 5d d3 86 bc 62 53 c6 bc 83 4b 2c bb df b7 21 bc
       -0.016458208 -0.024209682 -0.0026290126 -0.009870498
0000d0 16 7c 12 ba 95 c8 10 bd 3c 07 68 bd bd 8a 20 3d
       -0.0005587948 -0.03534754 -0.056647524 0.03919481
0000e0 50 4a 7c bd 8e dc ba 3c 03 18 ac bc e7 65 29 bc
       -0.061594307 0.022810247 -0.021007543 -0.010339237
0000f0 b6 c8 89 3d 16 35 89 bb 70 55 5c bd fc de e1 bc
       0.06727736 -0.0041872365 -0.053792417 -0.027572148
000100 de 46 5e bc 90 15 d7 bc 6a 90 85 bd 38 9a 0f 3c
       -0.013566701 -0.026255399 -0.065216854 0.008764796
000110 40 fe 5f bc d3 0f ac bb 44 a4 e1 3c db 23 3e bd
       -0.013671458 -0.00525091 0.027544148 -0.046420913
000120 03 fc 42 3c fb 7d 09 bd c2 08 09 3d 0a 26 4b 3d
       0.011900905 -0.03356741 0.033455618 0.049596824
000130 e2 f2 2d 3c 71 49 e6 3c 85 4a d1 bc 95 d0 63 3d
       0.01061699 0.028111191 -0.025548229 0.05561884
000140 b9 95 83 bd aa 50 f0 bc f6 e8 60 bd 46 c1 08 3d
       -0.06425042 -0.029335339 -0.05490967 0.033387445
000150 0b 2b 50 bd d3 62 a3 bc 12 f5 ca 3c 77 f1 a2 3b
       -0.0508223 -0.019944584 0.024775062 0.0049726325
000160 eb 23 dc 3c 89 d6 08 3d 4a 37 87 bd fb 92 8e bd
       0.026872596 0.03340772 -0.066023424 -0.06961628
000170 ec e4 8c 3d 71 2f 23 bd a0 36 23 bd 96 83 5b 3d
       0.06879601 -0.039840166 -0.039847016 0.053592287
000180 cc f4 90 bc 2f 9a e1 3c 01 c1 76 bc 68 34 35 3d
       -0.017694853 0.02753934 -0.015060664 0.04423943
000190 68 f5 42 3c 36 54 58 bd 5a e4 80 3b 4d bf bb 3c
       0.01189933 -0.052814685 0.0039334716 0.022918368
0001a0 62 c7 04 bd ff e6 8d bd 8d 2d a9 3c 16 e2 54 3d
       -0.03241671 -0.06928825 0.020651603 0.051973425
0001b0 9e ad 16 bb f3 02 0f 3d 4a d2 90 bc 68 ec 2a bd
       -0.0022991668 0.034914922 -0.017678399 -0.04172936
0001c0 50 67 8d 3d 83 82 b2 3c 6a 1e 43 bb 9e 10 f6 bc
       0.06904471 0.021790748 -0.0029772767 -0.03003722
0001d0 6f 10 4d ba bf 80 07 3d 51 4a 4d bd 7a 84 b5 3c
       -0.0007822578 0.033081766 -0.0501197 0.022157896
0001e0 dd ce 1f 3d c5 0b 49 3c c1 d0 83 3d 55 d1 fe 3c
       0.03901564 0.0122708725 0.06436301 0.031105677
0001f0 ef 36 91 3d d4 9e be bc fd fa 43 3d b8 b2 b4 bc
       0.07090556 -0.023269095 0.047846783 -0.022057876
000200 7e a6 c4 bc 9a 8f 96 3b 1f cf 15 3d e0 de 8f bd
       -0.02400517 0.0045947554 0.03657448 -0.07024932
000210 f3 f4 24 bd 86 10 d6 bb 4c 4e c1 3b 0a 8e 54 bd
       -0.040272664 -0.0065327315 0.0058992263 -0.05189327
000220 b9 6d 1f 3d 7c 65 96 bb ad 75 a8 3c 25 a9 b1 bc
       0.038923 -0.0045897346 0.020563925 -0.0216871
000230 68 a4 fc ba 0a db 1a 3d 3e 49 f0 bc e2 e6 81 3d
       -0.0019275071 0.03780655 -0.0293318 0.063428655
000240 7e fb 6d 3d 52 3d 86 3d ef 5a ae 3c 4b f4 14 bd
       0.05810117 0.06554665 0.021283595 -0.03636579
000250 12 dd 41 3d 25 71 84 3b 67 9e 5f 3d f9 00 6c bd
       0.04732997 0.004041808 0.054594424 -0.057618115
000260 2d 9a dc bb a7 53 8c bd ec bb 14 bd 18 5e 1c bd
       -0.0067322464 -0.06851893 -0.03631203 -0.038175672
000270 f0 34 c0 bc 63 2b 7c bd 29 49 d1 bc 6a 8a b4 3c
       -0.023462743 -0.061564814 -0.02554758 0.022038657
000280 37 24 a7 bc 88 ae b7 3c 47 7f 23 3b 43 13 5a bd
       -0.02040301 0.02242209 0.002494769 -0.053241026
000290 14 73 52 3d b0 b1 74 3d 68 94 4a bd 5f 20 c5 bc
       0.05137928 0.05973977 -0.049457937 -0.024063287
0002a0 0d 6d 67 3d 58 60 00 bd e0 88 84 3b 3b 59 6f bd
       0.056500483 -0.03134188 0.004044637 -0.058434706
0002b0 c3 b1 45 bd 13 ad 10 bd e4 d2 2f bd 79 93 20 3d
       -0.04826523 -0.035321306 -0.04292573 0.03920314
0002c0 eb d4 92 3c 43 0c 94 bd f0 94 1b bd 71 a5 94 bc
       0.017923793 -0.07228901 -0.037983835 -0.018145295
0002d0 93 a2 61 3c 69 f9 84 3d af 49 d5 bc 55 85 4f 3d
       0.013771671 0.06492884 -0.026036112 0.050664265
0002e0 92 43 7d bd 73 6f 92 bd 58 35 42 bb 1a 6b a7 3c
       -0.06183202 -0.071501635 -0.0029633846 0.020436812
0002f0 7b 15 1c 3d 98 4d 6d bd 94 fd 52 bc 26 e6 7a 3d
       0.038106423 -0.057935327 -0.012877841 0.061254643
000300 71 07 65 3d 60 db df bc d6 32 2b 3d 00 9a 6f 3d
       0.0559153 -0.027326286 0.041796528 0.058496475
000310 c6 a5 10 bd 60 cc 7d bd 28 7b ec 3c 76 ab 39 bd
       -0.035314344 -0.061962485 0.02886732 -0.045329534
000320 76 54 fb 3c 31 e7 57 3d 46 83 56 3c 54 64 8c 3b
       0.030679923 0.052710716 0.013092821 0.004284421
000330 36 f9 82 3d df 31 6b bd b0 e2 90 3d 42 a0 6e bd
       0.063951895 -0.057420608 0.07074487 -0.058258303
000340 1a 7c 91 3d d5 18 3a 3d 31 cc 04 3d ab 1f 6c bc
       0.071037486 0.045433838 0.032421295 -0.014411847
000350 35 53 68 bc 2d 7e 68 3d e1 82 7f bd 73 03 c1 3c
       -0.014179994 0.056760956 -0.062380675 0.023561215
000360 c0 1c b2 3d 51 01 59 3c df c5 ea bb c2 b8 ba bc
       0.0869689 0.013244943 -0.0071647014 -0.022793178
000370 23 67 17 bd 38 fb 95 bc f3 db 1f 3d 19 49 62 bd
       -0.036963593 -0.018308267 0.03902812 -0.055245493
000380 15 5c c0 bc 8d 55 5b 3d b8 b5 5b 3b e0 b7 26 3d
       -0.023481408 0.053548384 0.003352506 0.0407027
000390 70 55 6b bc c2 35 49 bd 93 58 5d 3d 35 fc f4 bc
       -0.014363632 -0.049123533 0.05403955 -0.029905418
0003a0 1f 50 8e bb 01 02 74 bc 6e e3 ca 3c 63 b1 50 3d
       -0.0043430473 -0.014893056 0.02476665 0.05095042
0003b0 ee 19 5a 3d 3a bc 10 3d b6 82 27 bd f0 f4 48 3d
       0.053247385 0.035335757 -0.04089614 0.049061716
0003c0 fd 74 f5 bc 3c 73 0f bd 57 a7 96 3d 04 83 dc 3a
       -0.02996301 -0.035022005 0.07356136 0.0016823714
0003d0 89 c4 18 bd e2 8d f8 bc a8 0c f1 bc b5 85 84 3d
       -0.037296806 -0.030341092 -0.02942498 0.06470815
0003e0 44 27 49 bd 98 88 e4 bb e8 73 93 bd 4a 98 0a 3b
       -0.049109712 -0.006974291 -0.07199842 0.00211479
0003f0 9f 44 a3 3d 9a b8 a6 bc e3 5d a0 bb e8 41 85 bc
       0.07972073 -0.020351697 -0.0048940047 -0.016266778
