dump/source_encoder_cwru_cua5.pt (torch, 284865 bytes, 12 tensors)

encoder.0.weight f4 [8, 1, 32]
000000 52 87 df 3d 07 35 40 be 62 a2 44 3d 21 87 01 3e
       0.10914482 -0.18770228 0.048006423 0.12649204
000010 f2 5e 20 3d 57 9a 54 be 42 40 c0 bd 49 b2 b9 3d
       0.039153047 -0.20762001 -0.09387256 0.09067208
000020 ff dc 35 be de fa f5 3d 85 35 e5 3b de 5d dd bd
       -0.17760085 0.1201074 0.0069949054 -0.10808919
000030 db 00 17 bd 26 a4 47 bd a6 5c 4e 3d ba f3 a9 bd
       -0.03686605 -0.04874053 0.050381325 -0.0829844
000040 56 92 2c be 3c ee fe 3d aa ee 2d be 45 5c 53 3e
       -0.16852698 0.12447783 -0.16985574 0.20640667
000050 45 f6 c5 bd 87 36 8b 3d 08 94 85 3d cb 34 38 3d
       -0.09666113 0.0679751 0.06522375 0.044972222
000060 ef 4a e8 bc fd b9 01 be 96 53 5c bd db a2 34 bd
       -0.028356044 -0.12668605 -0.05379065 -0.044100624
000070 8a da 52 be 05 bf 75 3e 78 6d 46 be 53 c3 a1 bd
       -0.20591179 0.2399865 -0.19377697 -0.07898583
000080 39 75 11 3e 57 22 60 3d ee 43 a5 bd 99 33 f4 3d
       0.14204873 0.05472025 -0.08069597 0.11923904
000090 08 8f 09 3e 10 71 43 be 09 2f 58 3d 46 00 c6 3d
       0.13433468 -0.19086099 0.05277923 0.09668021
0000a0 40 27 e3 bd ee d2 61 be f1 58 08 3d ee a0 22 be
       -0.11091471 -0.2205312 0.033287946 -0.15881702
0000b0 27 68 36 be 5a 98 b2 3d e4 6d 07 bc 6c 22 08 bd
       -0.17813168 0.08720465 -0.008265946 -0.033235952
0000c0 88 1a 9e 3d 2f 8e 1a 3a f5 11 26 be 35 12 38 3e
       0.07719904 0.0005895821 -0.16217788 0.17975695
0000d0 48 32 10 3e 92 1a 87 bd fa e3 15 3e fe 0d 29 3e
       0.14081681 -0.06596865 0.14637747 0.16509244
0000e0 04 a1 2e be b3 80 c0 bc 98 fd 3b 3e 41 8e 63 be
       -0.1705361 -0.023498869 0.18358457 -0.22222234
0000f0 ca 74 06 be a1 b7 09 3e fe e2 23 be ec 25 1d 3e
       -0.13130489 0.13448955 -0.1600456 0.15346497
000100 f5 df c4 bb d7 f2 c7 3c 84 80 ae 3d 98 79 6b be
       -0.006008143 0.024407787 0.08520606 -0.22995603
000110 46 d5 53 bd b2 6e 6a 3e 6a 2d ea bc 58 44 23 bc
       -0.051717065 0.2289379 -0.028586108 -0.009965025
000120 43 88 19 bd cf 8d c1 bb f2 12 4f be 69 c3 c1 3b
       -0.037483465 -0.0059067975 -0.20222071 0.0059131873
000130 e1 66 82 3d 77 5f 85 3d 7a 96 c1 3d 78 5a 15 3e
       0.06367279 0.06512349 0.09452529 0.14585292
000140 e2 dd f0 bd da b8 f0 3b 7b 5a 0d bd ea a1 8d be
       -0.11761071 0.007346255 -0.034510117 -0.27662593
000150 94 e8 c6 3d 78 ed 41 bd 0d 3f d5 bd 62 bc 44 3d
       0.097123295 -0.04734561 -0.104124166 0.04803122
000160 bc df 34 3e 87 aa 32 3e d5 db 09 be c1 7e 15 bd
       0.17663473 0.17447864 -0.13462766 -0.036497835
000170 bb 4a 91 bd 1e e1 f6 bb e7 61 b3 3d 23 2b 49 3e
       -0.07094332 -0.0075341603 0.08758908 0.19645362
000180 ee 23 ae bd 0b 15 6c 3e 34 32 d0 bd cf f0 0f be
       -0.08502947 0.23054902 -0.101658255 -0.14056705
000190 4e db ce 3d d1 88 c5 3c 16 a0 59 be 65 11 85 bd
       0.10100423 0.02411309 -0.21252474 -0.06497458
0001a0 a6 70 0a 3e 3b 66 fd bd 2d a7 41 bd 08 62 c4 3d
       0.13519534 -0.123730145 -0.047278572 0.095890105
0001b0 2b 9a 81 bd ef 80 97 bc 9a ec a4 3d 84 ea 5f be
       -0.06328233 -0.018494098 0.08052941 -0.21866804
0001c0 6d 99 25 be ba 66 1a 3e c1 f1 fa 3d e7 a7 8d 3d
       -0.16171809 0.1507825 0.12253142 0.069167905
0001d0 5c 78 35 3e 78 ed ab 3d 2a 99 77 be ed b6 0b be
       0.17721695 0.08394903 -0.24179521 -0.13644
0001e0 cb 24 5a bc 53 06 05 bc 62 b8 16 be 23 32 47 bd
       -0.013314436 -0.008119184 -0.14718774 -0.0486318
0001f0 0f c9 b7 3d ae e1 49 3e 26 15 40 bc fc bb 26 3e
       0.08973896 0.19714996 -0.011723792 0.16282648
000200 68 a6 e7 bd 5a e1 4a bd 50 52 0c be 3d 85 03 3e
       -0.11311036 -0.04953132 -0.13703275 0.12843795
000210 17 ba 8f bc 89 28 50 3e d0 52 40 bd 78 4f a7 ba
       -0.01754479 0.20327963 -0.046953976 -0.0012764772
000220 55 6c 0c bc 79 ef 2d 3e 4b 0c 3e be a9 09 71 bc
       -0.00857075 0.16985883 -0.18559377 -0.014711776
000230 f6 46 db 3d ed 9e 04 bd 68 33 dd 3d e4 53 d6 3d
       0.10706894 -0.032378126 0.108008206 0.104652196
000240 f8 fc 54 3d fd 9b 1f be d4 95 b3 bd 91 7b 13 be
       0.051999062 -0.15586849 -0.08768812 -0.14402606
000250 91 61 d7 bd 7e 09 fb 3d d9 03 93 bd d9 14 b9 bd
       -0.10516656 0.1225767 -0.07178468 -0.090371795
000260 24 e2 22 3e 19 67 3f bc 69 89 00 be 88 90 26 bc
       0.15906578 -0.011682295 -0.12552418 -0.010166295
000270 62 d0 ee 3d 60 ee 2f bd 6e ba 8f bd 3b 75 0f be
       0.116608396 -0.04295194 -0.070179805 -0.14009564
000280 73 cb ec 3d 5d 2d c9 bd 53 dd 9c 3d 21 62 ad bd
       0.11562242 -0.098231055 0.07659402 -0.08465982
000290 f7 67 fa 3d 69 e2 8d 3d ff a8 b0 3d 1c 9e 32 be
       0.12226861 0.0692795 0.086259834 -0.17443126
0002a0 d1 2d 89 3b 75 1e 4a 3e d9 52 04 3d 05 ea 18 3e
       0.00418637 0.19738181 0.032305572 0.14933021
0002b0 bc 78 9a 3d 14 c8 27 be 2c 09 e0 bc fc a2 24 3b
       0.075425595 -0.16384917 -0.027348123 0.002512156
0002c0 6f 1a 97 3d 9e 24 0f 3e 02 91 34 3e 99 82 0b 3e
       0.07378089 0.13978812 0.17633441 0.13624038
0002d0 e2 71 0e bd 1f 74 b0 bd 64 dc 48 bd 10 f8 42 3d
       -0.034776576 -0.08615898 -0.049038306 0.047599852
0002e0 96 a6 c2 bc ea 82 77 bd 6a 9e 0a 3e c9 23 d0 3c
       -0.023761075 -0.060427584 0.13536993 0.025407689
0002f0 0b 1f 2e bd 7c aa 13 3e b8 92 6c 3c 29 68 92 3d
       -0.042510074 0.14420503 0.014439277 0.07148773
000300 6a 27 d7 bd 44 a4 01 be 62 62 b6 3c 38 01 aa 3d
       -0.105055645 -0.12660319 0.02226371 0.08301014
000310 a7 10 3f be e2 5a 31 3e fc f5 44 3e 1f 06 3c bd
       -0.18658696 0.17319825 0.1923446 -0.045904275
000320 9e 75 99 3a bf aa f0 3d 8e 40 04 bd a6 47 19 be
       0.0011708026 0.11751317 -0.032288127 -0.14968738
000330 21 31 de 3d dc 9f d0 bc 84 eb e7 3c 95 45 37 3e
       0.10849214 -0.025466852 0.028310545 0.17897637
000340 4c 44 3a be ed f5 a1 bd 8f 97 1c bd e9 df 31 3e
       -0.18190116 -0.07908235 -0.038230475 0.17370571
000350 5d 3f 31 3d d0 b5 6e 3d a7 4f 96 3d 86 25 5f be
       0.04327332 0.05827886 0.07339411 -0.21791658
000360 05 66 b7 3d e9 95 71 3c 19 c0 30 be b8 70 6a b9
       0.089550056 0.014745214 -0.1726078 -0.0002235797
000370 68 d5 eb 3c bb 58 58 bc 9d 8f ef bd 7f 88 33 3e
       0.028788283 -0.013204749 -0.11697314 0.17532538
000380 03 c8 1f be 74 b9 21 3d 5e b5 83 3e 36 4a 46 be
       -0.15603642 0.039483503 0.2572431 -0.19364247
000390 af 17 26 3e 3a 0a a2 3d 23 73 f8 3d 85 df 44 be
       0.16219972 0.07912107 0.121313356 -0.19225891
0003a0 de f5 37 3e b9 e4 15 3e 74 4a 4b be c3 86 63 3d
       0.17964885 0.14638032 -0.1985262 0.05554844
0003b0 e7 1b 10 be e8 79 8b bd 5a 32 2e 3e 90 ce 47 3e
       -0.14073144 -0.06810361 0.17011395 0.19512391
0003c0 3e 8b 24 be b6 e5 02 be 51 5e 20 3e 98 99 b8 bc
       -0.16068742 -0.1278294 0.15660979 -0.022534177
0003d0 f9 cf 8e 3c b9 df 85 bd 99 79 3a 3e e7 a4 d5 3d
       0.017433153 -0.06536812 0.18210448 0.10431843
0003e0 fc d5 23 3d f5 8c ff bd 0d 84 35 3e 1d 2a 2a bd
       0.039998993 -0.12478057 0.17726155 -0.04154407
0003f0 13 44 38 be 7b 7b ea 3d 7a a7 da 3c ca fe 71 bc
       -0.17994718 0.11449333 0.026691187 -0.014770219

encoder.0.bias f4 [8]
000000 58 d8 85 bd fe ee 43 bd 22 f2 d5 ba 1d 35 b3 bd
       -0.06535405 -0.047835343 -0.0016322772 -0.08750365
000010 57 5a 86 bc 28 ef 1d 3e f6 34 ac bd 51 3c 88 3d
       -0.0164005 0.15423262 -0.08408539 0.066521294

encoder.3.weight f4 [16, 8, 16]
000000 5a 58 d5 bb 4c da 90 3d 52 2b a6 3d 38 0a dc 3d
       -0.0065107765 0.07072887 0.081137314 0.107441366
000010 65 6b 60 3d 3c 76 e0 3c 54 01 22 bd 01 63 a8 3d
       0.05478992 0.027400129 -0.039552048 0.082220085
000020 88 f2 12 3d bf 75 d1 3d cc 31 83 3d 87 8e 4d 3d
       0.035875827 0.102275364 0.064059824 0.050184753
000030 94 74 d6 3d d1 41 1a bd b0 46 7c b8 4a 59 4c bd
       0.10471454 -0.037660424 -6.0147315e-05 -0.04988984
000040 5a 6b a6 3d df 87 04 3e 8d 2e 76 3c bb 98 65 3d
       0.081259444 0.12942456 0.015025747 0.05605386
000050 75 7c 44 3d 84 04 13 3e 49 a6 8e 3d 54 75 f9 3d
       0.047970254 0.14357191 0.0696531 0.12180582
000060 f4 92 01 3e 8a f4 a9 3c 17 fe 21 3e ad e0 8a 3d
       0.12653714 0.020746488 0.15819584 0.06781135
000070 8e 32 a2 3d 91 77 db 3d 3b bd 97 3d 19 3a fd 3d
       0.07919799 0.10716165 0.0740914 0.12364597
000080 be 11 8a 3d b2 41 61 3d b9 d2 12 3d 79 35 bf 3d
       0.06741665 0.054994293 0.035845492 0.09336371
000090 1e 2b 4a 3d 56 15 44 3b fc 27 e5 3d bb 4a 87 bc
       0.049357526 0.0029919944 0.11189267 -0.016515126
0000a0 b1 36 5e 3a 0b b1 13 bd 0b 6c 9c bb 34 9b 52 bd
       0.00084767776 -0.036057513 -0.004773622 -0.051417544
0000b0 fb a6 d5 3d 83 09 a5 3c d2 83 ae 3d 32 1a 18 bd
       0.104322396 0.020146137 0.085212365 -0.037134357
0000c0 87 38 de 3d db 1e 1e 3d 03 20 64 bd 22 7d cc 3c
       0.108506255 0.038603645 -0.05569459 0.024962012
0000d0 d3 2f 40 3d 68 f1 bf 3d c1 3a ee bb 52 de c1 3d
       0.04692061 0.093722165 -0.0072701876 0.09466232
0000e0 de 03 3f bc e1 e6 17 bd a6 b3 8e 3d 63 46 ae bc
       -0.011658637 -0.037085418 0.06967859 -0.021273797
0000f0 7f ca 9e 3d 83 be 6a 3d 8d 27 cc 3d ae 17 2d 3d
       0.07753467 0.057310592 0.09968481 0.04225891
000100 01 f0 c6 3d 1e 36 6f 3d 83 0a 3c bc 38 02 67 3d
       0.09713746 0.05840122 -0.011477116 0.0563986
000110 1f 2a f1 3d 99 5d 0c 3e b7 44 00 3e 5b bc fd 3d
       0.11775612 0.1370758 0.12526213 0.123894416
000120 dc 1e b8 3d 13 6c 9c 3d fe 0b b0 3d 01 3a 89 3c
       0.08990261 0.07637801 0.08596037 0.016751291
000130 0f 09 dd bb b8 0a 7c 3d a9 5d 56 bd 6b ef ad 3d
       -0.0067454646 0.06153366 -0.052335415 0.08492931
000140 f7 28 22 3d cd 96 d0 bb 24 e7 7d 3d f1 34 5d bd
       0.03958985 -0.006365633 0.06198801 -0.054005567
000150 08 d1 16 bd 0a a3 b3 3d 17 c2 fa 38 d3 4c 65 3c
       -0.03682044 0.087713316 0.00011957081 0.013995367
000160 be bc a3 3d eb a6 da bc 66 c4 18 3d a4 4c 25 3d
       0.07994984 -0.02669092 0.037296675 0.040356293
000170 35 e6 90 3d 69 02 a7 3d 4d 1b 5e bc 24 f7 67 bd
       0.070751585 0.081547566 -0.013556314 -0.056632176
000180 93 c5 8c 3d 54 1b 9f 3d ad 23 91 3d b9 13 d8 3d
       0.06873622 0.07768884 0.07086883 0.10550637
000190 3b 05 0e bd 7d ee 35 b9 8c 80 e8 3d 39 58 03 bd
       -0.034672957 -0.00017350349 0.11352643 -0.032066558
0001a0 00 cf 03 3b e4 c6 0f 3e 05 7b 31 3d c1 91 34 3d
       0.0020112395 0.14040715 0.04333021 0.044084314
0001b0 85 af ce 3d b0 a4 f4 3d f8 e7 14 bd f0 97 d8 3b
       0.100920714 0.11945474 -0.036354035 0.0066099092
0001c0 e9 1c 9c 3d a8 ee 85 bd 5c 38 d5 bb 82 0f a2 bc
       0.07622702 -0.06539661 -0.0065069627 -0.019782785
0001d0 ed bd 22 3d 85 f5 84 bd 99 f1 79 3c 0b 13 96 bc
       0.03973191 -0.06492142 0.015255355 -0.018319627
0001e0 8a 3a 25 bd a1 2d f9 bc b7 0e 94 b9 e5 d3 03 bd
       -0.04033903 -0.030417265 -0.00028239723 -0.0321845
0001f0 79 9d af bb 95 a5 41 3c a3 ad 87 3c 6c e7 89 3d
       -0.0053593484 0.011819263 0.016562289 0.06733593
000200 09 79 0f 3d 11 59 22 3c 18 d9 b4 3d 84 b0 9a 3d
       0.035027537 0.00990893 0.0883047 0.07553199
000210 90 34 6e 3d f3 dd 45 3d b9 6f 4d 3d 5e d2 9a 3d
       0.058155596 0.04830737 0.050155375 0.075596556
000220 26 db ca 3d 5b b5 f3 3d b0 da f5 3c c1 c6 c3 3d
       0.099050805 0.11899825 0.030011505 0.09559394
000230 e9 9a a3 3d 4e 2f 94 b7 5e be 85 3d 46 b4 ab 3c
       0.07988531 -1.7665003e-05 0.0653045 0.020959985
000240 01 54 f5 3c c2 dd 25 3d 8a 21 0b 3e 63 33 10 3c
       0.029947283 0.040494688 0.13587013 0.008801314
000250 2c 20 b2 bc bb 20 f2 3c 23 e3 17 bd e1 01 73 bc
       -0.021743856 0.029556623 -0.03708185 -0.014831991
000260 3a ed 15 3d 3e ea 33 bc bf 37 11 3d fd f3 f1 3d
       0.03660319 -0.010981141 0.035453554 0.11814115
000270 70 3d 9e 3d b5 1e 2d bd 19 60 4f 3c 6c 1d d4 bc
       0.07726562 -0.042265613 0.012657189 -0.025892936
000280 24 12 a6 bc dd b9 44 bd 96 90 b2 3d 67 f3 6b bd
       -0.020272322 -0.048028816 0.08718984 -0.057605173
000290 7e 35 b9 bc a3 16 a0 bb df b2 c1 bc de ea ae 3d
       -0.022608515 -0.004885511 -0.023644863 0.08540891
0002a0 2b be 81 3c ff 1c 69 bd 60 2c 2f 3d 9d db ca 3d
       0.01583775 -0.05691242 0.04276693 0.09905169
0002b0 24 20 94 3d 3e 70 22 3d c3 f8 79 3d 45 43 74 bd
       0.07232693 0.039657824 0.061028253 -0.059634466
0002c0 69 50 d7 3d 09 eb 38 3a 48 c6 ef bb cf 50 27 bd
       0.10513384 0.0007054066 -0.007317338 -0.04084855
0002d0 9d be 29 bd f1 84 ce bc d7 3d b2 3c df 4b be 3c
       -0.04144155 -0.025209876 0.021758003 0.023229538
0002e0 0a f1 1c bc 20 df 23 bd 43 e7 93 3d 5c 7e 03 3c
       -0.009578953 -0.04000771 0.07221844 0.008025732
0002f0 67 0d 41 3d ec c6 78 bd 5a cd d7 3c 09 03 8b 3d
       0.047131922 -0.06073658 0.026343036 0.06787688
000300 cc 9b a5 3d 84 8a 48 3d ec e8 d3 3d 30 df 48 bc
       0.080863565 0.048960224 0.10347161 -0.012260243
000310 f8 03 8a 3c d4 bd 56 bd 17 2f bc 3d fb 8a 10 bc
       0.016847596 -0.052427128 0.09188669 -0.008822198
000320 27 7b ee 3d 39 85 0c 3d c8 25 1d bc 34 4a 48 3d
       0.11644583 0.03430674 -0.009591527 0.04889889
000330 62 53 a9 3b fc 52 db 3d a2 61 f6 3c 3f c1 03 3d
       0.0051674107 0.107091874 0.030075852 0.032166716
000340 ba 47 47 bd 1a 2b 37 bc 44 45 a6 bd c0 78 68 bc
       -0.04865239 -0.01117971 -0.0811868 -0.014188945
000350 73 7a 3b 3d 2d 89 11 3d 8c 18 6f 3d 38 17 58 3c
       0.045771074 0.03553121 0.05837302 0.0131891295
000360 a7 1b 80 bc 09 f3 86 3a 64 e0 45 bd 82 98 92 bd
       -0.015638186 0.0010295819 -0.0483097 -0.07157995
000370 bb 8c ad bd 46 50 82 bd 1d 81 c3 bb 11 f5 a3 3d
       -0.08474108 -0.06362967 -0.0059663192 0.08005727
000380 e9 67 b8 3d 1e 96 dd 3d 4c 64 1f bd f5 e1 02 3e
       0.09004194 0.10819648 -0.03891401 0.12781508
000390 cf 01 fe bc c0 1d 67 3d 65 d5 b1 bc 7b 39 97 3d
       -0.031006722 0.056424856 -0.0217082 0.073840104
0003a0 f0 cb 74 bc 3f 38 fd 3d 43 cb c2 3d 28 59 fd bb
       -0.014941201 0.12364244 0.09511425 -0.0077315755
0003b0 e3 38 1f 3d f0 af 8e 3d da 87 b4 bb ea 26 d2 3d
       0.03887261 0.06967151 -0.005509359 0.102613285
0003c0 1a 8f 81 3d 1b 40 57 3d 71 66 28 3d 1c c4 89 3d
       0.063261226 0.05255137 0.04111332 0.06726858
0003d0 91 00 9e bd 89 bb 30 bd 23 85 93 bd 61 ee c7 3d
       -0.07714952 -0.043147597 -0.07203128 0.09762264
0003e0 90 3e 83 3d 56 0c 81 3d ed c5 5e 3d 09 85 e2 3b
       0.06408417 0.06301181 0.054387975 0.0069128317
0003f0 d7 99 ac ba 4f 02 92 bc 25 2b 6b bd 49 15 2c 3d
       -0.0013168406 -0.017823366 -0.057414193 0.042012487

encoder.3.bias f4 [16]
000000 a6 bd 59 3b fe dd 1c bd e3 35 98 bd 34 a4 e2 bc
       0.0033224612 -0.038297646 -0.07432153 -0.027666189
000010 dd 54 3c 3d a0 2e ae bb 48 02 0b 3e d7 7c c9 bc
       0.04597937 -0.0053156167 0.13575089 -0.024595661
000020 80 02 3c bd 41 d9 01 3e 3c 86 a7 bd 8e f8 8a bd
       -0.04590082 0.12680532 -0.081799 -0.06785689
000030 12 fe f6 3d 0c fc b2 3d 67 0f 89 3c 0a fe bd 3d
       0.12060179 0.087394804 0.016730977 0.0927697

encoder.6.weight f4 [32, 16, 8]
000000 e5 b4 25 3b 8f 38 ac 3d 21 97 1b 3e 82 5e 28 3c
       0.0025284823 0.08409225 0.1519437 0.010276439
000010 31 f2 e4 ba 2b a8 fd 3d bf e4 46 3c 04 cd c0 3d
       -0.0017467198 0.12385591 0.012139498 0.094141036
000020 22 34 16 3e 3b 86 61 3d 63 ec e7 3d 05 ae 0a 3d
       0.14668325 0.055059653 0.11324384 0.033857364
000030 89 68 d1 3d 0a ba dd 3c a0 0a dd 3d 7c f4 f3 3d
       0.102250166 0.02706625 0.10793042 0.11911866
000040 17 e3 0c 3d 70 f1 87 3d 1a 03 19 3d 3b c1 dd bb
       0.034396257 0.066378474 0.037356474 -0.0067674196
000050 2e 0c 0d 3c 37 c5 e1 3c 39 a3 b7 3c 70 8b 09 3d
       0.008608861 0.02755986 0.022416698 0.033580244
000060 a6 32 26 3e 41 17 f8 3d 26 07 ed 3d 4e 83 9b 3c
       0.16230258 0.1211381 0.11573629 0.01898351
000070 86 e6 33 3e d3 66 b8 3d 97 ae 51 3d 3b 0f f4 3d
       0.17568406 0.09003987 0.051191892 0.119169675
000080 69 e7 ad 3d 61 2b b6 3d 28 b1 78 3d 2f 40 ef 3d
       0.084914036 0.088949926 0.060715824 0.11682164
000090 b6 3f 6c 3d 26 fe ee 3d b8 fa 06 3d a8 8a dc 3d
       0.057677947 0.11669569 0.032953948 0.10768634
0000a0 90 94 cd 3d 27 5e 05 3d 02 b2 a4 3d 30 16 00 3e
       0.10038102 0.032560494 0.08041765 0.12508464
0000b0 ee 0a 14 3e ce f8 6d 3d 9b b9 28 3e 06 f6 ae bb
       0.14457294 0.058098607 0.16477053 -0.005339387
0000c0 e3 68 3d 3d 6c 17 10 3e c6 40 1c bc 04 d2 98 3d
       0.046242606 0.14071435 -0.009536928 0.07461932
0000d0 9a 33 7d 3b 3f 3c 26 3d d5 f2 bf 3d 05 da a8 3d
       0.0038635493 0.0405848 0.093724884 0.08244709
0000e0 60 a7 03 3e ec 99 b5 3d 75 41 23 bb ee aa 20 3e
       0.12856817 0.08867249 -0.0024910842 0.15690205
0000f0 d3 b4 c1 3d fc 7c e0 3d ad 59 b7 3c 42 97 ea 3c
       0.094583176 0.10961339 0.022381628 0.028636578
000100 84 a1 a2 3d 94 0c 02 3e d4 92 99 3d b4 91 3a 3d
       0.07940963 0.1270011 0.07498708 0.04554911
000110 00 2c 02 3e bd 45 12 3e 08 f6 8c 3b 9e 1a 2e 3e
       0.12712097 0.14284416 0.00430179 0.17002341
000120 fe 0e 8f 3c 3b 15 f7 3b b2 f1 b4 3d 6d ed f7 3d
       0.017463204 0.0075403727 0.08835162 0.12105832
000130 77 fa 0f 3e 84 2a 84 3b 08 a5 b6 3d aa 27 7c 3d
       0.14060389 0.0040333886 0.08918196 0.061561264
000140 1c e9 86 3c 33 21 22 3e ee a7 32 3e e5 20 2b 3e
       0.016468577 0.15832977 0.17446873 0.16711767
000150 87 2e 9f 3d cd 4a 20 3e d2 83 cf 3c 79 21 1e 3e
       0.07772546 0.15653534 0.025331412 0.15442456
000160 c0 98 df 3d 9b 1e f7 3d 63 ad 80 3d a1 ca 1e 3d
       0.109178066 0.120663844 0.06283071 0.03876746
000170 10 75 e1 3d 26 f4 8e 3d 8a 04 73 3c 9e 3a ef 3d
       0.11008656 0.06980161 0.014832625 0.11681102
000180 a2 9d 0f 3a ba 12 a5 3d da 7f bd bc 5b 13 c6 3d
       0.0005478506 0.080602124 -0.023132253 0.096716605
000190 a0 56 ca 3d 77 90 9d 3d 0b 74 99 3d a0 d0 04 bc
       0.09879804 0.0769357 0.074928366 -0.008106381
0001a0 fc 5a 9f 3d fb f7 af bc 2c 78 6c 3d 7e f3 79 3d
       0.07781026 -0.021480551 0.057731792 0.061023228
0001b0 73 83 28 3c 01 70 a3 3d 2f 88 a6 3d 63 ba fc 3d
       0.010285246 0.079803474 0.08131444 0.12340238
0001c0 13 68 67 3d de 44 8f 3d 5f c3 32 3e c8 81 03 3e
       0.056495737 0.06995557 0.1745734 0.12842476
0001d0 58 84 27 3e 1d 69 f5 3c 28 b4 35 3e 09 e4 e2 3d
       0.16359079 0.029957348 0.17744505 0.110786505
0001e0 28 aa 1a 3e fd b7 35 3d 0b 56 a8 3c 86 f1 0e 3e
       0.15103972 0.044364918 0.020548841 0.13959321
0001f0 4b 1d a3 3d 3d b4 08 3e 9c 93 f2 37 b8 bc 1b 3e
       0.079645716 0.13350005 2.8917384e-05 0.15208709
000200 fd 94 b6 3c c9 ac 05 3d 06 59 f7 3c 5b ae 88 bc
       0.02228784 0.032635484 0.030193817 -0.016684702
000210 82 05 52 3d 37 60 b6 3d a3 46 e2 3d bd 46 d5 bc
       0.051274784 0.0890507 0.11048629 -0.026034707
000220 4a 4d 43 3d 15 ec bf 3d 44 30 e1 3d aa dc 36 3d
       0.04768113 0.09371201 0.10995534 0.044644035
000230 04 55 fb bc 08 17 ed 3d 8c 2b eb 3d 2c 05 8b 3d
       -0.030680187 0.115766585 0.11482915 0.06788096
000240 39 cb 5d 3d d2 7e c8 3d 48 09 4f 3c 9c d2 78 3d
       0.054148886 0.09789814 0.01263649 0.060747728
000250 f6 57 bd 3d ed 34 ad 3d b7 5f 33 bd d5 55 30 bd
       0.09245293 0.084573604 -0.043792453 -0.043050606
000260 15 ac 96 3d dd 32 e4 bc 6c 7b 8d 3d 5d f3 a4 3d
       0.07357041 -0.027856285 0.069083065 0.0805423
000270 0c 97 6a 3d 0e 16 79 3d 9d c8 d5 bc 49 09 27 bc
       0.057272956 0.06081205 -0.026096636 -0.010195085
000280 67 b8 13 bb f7 78 d4 bc 0e fe 12 3c 6f d3 ec ba
       -0.0022540332 -0.025936587 0.008971704 -0.0018068383
000290 75 e1 a6 3d 4c 5f 31 3c 81 07 bf 3d 90 ca df bb
       0.08148471 0.010825943 0.09327603 -0.0068295673
0002a0 2b 71 8b 3d 10 04 b0 3c d0 93 95 3b 37 55 a6 3d
       0.068086945 0.021486312 0.0045647398 0.08121722
0002b0 ab bd 13 3d 26 9f 07 3d e6 ac 8c 3d 7b 26 9f 3b
       0.036069553 0.03311076 0.06868915 0.004856882
0002c0 20 b8 6f 3d 8f 25 ba 3a 59 cd 29 3d 4e 83 a4 3c
       0.058525205 0.0014201867 0.0414556 0.020082142
0002d0 2e 2f 9e 3d 89 66 02 3d 59 d4 88 bd 86 31 5d 3d
       0.077238426 0.031836066 -0.06681127 0.054002307
0002e0 70 b8 c5 3d c9 75 98 3d c5 b3 7a 3d 88 21 f2 3d
       0.09654319 0.07444341 0.061206598 0.11822802
0002f0 fc 12 ac 3d 85 35 91 3d a8 63 20 3c 09 2b f0 3c
       0.084020585 0.07090286 0.009789385 0.029317396
000300 c5 5f 8b 3c 54 d3 b2 3c c9 b8 72 3c f3 e3 3a 3d
       0.01701344 0.021829285 0.014814564 0.045627546
000310 f8 b2 48 3a ba 9c a3 3d 80 a0 56 bc 15 82 f7 3d
       0.0007656063 0.079888776 -0.01309979 0.12085358
000320 33 25 00 3d 45 93 14 3d ca 5f 17 bd 34 67 e7 bb
       0.031285476 0.03627326 -0.036956586 -0.0070618633
000330 6f b1 43 bb 09 50 58 bd 2a f0 8c 3d 9b 4d b0 3c
       -0.0029860397 -0.052810702 0.06881745 0.02152138
000340 40 68 7c 3d 26 ee d6 3d b7 d3 fc 3c 33 77 3f 3d
       0.061622858 0.10494642 0.030862672 0.046744537
000350 d8 e8 ce 3d 29 fc 80 3d 01 7f f1 3d ab 57 02 3d
       0.10103005 0.06298096 0.11791802 0.031821888
000360 df 97 72 bd 3e 0a 93 3c 25 83 65 bd b3 5d 56 3d
       -0.059226867 0.01794922 -0.056033272 0.052335452
000370 ad f6 1e bd cc 49 b2 3d 61 1e c7 3d 8f 93 c3 bb
       -0.038809467 0.08705482 0.09722591 -0.005968518
000380 cf 51 2a bc 28 ff 86 3d 51 ed 09 bb 32 5e 27 bd
       -0.010395481 0.06591636 -0.0021045993 -0.040861316
000390 cb b5 8e bd be 0e 92 bd ce b8 82 bd 27 a5 a9 3c
       -0.06968268 -0.07131718 -0.06382905 0.020708634
0003a0 8a 92 53 bd 3d 73 bf 3d 4e 93 c9 bc d5 0f 50 bd
       -0.051653422 0.09348152 -0.024606373 -0.05079635
0003b0 26 2b 9d bc 38 03 66 bc 91 57 cc 3d 91 09 e6 bb
       -0.019185614 -0.014038853 0.099776395 -0.0070201834
0003c0 4d 13 2c bd af 69 09 bd dd bd ab 3d fd 0c b8 3c
       -0.042010594 -0.033548053 0.08385823 0.02246713
0003d0 62 a8 a6 bc ac 6e 8b 3c df fb 7c bb 3d f9 f9 bc
       -0.020343963 0.017020546 -0.0038602275 -0.030514354
0003e0 f5 9b f6 bc 7d dd 30 3d 41 00 f9 bc 1d be fc 3b
       -0.030103663 0.043179978 -0.030395629 0.007713093
0003f0 8f 78 91 3d 62 27 61 bd 1b bc 5e bd 1a 24 9f bc
       0.07103073 -0.0549692 -0.05437861 -0.019426394

encoder.6.bias f4 [32]
000000 b2 f1 2e 3d 59 d9 bc bd 88 32 d2 3d 56 ac 36 bd
       0.042710967 -0.09221143 0.10263544 -0.044597946
000010 57 eb f5 3d 12 51 be bd 96 c1 d6 bb 24 7f bc 3d
       0.12007778 -0.09292807 -0.006553839 0.09203938
000020 87 13 78 3d 60 d1 e2 bd 18 a0 77 bd a0 b5 90 3d
       0.060565498 -0.11075091 -0.06045541 0.07065892
000030 59 4a e1 3d cd 1a df 3d 84 0b e4 3a 66 0e 0c ba
       0.11000509 0.10893784 0.0017398451 -0.00053427217
000040 ca 22 3b bd 8c 42 2b bd c0 bb e5 3c 52 6b bd 3d
       -0.045687474 -0.04181151 0.028043628 0.09248985
000050 02 49 f1 3d c8 3f 73 bd 34 66 11 3e c6 fe 3a bb
       0.11781503 -0.059387 0.14199144 -0.0028533204
000060 0d e9 93 bd ef 70 a4 bd 4b 09 80 bc fc ae d4 3d
       -0.07222185 -0.08029353 -0.015629431 0.10384938
000070 a2 e9 c4 3d 5b bb 13 bc c1 d6 b2 bd f0 1f c7 bd
       0.096148744 -0.009016837 -0.08732367 -0.097228885

encoder.9.weight f4 [32, 32, 8]
000000 aa 48 25 bc 9e d2 aa 3c 09 51 3e 3c 83 ef 9a bc
       -0.010088125 0.020852383 0.011616 -0.018913036
000010 14 c6 8b 3d 89 f2 0b 3d 7e 42 fb 3c 78 6c 85 3d
       0.0682489 0.034166846 0.030671354 0.065148294
000020 c1 16 11 bd e7 88 73 3c 51 fc 7c 3d 59 18 f5 bc
       -0.03542209 0.014864183 0.061764065 -0.029918836
000030 d1 ee 4b bd 44 ae f2 3b 76 85 45 b9 01 85 6b bd
       -0.0497883 0.007406028 -0.00018837102 -0.05749989
000040 40 8d 6d 3d 53 df 9f 3d 57 07 97 3c 58 20 b5 3d
       0.057996035 0.078062676 0.018436117 0.0884406
000050 0e 28 a0 3d 05 99 2d 3d 66 4e 84 bc 95 45 72 3d
       0.0782014 0.04238226 -0.016150665 0.05914839
000060 69 fa 93 38 78 b7 88 3c d3 31 88 bb fc b1 b4 3c
       7.056149e-05 0.016689047 -0.00415633 0.022057526
000070 b4 e8 e2 b9 50 7c d3 bc d8 cc 5d 3c e0 f5 63 bc
       -0.00043279456 -0.025816113 0.013537608 -0.013913602
000080 15 69 eb 3a 59 30 1a 3d 15 12 8d 3c 28 88 24 3d
       0.0017960394 0.037643764 0.017220536 0.04016891
000090 90 9f d0 3c 20 00 4f 3c 2e 29 2d 3d 70 f5 94 3d
       0.02546671 0.012634307 0.0422756 0.07273376
0000a0 c5 cb 17 bc 9e a1 56 bc e0 9c f8 bc bc 49 9e bb
       -0.009264891 -0.013100056 -0.030348241 -0.004830567
0000b0 b4 16 68 bc 5f bd 52 3d 3b ba 4b bc 47 d9 44 3d
       -0.014165569 0.05145013 -0.0124345375 0.048058774
0000c0 29 57 60 3d 67 b8 25 3d d5 8a 17 bc f4 d2 35 3d
       0.054770622 0.040459063 -0.009249409 0.044390634
0000d0 9f 6a db bc 44 f7 dc 38 3a 2f 42 3c c2 13 65 3d
       -0.02678424 0.00010536474 0.01185208 0.055927046
0000e0 21 e6 9d bc b5 66 b4 3c 04 26 01 bc 64 d0 ca 3d
       -0.019274773 0.02202163 -0.007882599 0.099030286
0000f0 13 66 a5 3d 5e f3 7b 3d 51 99 6c 3d 59 c2 a7 bb
       0.0807611 0.06151139 0.0577634 -0.0051196036
000100 4a 54 92 3d 6c 4b 45 3d 90 7d a0 3c 22 6b 02 3d
       0.07144983 0.04816763 0.019591123 0.03184045
000110 f3 9a a8 bc 1e 61 23 3d ee f3 37 3c 16 c1 85 3c
       -0.020581698 0.03988754 0.011227591 0.016327422
000120 9e 38 3c 3d 40 a5 9a bc 61 5b bd 3c fa 86 5c 3d
       0.04595243 -0.018877625 0.023114862 0.05383966
000130 ab 70 bf bc a1 9d a2 bc e6 29 68 bc 47 86 83 bc
       -0.023369154 -0.019850554 -0.014170146 -0.01605524
000140 b8 e7 89 bd c7 25 3f bd 93 91 5d 3d 53 42 d2 bb
       -0.0673365 -0.046666887 0.05409391 -0.006416598
000150 3d d1 41 bc c6 a2 ae 3c 1b c1 92 bd 93 b7 74 3c
       -0.011829671 0.02131785 -0.07165738 0.014936346
000160 f2 59 6f 3d 3f ea d7 bc 80 08 54 3d 08 5e 30 3d
       0.058435388 -0.026356814 0.05176592 0.043058425
000170 7e 30 c3 3d 6e d0 8f 3d c0 70 93 3d c5 03 7a 3d
       0.095307335 0.07022177 0.0719924 0.06103875
000180 f7 2d 33 3c e8 bc 32 bc 03 c2 e4 3d 4a 08 78 3d
       0.010936252 -0.010909297 0.11169817 0.06055478
000190 cc 8f c9 3d c7 7c 7f 3d 45 b3 92 3d aa 89 dd 3d
       0.0984188 0.062374856 0.07163099 0.10817273
0001a0 78 54 94 3d 89 8d 05 3d 53 3f a0 bc c7 e2 6a 3b
       0.07242674 0.03260568 -0.019561445 0.0035840736
0001b0 df 80 22 bc 4e 0d 7a 3d 65 7d 77 3c ab 03 43 bd
       -0.009918421 0.061047845 0.01510558 -0.04761092
0001c0 73 5b 9b 3d de 1f 9c 3d bf 9f a3 3d 93 ef c0 3d
       0.07585802 0.07623266 0.079894535 0.09420695
0001d0 80 98 a0 3d ce 7c 15 bc ef ac 27 3d c7 ae 7a 3d
       0.07841587 -0.009123994 0.040936407 0.061201837
0001e0 67 f4 e9 bc 97 9f 5f 3d 0c e1 84 bc a7 30 84 3b
       -0.028558923 0.054595556 -0.016220592 0.00403412
0001f0 a5 78 05 bd d7 e9 5d 3d d5 83 34 3d 25 be 70 bd
       -0.03258576 0.054178085 0.044071037 -0.058775086
000200 ab 39 49 3d 40 aa 44 3d 8c 92 38 b8 56 14 b6 3c
       0.049127262 0.048013926 -4.40055e-05 0.022226494
000210 fa bf 12 3d c2 ad 34 3d 8c f9 88 bc 49 64 7a bd
       0.035827614 0.04411102 -0.016720556 -0.061130796
000220 a3 b1 bf 3c a8 15 70 3d a4 17 a2 3c e0 62 66 3d
       0.023400133 0.058614403 0.019786663 0.05624664
000230 71 87 38 3d 2a b5 9d bc 01 df 7a 3d 2f d4 6d bd
       0.045051042 -0.019251425 0.06124783 -0.058063682
000240 a0 1a 5a 3d 94 70 10 3b 2b 49 3e 3d 53 61 d3 bc
       0.053248048 0.0022039758 0.046456497 -0.025803244
000250 4d c8 18 bb 6f 3e 5a 3d 5a a4 05 3b 22 60 20 3d
       -0.0023312748 0.053282198 0.002039215 0.03915418
000260 9d f6 b3 3d 2a 0a b7 3d a1 41 c2 3d cd b4 81 3d
       0.08787272 0.089374855 0.09485174 0.06333313
000270 6c 19 a1 bb cc 32 fd 37 18 16 1f 3d be 1c 89 3d
       -0.0049163606 3.0183604e-05 0.03883943 0.06694935
000280 bd ee a3 3d 89 a8 6e 3d 67 70 ba 3d db 49 e8 3d
       0.0800452 0.058266196 0.0910347 0.11342212
000290 6b da 60 3d 6b e3 9e 3d 5b f9 ad 3c eb 75 91 3c
       0.0548958 0.0775822 0.021237066 0.017756423
0002a0 bc 0b 32 3d db 6d 57 bb e3 30 a3 3c 0b ba c6 3b
       0.043468222 -0.0032871875 0.019920772 0.0060646585
0002b0 54 16 28 bd 48 c6 02 bd 45 d6 71 3d 6e 9d 3c 3c
       -0.04103692 -0.031927377 0.059042234 0.011512144
0002c0 ba bc 90 3d 4d 82 87 3d c5 99 d8 3d b5 f9 11 36
       0.07067247 0.0661665 0.10576204 2.1752032e-06
0002d0 80 a4 35 3d db 82 ac 3d 39 09 aa 3d 76 7e d8 3d
       0.044346333 0.08423396 0.0830254 0.105709955
0002e0 80 41 0f 3d bf 9e dd 3c bf 70 22 bd 48 17 87 3c
       0.034974575 0.027053235 -0.039658304 0.016490594
0002f0 04 8c 83 bc 92 e5 c0 3c a9 79 6f bd 08 cf 56 3d
       -0.016057976 0.023546968 -0.058465634 0.052443534
000300 38 cf f2 3c 0d 35 24 3d db df 28 bd 04 e1 36 bd
       0.029639825 0.040089656 -0.04122911 -0.044648185
000310 d5 e5 ae 3b d8 35 cb bc 1c 5b 06 bd bc cd 4c bc
       0.0053374567 -0.024805948 -0.032801732 -0.012500223
000320 e2 d9 4a 3d b5 d9 87 3d 85 0f da 3c b4 84 15 3c
       0.049524195 0.06633321 0.026618728 0.009125877
000330 00 53 28 3d c8 8e 4e bd 05 ad 1e 3b 28 4e 11 3d
       0.04109478 -0.050429136 0.0024212014 0.035474926
000340 c1 ee 84 bc b2 12 3f bc 55 f7 4b 3d 73 ab bf 3c
       -0.016227128 -0.011662172 0.04979642 0.023397183
000350 9a 59 a7 3d ca 29 3d 3d 27 c4 90 3d 74 e5 a2 bc
       0.08171387 0.04618243 0.07068663 -0.019884802
000360 e2 70 96 bb cd 95 44 3d 93 57 56 bb b2 63 a5 3d
       -0.0045910934 0.047994424 -0.0032706007 0.08075656
000370 12 95 20 3d 65 a2 7d 3d ef 04 b8 3c 3f 93 ab 3b
       0.039204665 0.06192245 0.02246329 0.005236059
000380 36 d6 c5 3c 8a 6e 90 3c d2 67 b1 3c ad 7d ca 3c
       0.024149995 0.017630834 0.02165595 0.02471813
000390 57 9d fa 3c 7f 11 4c 3d fd 76 3a bc 38 71 d1 3c
       0.030592604 0.049821373 -0.011380908 0.025566682
0003a0 7b ad a7 3d e5 58 03 bd 1c 87 79 3d fa db 1a bc
       0.08187386 -0.0320672 0.060919866 -0.009451861
0003b0 1d 63 6a 3c cf 40 30 bb f3 c4 44 3d 65 1e 8b 3c
       0.014305857 -0.0026894098 0.048039388 0.016982267
0003c0 27 ce 02 bd b7 d5 89 3d 92 d1 59 3a d7 53 6c 3d
       -0.031934883 0.06730216 0.00083091215 0.057697143
0003d0 21 a7 3c 3c b1 b2 9d 3c 04 ad 1e 3d 5f d9 30 3d
       0.011514456 0.019250246 0.03873922 0.04317605
0003e0 b2 b1 97 b9 cb 24 99 3d 43 e2 62 3a 97 7f f8 3c
       -0.00028933358 0.07477721 0.00086549314 0.030334277
0003f0 d2 65 08 3d 24 a7 2e bd 6e ba 1e bc ea 7e d0 bc
       0.03330023 -0.042639866 -0.009688003 -0.025451142

encoder.9.bias f4 [32]
000000 9c ce cc 3d 49 e2 53 bd 63 8c 8c bd bd 1a bd 3d
       0.10000345 -0.051729474 -0.06862714 0.092336155
000010 20 10 35 bc f9 c3 31 3c 14 6a 81 bd 29 6e a3 bd
       -0.011051208 0.010849946 -0.06319061 -0.07979996
000020 11 90 90 bd 5d 7c bc 39 38 89 48 bd 54 c2 a2 bd
       -0.070587285 0.00035950812 -0.048958987 -0.079472214
000030 0d 9a 8b bd bc 66 d8 3d 0a c3 52 bd 2e 52 28 bd
       -0.06816492 0.1056647 -0.051455535 -0.041093998
000040 60 61 58 bd b5 04 71 bc cc f9 1b bc 91 dc c8 bd
       -0.05282724 -0.014710595 -0.009520005 -0.09807695
000050 25 5a 1f 3d 79 95 80 bd 61 d1 7a bd 51 3a 37 bc
       0.038904328 -0.0627851 -0.061234836 -0.011183337
000060 d1 30 a0 bc 40 9e 02 bc 68 6f 13 bc ed 87 98 bd
       -0.019554527 -0.0079723 -0.008998729 -0.07447801
000070 7c d7 b6 bd 05 cb a6 bd 0b 51 47 bd 64 13 df 3c
       -0.08927819 -0.08144192 -0.048661273 0.027230926

encoder.12.weight f4 [64, 32, 3]
000000 22 93 e5 3c 10 e5 99 bd 13 27 c8 bd 02 10 b0 3d
       0.02802426 -0.07514393 -0.09773078 0.08596803
000010 66 1b 34 bc 02 79 af 3d 68 bf 4c bd fc 44 f2 bb
       -0.01099286 0.08568002 -0.049987227 -0.0073934775
000020 1d 17 a4 3c 2f a1 94 3d 54 0b ba 3b d4 cb 1d bd
       0.020030553 0.07257306 0.00567762 -0.038524464
000030 ca 17 8e bc 98 3c 80 bd 11 6f 81 3d 48 58 84 bd
       -0.017345328 -0.06261557 0.06320012 -0.06462151
000040 2e f3 b1 3d c8 ab ab 3c 71 c6 91 3d 78 5c 8f bd
       0.08688961 0.020955935 0.07117928 -0.07000059
000050 24 41 b2 3d a5 f8 61 3d d1 1d 66 bd 40 40 c5 bd
       0.08703831 0.055168767 -0.05618078 -0.09631395
000060 86 b2 d7 39 4a 2b 51 3d 4e af f5 3c c1 7b cb 3c
       0.00041141006 0.051066674 0.029990818 0.024839284
000070 00 25 30 3d 5a 4d eb bd 44 08 c4 3c be 36 f2 3d
       0.043004036 -0.11489363 0.023929723 0.118268475
000080 df 30 a9 bd 85 48 b3 bd a5 03 97 bd 39 f0 86 3c
       -0.082612745 -0.087540664 -0.07373742 0.016471969
000090 6f 01 c2 3d ab f2 7c 3d b4 bc 00 3e ff 9f c6 bd
       0.0947293 0.061754864 0.12571985 -0.096984856
0000a0 a7 94 c2 bd 39 51 59 bd ef b9 ca bd d7 9e f8 3c
       -0.095010094 -0.053055976 -0.09898745 0.030349178
0000b0 d8 5e 9b bd 9a e0 84 bb 36 67 0f bd ad 7a 35 bc
       -0.075864494 -0.004055095 -0.03501054 -0.0110766115
0000c0 74 49 15 bd c1 49 7a bd 94 05 ab bd 34 2f bd 3c
       -0.036447003 -0.061105493 -0.08350673 0.023093797
0000d0 2b 6d 81 3d 55 82 a4 bd 98 5e 22 bd 6e 84 16 bd
       0.0631965 -0.08032671 -0.039640993 -0.03674739
0000e0 92 6d e9 ba a4 a8 c1 bd 74 9a 40 bd 27 c5 0a bd
       -0.0017809144 -0.09455994 -0.047022298 -0.033879425
0000f0 d9 3e 98 bd 09 d0 c2 bd 60 2b 19 3d f9 b7 b8 bd
       -0.07433862 -0.09512336 0.03739488 -0.09019465
000100 cc 34 88 bd 22 d0 b7 3c c6 d3 e9 3c 03 d8 9a 3d
       -0.06650695 0.022438113 0.028543364 0.07560732
000110 1a 34 f7 bc c1 7f a5 bd 78 50 9a bd 49 2d c0 3d
       -0.030176211 -0.08081008 -0.075348794 0.093836375
000120 6c 19 40 bd af 95 95 3d c1 7c d0 bc 5b 8e 97 bd
       -0.046899244 0.073039405 -0.025450112 -0.07400199
000130 13 d1 82 3c 9a fe 6b bc 91 ba 53 bd ed af 24 3d
       0.015968835 -0.014403963 -0.051691595 0.04020684
000140 0d fc 84 3d 4c c2 c3 bd 23 09 e7 bd fc 74 7c bd
       0.06493387 -0.095585436 -0.112810396 -0.061635002
000150 fd 5d 1d bd e7 88 1d bd 39 59 44 3d 09 b4 c3 3d
       -0.038419712 -0.03846064 0.04793665 0.09555823
000160 7a 59 d5 3d 21 e9 97 bc b5 e4 97 3d fd 81 bc 3d
       0.10417457 -0.018543782 0.07416669 0.09204481
000170 93 29 03 bd 8f 57 6e bc c6 e8 96 bd 0d 16 00 bc
       -0.03202207 -0.014547243 -0.07368617 -0.007817757
000180 81 4b e6 3d 01 15 3e bd d2 08 f5 bc db ad b5 bd
       0.1124487 -0.04640675 -0.029911432 -0.08871051
000190 a6 e2 58 3d 67 5f 10 be 16 71 bb bd 5b 52 b0 bc
       0.052950524 -0.14098893 -0.09152429 -0.021523645
0001a0 85 27 57 bd 3c d2 ff bc 38 89 8b 3d 8f 2e 96 3d
       -0.052527923 -0.031228177 0.06813282 0.07333099
0001b0 e5 e3 b2 3d d6 3b 46 bd c4 e0 e7 3d 01 4f 81 3c
       0.08734874 -0.048396908 0.113221675 0.015784742
0001c0 5f 40 8b bd 76 21 c7 bd 7c ef 90 3c a0 69 13 3d
       -0.06799387 -0.09723179 0.01769232 0.035989404
0001d0 c3 19 38 3d 84 66 ac bd da ea 67 3c e4 40 b4 bd
       0.044946443 -0.08417991 0.014155114 -0.088014394
0001e0 23 02 bd bd 24 1f b2 bd eb fe d6 bd 2c 11 23 3b
       -0.09228923 -0.08697346 -0.104978405 0.0024882061
0001f0 50 3e 0d 3d e8 73 1a bb f3 4e 90 bd 44 eb 03 be
       0.034483254 -0.002356762 -0.07046308 -0.12882715
000200 53 39 aa 3b ef 85 a9 3d 1d b5 1f 3d b1 de eb bd
       0.005194822 0.08277499 0.038991082 -0.115170844
000210 b6 0c 8e bd 2c fe 24 bd ce 95 cc bd cf a6 4f 3d
       -0.06936018 -0.04028146 -0.099895105 0.05069619
000220 15 33 71 3d d2 dd ac bd 7d 9f a5 bd e5 00 a7 bd
       0.058886606 -0.08440746 -0.080870606 -0.081544675
000230 dd d1 88 bd c8 1f be 3a 5e 90 d0 bd f6 1d ef bd
       -0.06680653 0.0014505321 -0.10183786 -0.116756365
000240 4c d6 8a 3d 2b da 14 bc b4 2f 74 bd a7 d1 af 3c
       0.06779155 -0.009085218 -0.059615806 0.021462275
000250 72 dc 07 be a7 fb 06 bd 94 79 aa 3c cc 2c 5f 3d
       -0.13267687 -0.032954838 0.020809926 0.05448608
000260 9b 8f 8c bd b6 de 03 bd 25 ab e4 bd ca e6 af bd
       -0.06863328 -0.032194816 -0.11165456 -0.085889414
000270 99 10 81 3c d1 48 94 bd 4a 05 26 bd 28 0d 61 3d
       0.015754985 -0.07240451 -0.040532388 0.054944187
000280 bd 1b 22 3d bc 62 eb bd 17 d1 e4 bc 8d 81 cd 3c
       0.039577235 -0.114934415 -0.027931733 0.025086189
000290 72 24 a9 bc 94 a7 30 3d ce 5c 5f bd b3 a0 9b bd
       -0.020647261 0.043128565 -0.054531865 -0.0759901
0002a0 a3 a6 85 bd 42 e4 82 3d fd 10 e9 b9 74 8e 8c bd
       -0.06525924 0.06391193 -0.0004445388 -0.06863108
0002b0 e1 ae e9 3c fb f4 e4 3d ed 8d d2 3b b7 37 9f bd
       0.028525772 0.11179539 0.0064256103 -0.07774299
0002c0 c4 2f a4 3d 3f cc 74 3d 73 13 20 3d 5a ab a3 3c
       0.08016923 0.059765097 0.03908105 0.019979168
0002d0 13 e4 af 3d bd 41 f0 ba 97 65 a7 bd 56 af 78 bd
       0.085884236 -0.0018330138 -0.081736736 -0.06071409
0002e0 77 da 93 3a 73 ab fc bd 42 39 cd 3d 3d 88 1a bd
       0.0011280318 -0.12337389 0.10020687 -0.037727583
0002f0 e0 60 15 bd 17 a9 a3 bd 43 aa a5 bc f8 31 1f bd
       -0.03646934 -0.07991236 -0.020222789 -0.038866013
000300 6b 74 c9 bd 58 2c 0d 3b a2 44 c6 bc e0 09 89 bd
       -0.09836658 0.0021541324 -0.024202649 -0.06691337
000310 c3 2d 97 bd 38 b8 3f 3d 26 7d ad 3d ab b9 a3 bd
       -0.07381775 0.046806544 0.08471136 -0.07994398
000320 f4 47 28 3d d1 90 df bb be 66 0e 3d 6b b4 e1 bb
       0.041084245 -0.0068226834 0.03476595 -0.0068879626
000330 8a 7b 11 3d d9 cb ba bd 24 ba 8d bc 14 f3 63 3d
       0.035518207 -0.09120912 -0.017300673 0.05565174
000340 a2 9e a8 3d 15 91 3b bd 5c 8a d8 3d ec aa b0 3d
       0.08233382 -0.045792658 0.10573265 0.08626351
000350 0a 7d a5 ba a3 8f 77 bd a1 e3 bb ba 04 19 ce 3d
       -0.0012625766 -0.060439717 -0.0014334806 0.10063365
000360 27 12 91 bd d6 7b 7a 3c 42 36 c6 3c 4a e3 dc 3d
       -0.070835404 0.015288314 0.024195794 0.107855394
000370 a8 4f df 3d 48 56 e8 3d 9c ab f0 bc 9b df 0e bd
       0.10903865 0.11344582 -0.029378705 -0.034881216
000380 ba 90 67 bc 7d f0 7d 3d 6d 71 88 bd 76 fe b2 3d
       -0.014133627 0.061996926 -0.06662259 0.08739941
000390 7d 14 be 3c fd 12 a5 3d 97 a6 9d 3d 99 ab 83 bd
       0.023203129 0.08060262 0.0769779 -0.06429214
0003a0 1f 28 86 3d 08 21 10 3c 0c 87 86 3c 89 bc 28 3d
       0.06550621 0.008796938 0.016421817 0.041195426
0003b0 9f 29 7b 3d 14 2f cd 3d d6 2d b8 3d ac f6 0a 3d
       0.06131899 0.10018745 0.089931175 0.03392665
0003c0 39 a6 c8 3d f4 64 a0 bd 14 e4 c6 3c 53 34 b9 3c
       0.097973295 -0.07831755 0.024278678 0.022607958
0003d0 21 45 5b bd 67 12 e9 3d 3c 50 70 3d 18 da 91 bc
       -0.053532723 0.11380463 0.058670267 -0.01780419
0003e0 d0 1e 2c 3d 79 77 29 3d 88 0a 63 3c 99 ab 7f 3d
       0.042021573 0.041373704 0.013857491 0.062419508
0003f0 8f 73 b8 bd 5a 87 cd 3d bd b9 8f 3d 10 15 a4 bc
       -0.09006416 0.10035582 0.07017849 -0.020029575

encoder.12.bias f4 [64]
000000 1c 8a ec bd 74 3c b2 3d 7f 81 e9 bd 3a 3f 06 be
       -0.1154978 0.08702937 -0.114016525 -0.13110057
000010 6b c1 64 bd ea e1 6f bd fe b1 16 be a8 47 f3 3c
       -0.05584852 -0.058565058 -0.14716336 0.029697254
000020 0c f3 93 bd cb f7 1f bd 67 eb 2b 3d 02 9e 12 3e
       -0.07224092 -0.039054673 0.041972544 0.14318088
000030 48 90 16 bd e5 76 a8 bd b4 7d 14 3e 97 d1 d0 3c
       -0.03675869 -0.08225802 0.14501077 0.025490565
000040 49 d2 4b bd 38 26 33 bc 2c 70 ca bd 05 80 12 be
       -0.04976109 -0.010934405 -0.09884676 -0.14306648
000050 2a d3 d3 bd d4 69 9b 3d e5 90 a9 bd 6c d4 c2 3d
       -0.10343011 0.075885445 -0.082795896 0.095131725
000060 45 b1 d0 bd 4d 67 0a 3e 56 87 c1 bd 2a fe cb bd
       -0.101900615 0.13515969 -0.094496414 -0.09960587
000070 e7 06 83 3d 98 f8 da 3d b0 de ec 3d 6e a8 9a bd
       0.06397801 0.10691947 0.11565912 -0.07551657
000080 6b 9b 8e 3d e0 a7 87 3d 49 5a a8 3d 49 bd 12 be
       0.069632374 0.066238165 0.082203455 -0.14330019
000090 f4 2e 3d bd f9 09 a7 3c 67 50 67 3d c4 2f 91 bd
       -0.046187356 0.020390498 0.056473162 -0.07089189
0000a0 ae 3d 26 be 0f b8 a0 3d 62 fd f3 bd b5 5c 36 bd
       -0.16234466 0.078476064 -0.11913563 -0.044522006
0000b0 79 78 c4 bd f4 d2 2b bc cd 37 c8 3d 5c 0b e2 3c
       -0.09593291 -0.010487307 0.09776268 0.027593307
0000c0 f4 7f a1 bd 38 57 ec 3d fd 8b 99 bd 1e bb 9b bd
       -0.07885733 0.11540073 -0.07497404 -0.07604049
0000d0 29 4f 0d be 3b 1b 12 be 47 f5 63 3d e3 2c 9e 3d
       -0.13799728 -0.142682 0.055653837 0.07723405
0000e0 ea e7 9c 3c 38 6a 21 be c4 e8 1d be dd d7 26 be
       0.019153554 -0.15763175 -0.15420824 -0.16293283
0000f0 0c 5e ce 3d 8d a6 13 3d 3f de a8 3d b3 45 16 3e
       0.10076532 0.036047507 0.08245515 0.14675026

encoder.15.weight f4 [256, 192]
000000 c3 38 02 3c a4 09 b2 3c 28 79 89 bd 2b ba a5 3c
       0.007948103 0.021733113 -0.06712562 0.020230373
000010 52 50 6d bd 5b 51 b5 3d 2d c9 75 bd 0b 78 10 bd
       -0.057937928 0.08853408 -0.06000631 -0.035270732
000020 8e 96 3a 3d d6 b6 5d bc c1 34 66 bc f1 0f 8b bd
       0.045553736 -0.013532361 -0.014050663 -0.0679015
000030 58 86 30 bd 2b b3 1d bc 43 a0 98 3d 0b 6a 50 bd
       -0.04309687 -0.0096252365 0.074524425 -0.05088238
000040 3e 75 2b 3d 3a 69 72 bd 2c c2 fd bc 8d 5a ca bd
       0.041859858 -0.059182383 -0.030976377 -0.098805524
000050 45 9c 42 bc 6b 57 7d 3d af 01 2c 3d 96 ef c2 bc
       -0.011878078 0.061850946 0.041993793 -0.023795884
000060 d4 27 f2 bc da 53 66 bd 0c 24 7d bd 3b 41 7d 3d
       -0.029560007 -0.05623231 -0.061801955 0.061829787
000070 51 79 46 3c 0f cd c7 bd ad 62 ea bb 36 05 0a 3d
       0.012113885 -0.09755909 -0.0071528764 0.033696376
000080 64 4c 07 bd 30 45 35 bc 4b 13 13 bd 09 52 b6 3d
       -0.033031836 -0.011063859 -0.03590707 0.08902366
000090 8d be 9f bc ad 6c 98 bd f1 18 5f 3d bc 9f 0a bd
       -0.019500041 -0.07442603 0.054467145 -0.03384374
0000a0 ce 28 b1 bc aa 21 19 bc e5 a9 5a 3d b8 ce a1 3d
       -0.021625903 -0.009346405 0.05338468 0.079007566
0000b0 0c 1d 61 3d d4 88 f4 bc b8 99 df 3c 9e 04 8f 3c
       0.054959342 -0.029850401 0.027294978 0.017458256
0000c0 65 b3 43 bd 3e 67 93 bd 09 f2 0e bc 28 ad 58 bd
       -0.047778506 -0.07197426 -0.008724698 -0.05289951
0000d0 cf 63 d1 3c 0a 4e eb bc 10 ac fa 3c ff 53 59 bd
       0.025560288 -0.028723735 0.030599624 -0.05305862
0000e0 4c f8 a1 bd d5 9a 86 3c 42 c8 84 bd e4 78 b3 bd
       -0.07908687 0.016431252 -0.06483509 -0.087632924
0000f0 13 fd 02 3d d2 47 7d bd 62 f7 39 bd 77 72 22 3d
       0.03197963 -0.06183607 -0.04540194 0.039659943
000100 3a 8c 32 3c df ea 4f 3d db 84 70 ba 52 f9 8e bd
       0.01089769 0.0507611 -0.00091750704 -0.06981148
000110 78 1a 56 3d 24 48 a6 3c 0a 0e af 3c 43 12 93 bc
       0.052271336 0.020298071 0.021368999 -0.017953044
000120 ad 20 08 bd 93 e4 62 bc fd 16 7c bd d8 d3 5c bd
       -0.033234287 -0.013848442 -0.06154536 -0.053912967
000130 b5 4f 52 3d 1d 52 79 3d ac 1c c9 bc d3 86 af bd
       0.051345546 0.060869325 -0.024549805 -0.085706376
000140 32 3e 1e 3d aa 8f f8 bc 62 0e c6 3b 2d 02 c7 bc
       0.038633533 -0.030341942 0.006044195 -0.02429303
000150 55 f2 0d bd f2 fa 49 3d b7 97 d8 3a a3 37 63 3c
       -0.034654934 0.049311586 0.0016524707 0.013868245
000160 ec 01 27 bd c8 16 55 3d aa 71 1d 3d 16 1c 05 3c
       -0.040773317 0.05202368 0.038438477 0.008124372
000170 27 1e 4e bc 6c 7e 72 3c 85 c2 ca bd 5b c7 f6 3b
       -0.012580431 0.014800649 -0.09900383 0.0075310892
000180 03 0a d2 bb e2 a0 7b bd a9 7a da 3c e0 5f 15 bd
       -0.006409885 -0.061432727 0.026669817 -0.036468387
000190 c3 c3 7e 3d 93 53 fa 3b 9f 7d 9e bb ab c0 1a 3c
       0.06219841 0.0076393574 -0.0048367525 0.00944535
0001a0 4b 8a 88 bd cb cc 4e bc 5f 95 e8 bd 51 28 dd bd
       -0.06667002 -0.012622069 -0.11356615 -0.10798705
0001b0 58 44 d7 3b 29 79 7f bd 6a 40 35 bc 27 63 00 b9
       0.0065694265 -0.062371407 -0.011062721 -0.00012243968
0001c0 28 38 94 bc f2 17 29 bd d3 6f 27 3d ac 3e 2c bd
       -0.018093184 -0.0412826 0.04087813 -0.042051956
0001d0 c7 e8 20 3d 53 e2 2e 3d a9 3e 92 bc 31 66 6b 3b
       0.039284494 0.04269631 -0.017852144 0.0035919065
0001e0 45 e7 42 bd 32 b3 3e 3c 8e b7 cc bc 58 f6 03 3d
       -0.047583837 0.011639403 -0.02498987 0.032217354
0001f0 25 56 e5 3c 61 ad 00 bd f9 5c ad 3b 90 cd 2a 3c
       0.027995178 -0.031415347 0.005290624 0.0104249865
000200 0d b2 aa 3b f1 c8 8f 3d 1e 1b 81 3d e7 97 26 3c
       0.0052092136 0.070207484 0.06304 0.010168052
000210 e2 18 da bd bf bf 6c bd fe bb 71 bd 59 42 3a 3d
       -0.10649277 -0.05780005 -0.059017174 0.04547343
000220 94 7c 55 bd e0 dc 07 3c fc 8b 8d 3d 15 5a 0f bd
       -0.05212076 0.008292407 0.069114655 -0.03499802
000230 1e d2 d3 3c 05 ff 90 3c 9c 03 a7 3d ea 85 ff bc
       0.025857028 0.017699728 0.08154985 -0.031191785
000240 3d 09 13 3d 07 81 6d 3a ba cb 64 bd ff 5a 30 3d
       0.035897482 0.0009060059 -0.05585835 0.04305553
000250 a8 f0 19 bd a5 18 8c 3d 3a 79 a8 bd b6 ec ed bc
       -0.037583023 0.06840638 -0.08226247 -0.029043537
000260 3a 2a 08 bc 90 08 24 bd 59 01 19 bd b1 e2 1f 3a
       -0.008310849 -0.04004723 -0.0373548 0.00060991483
000270 68 b7 5b bb 8a 6b ec 3c 09 2b 69 bd b2 2d bf bc
       -0.0033526067 0.028859872 -0.056925807 -0.023337219
000280 36 25 49 bc f1 35 5b 3d 51 eb 9c 3c 86 77 2b 3d
       -0.012276938 0.05351824 0.019155176 0.041862033
000290 0d c6 c7 bb d2 5a b0 3c 87 61 33 3d e8 39 d9 bc
       -0.0060966075 0.021527681 0.04379418 -0.02651687
0002a0 30 b3 20 3d 78 92 94 3c bb 05 b9 3d f4 c4 8d bd
       0.039233387 0.018136248 0.09034296 -0.069223315
0002b0 71 6d d6 3c 87 25 86 bd bf 4f 29 bd 1b ff b3 bd
       0.026175233 -0.065501265 -0.041335817 -0.08788892
0002c0 4a c5 d1 bd b1 e1 bf bd 8e 80 75 bc 82 3c c0 bc
       -0.10242708 -0.09369219 -0.014984263 -0.023466352
0002d0 6b 3b 72 3d 9a d9 a9 3d 1c 10 ad 3d 9c b0 d7 3b
       0.059138697 0.08293457 0.08450338 0.006582333
0002e0 08 48 8a bb 06 8e 49 bd 52 03 89 3d db 21 4d 3d
       -0.0042200126 -0.04920771 0.066900864 0.050081115
0002f0 45 00 76 bb af d8 07 3c 50 77 b3 3c 9d fe 0e bd
       -0.0037536782 0.0082914075 0.021907479 -0.034910787
000300 e5 07 c0 3c be 68 86 bb 3c 6d 7b 3d dc 99 08 bd
       0.023441264 -0.0041018417 0.06138347 -0.033349857
000310 5c 4a 30 bc 33 19 25 3d 0e 40 f9 3c 2a a9 57 bc
       -0.010759916 0.040307235 0.030426051 -0.01316289
000320 81 69 c9 bc 79 67 0b 3d eb e7 1f 3d ff d9 35 bd
       -0.024586441 0.034034226 0.039039534 -0.04439735
000330 89 07 66 3b 56 b2 3c 3c 25 8a 72 3c c6 98 b1 bb
       0.0035099706 0.011517128 0.014803444 -0.0054198233
000340 04 39 1c 3d 3a 84 82 3d f9 c0 63 3c d0 34 d9 3c
       0.03814031 0.063728765 0.013900989 0.02651444
000350 e1 40 d4 bc 6a 48 49 3d 94 a1 e2 3c 01 74 df 3d
       -0.025909843 0.049141325 0.027664937 0.10910798
000360 a6 6f a0 3d cb 3e a1 3d fc b3 77 3c 52 a2 04 bd
       0.07833795 0.07873305 0.015118595 -0.032381363
000370 9b 95 df 3d 80 a1 28 3c e6 87 1e bd 62 a7 11 3d
       0.10917207 0.010292411 -0.03870382 0.03556002
000380 fa 33 c7 bb 6a 0e 34 3d 7d fd 73 3d 9e 95 93 3d
       -0.006079194 0.04395906 0.059567917 0.072062716
000390 8c f8 35 3d 96 f6 3f bc c2 ac 50 3d 15 26 0a 3d
       0.044426486 -0.0117165055 0.050946005 0.033727724
0003a0 5c 86 73 3d 1e b6 a7 bc 83 39 fd 3c fd d4 23 3d
       0.059454307 -0.020472582 0.030911213 0.039998043
0003b0 50 80 d0 3d 3f 18 d2 3c 85 0a 89 bc fe 62 a3 bc
       0.10180724 0.025646327 -0.016728649 -0.019944664
0003c0 e2 0d a9 bc 04 2c 93 3d f8 c1 57 3c 08 70 fe ba
       -0.020636503 0.0718613 0.013168804 -0.001941205
0003d0 c3 17 92 bc 80 81 3f 3d 81 60 11 bd b5 ba 8b 3c
       -0.017833596 0.04675436 -0.035492424 0.017056802
0003e0 3e 08 55 3c cd 16 a7 3c 08 0e 23 bd c5 a0 84 3b
       0.013002453 0.020396614 -0.039808303 0.0040474855
0003f0 41 ea f7 3c dc 07 8c 3d 65 7e c4 3c 00 84 81 3d
       0.030263068 0.068374366 0.02398605 0.06324005
