dump/source_encoder_cwru_cua_so5.pt (torch, 284865 bytes, 12 tensors)

encoder.0.weight f4 [8, 1, 32]
0	0xbdc8f137	-0.09811633
1	0x3dc77d0f	0.0974065
2	0x3e2d7a36	0.16941151
3	0x3b5651c8	0.0032702554
4	0x3e2b2347	0.16712676
5	0xbd295304	-0.041338935
6	0x3de97f3a	0.1140122
7	0xbe256a20	-0.16153765
8	0xbdc9e92d	-0.09858928
9	0xbdedc5f9	-0.11610026
10	0xbd0884df	-0.03332984
11	0xbe2821a0	-0.16419077
12	0xbc800e94	-0.015631951
13	0x3e119e01	0.1422043
14	0xbe562ed1	-0.20916297
15	0x3c98f0ba	0.018669475
16	0xbde6eb2b	-0.112753235
17	0xbe48d7a0	-0.19613504
18	0x3c65a8c5	0.014017289
19	0x3e1468f8	0.14493167
20	0xbe4e55e8	-0.20149958
21	0xbdff0bfa	-0.12453456
22	0x3e60bebd	0.21947761
23	0xbe27663a	-0.1634759
24	0x3ca7e343	0.020494109
25	0x3d18c690	0.03729874
26	0x3e2533dc	0.16133064
27	0xbd989a38	-0.0745129
28	0xbcbaf2e3	-0.022820896
29	0x3e34beed	0.17650957
30	0xbdda549a	-0.10660668
31	0xbdb00837	-0.08595317
32	0x3e490451	0.19630553
33	0x3b5f4832	0.0034070131
34	0x3e1aaaf2	0.15104273
35	0x3de8e690	0.11372101
36	0x3c5cda7a	0.013479823
37	0xbe3ce0ee	-0.18445179
38	0x3dfc94be	0.12333058
39	0xbb956f07	-0.0045603546
40	0xbe3559b4	-0.1771
41	0xbe315952	-0.17319229
42	0x3e2e6827	0.17031918
43	0x3e0fcb0a	0.14042297
44	0xbd232b16	-0.03983601
45	0x3e679fd8	0.2261957
46	0x3e1ae050	0.15124631
47	0xbdf69ccb	-0.12041625
48	0xbd70cc51	-0.0587886
49	0xbdaed7f1	-0.08537281
50	0x3d81fb50	0.06346762
51	0xbe4a49ae	-0.19754669
52	0x3db4b166	0.088228986
53	0x3d15aa3e	0.03653931
54	0x397d7939	0.00024173119
55	0xbca675c1	-0.020319821
56	0xb91519f9	-0.00014219423
57	0x3e4839e1	0.19553329
58	0x3cab4f88	0.020911947
59	0x3d9ffdfe	0.07812117
60	0x3e643749	0.22286715
61	0xbe1cdb14	-0.15317947
62	0xbe2e8de5	-0.17046316
63	0xbde02d82	-0.1094618
64	0xbd7601ff	-0.060060497
65	0x3d70c7ba	0.058784224
66	0xbb1a58b0	-0.0023551397
67	0x3d012c36	0.031536303
68	0x3dcc2ddb	0.09969684
69	0xbdc53ef2	-0.096311465
70	0xbe23972c	-0.15975636
71	0x3d9abea1	0.07555891
72	0xbc8e3d34	-0.017363168
73	0x3bb8c278	0.005638417
74	0x3d853541	0.06504298
75	0x3e21820e	0.15772268
76	0x3ce3ff42	0.027831677
77	0xbe53fa8c	-0.20701045
78	0x3cd21bc8	0.025648013
79	0xbd5b5cd2	-0.053555317
80	0x3c84c929	0.016209202
81	0x3e3212b5	0.17389949
82	0xbdf9bd28	-0.12194282
83	0xbd80753d	-0.062723614
84	0x3e42da47	0.19028579
85	0x3e018278	0.12647426
86	0xbe4c752e	-0.19966576
87	0x3e13544e	0.14387628
88	0x3ce14785	0.027499923
89	0x3c8c491e	0.017124709
90	0x3d93fe7d	0.07226274
91	0xbd84c41c	-0.064827174
92	0x3deb6a44	0.11494878
93	0x3c34daa9	0.011038461
94	0x3e3ae53d	0.1825151
95	0x3d2912b4	0.041277602
96	0xbd005d8d	-0.031339217
97	0x3bcf9e5c	0.0063360166
98	0xbe0538f2	-0.13010004
99	0xbe357461	-0.17720176
100	0x3dc3df4f	0.09564077
101	0xbde512c9	-0.111852236
102	0x3c69a2ac	0.014259975
103	0xbdcbb556	-0.099466965
104	0x3e34e86c	0.17666787
105	0xbe6ec7c6	-0.23318395
106	0xbd5b7fbc	-0.053588614
107	0x3e5bc250	0.21460843
108	0xbd8a1347	-0.06741958
109	0xbdb055ce	-0.08610116
110	0x39201258	0.00015265623
111	0xbd019058	-0.031631798
112	0x3db3d84a	0.08781488
113	0x3d5f4762	0.054511435
114	0x3df42853	0.11921754
115	0xbd86446f	-0.065560214
116	0x3db221aa	0.08697827
117	0xbddb154d	-0.10697422
118	0x3d528f66	0.051406287
119	0xbc1b22bc	-0.009468731
120	0x3e2180a8	0.15771735
121	0xbe2ec938	-0.17068946
122	0xbc3e2d2f	-0.011607452
123	0x3e44660d	0.19179554
124	0xbd620556	-0.05518087
125	0xbe32de29	-0.1746756
126	0x3d7ecd63	0.06220759
127	0x3e0240fe	0.12720105
128	0xbcd4f9c5	-0.025998006
129	0x3cfa0c3f	0.030523418
130	0xbe45a503	-0.19301228
131	0x3e5b41f3	0.21411876
132	0xbccf25c0	-0.025286555
133	0xbbec30ff	-0.007207989
134	0x3db866d3	0.09003987
135	0x3debd7ee	0.11515795
136	0xbe23fddb	-0.16014807
137	0x3e175a50	0.14780545
138	0xbd1f6474	-0.03891416
139	0xbc35859f	-0.011079221
140	0x3c9fff0f	0.019530801
141	0x3dc5798d	0.096423246
142	0x3d9d4814	0.076797634
143	0xbe0f97b6	-0.14022717
144	0x3e37ff93	0.17968588
145	0xbdd46ee2	-0.10372712
146	0xbd4ba199	-0.04971466
147	0x3e440165	0.19141157
148	0xbe65753a	-0.22408
149	0x3c855985	0.016278038
150	0xbd8dc43f	-0.069221966
151	0x3d1b760b	0.03795437
152	0xbe01b9a1	-0.12668468
153	0x3de4781f	0.11155724
154	0x3e3fb865	0.18722685
155	0xbe7400d2	-0.23828438
156	0x3d4c2017	0.04983529
157	0xbd3c028b	-0.045900863
158	0xbc174a22	-0.009233983
159	0x3db7d06f	0.089753024
160	0xbd0bb55a	-0.034108497
161	0xbe521ee0	-0.2051959
162	0x3e1bfa88	0.15232289
163	0x3e302305	0.17200859
164	0x3e20dba5	0.15708788
165	0x3d9ef1e2	0.07760979
166	0xbd997bdc	-0.074943274
167	0xbce255cd	-0.027628804
168	0x3d6e3c50	0.058162987
169	0x3af7145a	0.001885067
170	0xbe351278	-0.17682827
171	0x3e1b389b	0.15158312
172	0x3bef324f	0.0072996984
173	0xbc02fe2e	-0.0079951715
174	0x3e334079	0.17505063
175	0x3ddf9da1	0.10918737
176	0xbdda8bda	-0.10671206
177	0xbda55e93	-0.08074679
178	0x3ce8a6b6	0.028399806
179	0x3d6b5a98	0.057459444
180	0xbe224aab	-0.15848796
181	0x3e0d6c29	0.13810791
182	0xbd459312	-0.04823596
183	0x3b1d7248	0.0024024416
184	0x3e1daa34	0.15396959
185	0xbe018c2f	-0.12651132
186	0xbd454dfc	-0.048170075
187	0xbdba1fa6	-0.09088068
188	0xbe5476ff	-0.20748518
189	0xbb971f20	-0.0046118647
190	0x3e2baa77	0.16764246
191	0x3deb5871	0.11491478
192	0xbddb1cc4	-0.10698846
193	0xbe439fb0	-0.19103885
194	0xbcd68cee	-0.026190247
195	0x3dae344b	0.08506068
196	0x3c330081	0.010925413
197	0x3dc26980	0.09492779
198	0xbd96fa32	-0.0737194
199	0x3db9cbd4	0.0907208
200	0x3d208bcb	0.039195817
201	0x3cd7d9b2	0.026348922
202	0x3d678b10	0.056529105
203	0xbdcabbb3	-0.09899082
204	0x3de1abf9	0.11019129
205	0x3c55dfbd	0.013053832
206	0x3e35db56	0.17759451
207	0xbd4812e5	-0.048846144
208	0xbdb67e4d	-0.08910809
209	0xbd556181	-0.05209494
210	0x3a696b15	0.0008904201
211	0xbe382aeb	-0.17985122
212	0x3e2399cb	0.15976636
213	0x3d5ced64	0.05393733
214	0xbe04a775	-0.12954505
215	0x3d4406e7	0.047858145
216	0x3e1dbcbf	0.15404032
217	0x3d3830de	0.04496848
218	0x3dd792dc	0.10526058
219	0xbd641c07	-0.05569079
220	0x3dd11004	0.10208133
221	0x3e2da2b3	0.16956596
222	0xbd890c6f	-0.06691825
223	0x3e262485	0.16224869
224	0x3c088a83	0.008333805
225	0xbe032661	-0.12807609
226	0x3dcffe67	0.10155945
227	0xbdabcf15	-0.08389107
228	0xbd5926cf	-0.053015526
229	0x3dc94c7b	0.098290406
230	0xbd87ed17	-0.06637018
231	0x3e48885c	0.19583267
232	0x3e419556	0.18904623
233	0xbe27cdb4	-0.16387063
234	0xbc8e73ee	-0.017389264
235	0x3e36f668	0.17867434
236	0xbd79e35b	-0.06100784
237	0xbe23d430	-0.15998912
238	0x3dfe89a0	0.12428594
239	0xbb96c03d	-0.0046005533
240	0xbda87787	-0.08225923
241	0xbd2be2a2	-0.04196418
242	0xbd822d0f	-0.063562505
243	0x3be1da05	0.006892445
244	0x3dda97b5	0.10673467
245	0x3dab8fd1	0.0837704
246	0xbe48c8d5	-0.19607861
247	0x3d52dd0f	0.05148035
248	0xbcd27cef	-0.025694339
249	0xbe601ca7	-0.2188593
250	0xbd4037c1	-0.04692817
251	0x3d4da267	0.050203707
252	0xbdd32cd8	-0.10311288
253	0xbe437932	-0.19089201
254	0x3dcbdc56	0.09954135
255	0x3c239d6a	0.009986261

encoder.0.bias f4 [8]
0	0x3da0579a	0.07829209
1	0x3e4d2a41	0.2003565
2	0xbdc5c699	-0.0965702
3	0xbba51226	-0.005037564
4	0xbd3be13f	-0.04586911
5	0xbcea4480	-0.028597116
6	0x3e2b654d	0.16737862
7	0xbd3e9081	-0.04652453

encoder.3.weight f4 [16, 8, 16]
0	0x3dd2024a	0.10254343
1	0x3dc7bff6	0.097534105
2	0xbc8b8470	-0.017030925
3	0x3d408167	0.046998408
4	0x3e0b63c1	0.13612272
5	0x3d99dbaf	0.075126044
6	0x3d4f9101	0.050675396
7	0x3da301e7	0.07959347
8	0x3ce706fa	0.028201569
9	0xbcd0089b	-0.025394728
10	0x3dc0e859	0.09419317
11	0x3d5c9365	0.053851504
12	0x3db69f9c	0.08917162
13	0x3c966ef0	0.018363446
14	0x3baef6c5	0.005339476
15	0x3d8d6602	0.06904222
16	0x3e047688	0.12935841
17	0xbc358a50	-0.01108034
18	0x3d481c81	0.04885531
19	0x3df17d8b	0.117915235
20	0x3dfcd73b	0.123457395
21	0x3d204703	0.039130222
22	0xbd1bbe26	-0.038023137
23	0x3bec3726	0.0072087226
24	0xbbfb1a92	-0.0076630795
25	0x3df786fc	0.12086293
26	0x3cebed6a	0.028799731
27	0x3b38904b	0.0028162177
28	0xbcbeedd4	-0.023306765
29	0x3ccfb5a6	0.025355171
30	0xbcb7edf2	-0.022452328
31	0xbd2147e7	-0.039375212
32	0x3dcf2868	0.10115129
33	0x3d179711	0.037009303
34	0x3e046476	0.12928948
35	0x3dc4374c	0.095808595
36	0xbb77549c	-0.003773964
37	0x3de32ad9	0.11092157
38	0x3d1c7950	0.03820163
39	0x3db31e6a	0.087460354
40	0x3df4af7e	0.11947535
41	0x3c912f86	0.017722856
42	0x3d7e0be4	0.06202306
43	0xbce097b9	-0.027416097
44	0x3d526a8f	0.051371153
45	0x3d890e0b	0.066921316
46	0xbd22577b	-0.03963421
47	0xbcf7d01a	-0.030250598
48	0xbcaad411	-0.020853074
49	0x3dbce25c	0.09222862
50	0x3e09d6f6	0.13460907
51	0x3dadccee	0.08486353
52	0xbbe26342	-0.006908805
53	0x3e0b6cc9	0.13615717
54	0x3df001e7	0.11719113
55	0xbc58e445	-0.013238017
56	0x3d6a8c84	0.057262912
57	0xbd17d7d0	-0.03707105
58	0x3d5f5773	0.054526757
59	0xbd467a3f	-0.048456427
60	0x3dbfe65b	0.09370109
61	0xbcd0f7a9	-0.025508719
62	0x3cf7e4db	0.030260494
63	0x3c9f8fd2	0.019477759
64	0x3e02af95	0.12762292
65	0x3d8a65a0	0.06757665
66	0xbca71c30	-0.020399183
67	0xbb68d4aa	-0.0035527148
68	0xbc02f16b	-0.007992129
69	0x3e0857a8	0.13314688
70	0x3d0deaf9	0.034647916
71	0xba51ebcd	-0.00080078543
72	0xbc85e08b	-0.016342422
73	0x3e093ab5	0.13401301
74	0x3e0cfad3	0.13767557
75	0x3bcba9f3	0.006215328
76	0x3de0aeaa	0.109708145
77	0x3c9e43cf	0.019319443
78	0x3da2df1a	0.079527095
79	0x3daa62db	0.083196364
80	0xbc8b72c0	-0.01702249
81	0x3dbb04de	0.09131788
82	0x3dea5797	0.11442488
83	0x3d9fa855	0.07795779
84	0x3e01091a	0.12601128
85	0x3e1c5949	0.15268435
86	0x3b5814cc	0.003297138
87	0x3dccd0cb	0.100007616
88	0x3db215c8	0.08695561
89	0xbca060e2	-0.019577447
90	0xbbc816d1	-0.0061062356
91	0x3d7cb976	0.061700307
92	0x3df8cc33	0.12148323
93	0x3daa976d	0.083296634
94	0x3c0d95fc	0.008641716
95	0x3db6826b	0.08911594
96	0x3de0d725	0.109785356
97	0x3d1221fd	0.035676945
98	0x3e077737	0.1322907
99	0x3dd46f36	0.10372774
100	0x3db2f95b	0.08738967
101	0xbc041934	-0.0080626495
102	0x3df9e97f	0.12202739
103	0x3dbc02ad	0.09180198
104	0x3d89ff4c	0.06738147
105	0x3daf2268	0.08551484
106	0x3d861d0c	0.06548509
107	0x3e00f5d6	0.12593779
108	0xbd06630f	-0.032809313
109	0xbcf4e3c5	-0.029893765
110	0x3cfbb408	0.030725494
111	0x3c877759	0.016536402
112	0x3c3026f0	0.010751471
113	0x3d65b3f6	0.056079827
114	0xbc40752b	-0.011746685
115	0x3dace09a	0.08441277
116	0xbcf27c9e	-0.029600438
117	0xbccf765e	-0.025324997
118	0x3ddd92d1	0.10819019
119	0x3dc4147c	0.095742196
120	0x3cf75eb8	0.030196533
121	0xbb9c8b2f	-0.004777334
122	0x3d1217d2	0.035667248
123	0x3deb82c6	0.114995524
124	0x3bef29ac	0.007298669
125	0x3d11007f	0.035400864
126	0x3de30821	0.11085535
127	0x3e096549	0.13417543
128	0x3d4f8e55	0.050672848
129	0xbc76b6b2	-0.015058206
130	0x3db39d31	0.08770216
131	0xbd029357	-0.031878795
132	0x3d3110c6	0.043228887
133	0xbd8db652	-0.069195405
134	0x3c37403a	0.011184746
135	0x3da6b193	0.08139338
136	0xbb04f467	-0.0020287277
137	0x3dacdf03	0.084409736
138	0x3dc0db74	0.09416857
139	0x3b24e055	0.0025158126
140	0x3dadb198	0.08481139
141	0xbd6e3d35	-0.05816384
142	0x3dcd6077	0.10028165
143	0xbd1a63ae	-0.03769272
144	0x3cfe7ede	0.031066354
145	0xbd8e4e47	-0.06948524
146	0x3c956189	0.018234985
147	0xbd8ca343	-0.06867077
148	0x3da475b3	0.08030262
149	0xbd8d64b7	-0.069039755
150	0xbd855422	-0.06510188
151	0x3d91f0eb	0.071260296
152	0xbd13d1ae	-0.036088638
153	0x3dac8a07	0.08424764
154	0x3c0e2244	0.008675162
155	0x3d4a8577	0.04944369
156	0x3cdcfe61	0.026976766
157	0xbd6bd7e3	-0.057578932
158	0x3c98c4f0	0.018648595
159	0xbda76b61	-0.08174778
160	0x3b01a7ee	0.0019783932
161	0x3df3d36d	0.11905561
162	0x3ddb7359	0.1071536
163	0xbb9455d4	-0.004526833
164	0x3dc83bb6	0.09777014
165	0xbaef1ff7	-0.0018243779
166	0xbca56085	-0.020187626
167	0x3df66175	0.12030307
168	0x3d8dc8bf	0.06923055
169	0xbd195afc	-0.037440285
170	0x3b9a038c	0.00470013
171	0x3de3b63b	0.11118742
172	0xba1fc88d	-0.0006095253
173	0x3dc96666	0.09833984
174	0x3d22182a	0.039573826
175	0xbc8b2a34	-0.016987897
176	0x3dc5b141	0.09652949
177	0x3d1fee76	0.039045773
178	0xbc6b6981	-0.014368416
179	0x3cb60ece	0.022223856
180	0x3dd7e0ee	0.10540949
181	0x3da4a325	0.0803893
182	0x3db539bb	0.08848902
183	0xbcc36b8a	-0.02385499
184	0x3d36fcb0	0.044674575
185	0x3cb06d4a	0.021536488
186	0x3ca6edad	0.020377005
187	0x3d2ef2b6	0.042711936
188	0x3ad7454e	0.0016423853
189	0x3c980f8c	0.0185621
190	0xbbeaed8e	-0.007169432
191	0x3abbf030	0.0014338549
192	0xbd3d1152	-0.046159096
193	0x3c7a968d	0.015294683
194	0x3e03b855	0.12863286
195	0xbc10c961	-0.008837075
196	0x3de20a32	0.11037101
197	0x3cd3abf2	0.025838826
198	0xbc72ee7a	-0.014827365
199	0x3dc7387b	0.0972757
200	0x3d945990	0.07243645
201	0x3df2a24f	0.11847364
202	0x3d8adb8d	0.06780157
203	0x3da1c04c	0.07898006
204	0x3da1b99b	0.078967296
205	0x3de0b80d	0.10972605
206	0x3dc58c77	0.09645932
207	0x3da85fa3	0.08221366
208	0xb8878172	-6.461413e-05
209	0xbd44a78a	-0.04801134
210	0x3cbb2c2a	0.022848208
211	0x3d31b4a1	0.04338515
212	0xbcf7d61b	-0.03025346
213	0x3dd26ec4	0.10275033
214	0x3d152927	0.0364162
215	0x3d4e2bfe	0.050334923
216	0x3da30343	0.079596065
217	0x3cba4cae	0.022741642
218	0x3df1ecc4	0.118127376
219	0x3bc3874f	0.005967058
220	0x3cab6d6c	0.0209262
221	0xbacf4a89	-0.001581506
222	0xbd33b4b3	-0.0438735
223	0xbc8e6f08	-0.017386928
224	0xbd7b448a	-0.06134466
225	0x3d4169f7	0.047220197
226	0xbc728eef	-0.014804586
227	0xbda3d1a2	-0.07998969
228	0x3b85cc87	0.0040832194
229	0xbd328756	-0.043586098
230	0x3d8d12e4	0.06888369
231	0x3d845ccf	0.06463014
232	0x3c9839b0	0.018582195
233	0x3da7fa51	0.08202041
234	0x3d9df962	0.077135816
235	0xbcf076c1	-0.029353501
236	0xbb4b1104	-0.0030985484
237	0xbd3d622c	-0.046236202
238	0x3ce8be11	0.028410943
239	0x3d077a91	0.033075873
240	0x3d3f2985	0.046670455
241	0x3db2e25c	0.08734581
242	0x3db7f4c4	0.08982232
243	0x3d1acf67	0.03779545
244	0x3d8664c9	0.06562192
245	0xbc691aa1	-0.01422754
246	0xbcbc95a5	-0.023020575
247	0x3db9b7f3	0.09068289
248	0x3daec444	0.085335284
249	0x3d0a0947	0.033700254
250	0x3df88371	0.121344455
251	0xbc98d08d	-0.018654132
252	0x3ce66b5b	0.028127363
253	0xbb4347f5	-0.0029797528
254	0x3dc2905e	0.09500192
255	0x3df52089	0.11969096

encoder.3.bias f4 [16]
0	0x3dcc7937	0.099840574
1	0xbdb401eb	-0.08789428
2	0x3dce8e9e	0.10085796
3	0x3df020a3	0.11724975
4	0xbd6d8711	-0.057990137
5	0xbdbdfc46	-0.09276633
6	0xbd91a645	-0.071117915
7	0x3d8ae8ba	0.0678267
8	0x3950827f	0.0001988504
9	0xbd7d4518	-0.06183347
10	0xbd8f7c04	-0.07006076
11	0x3d0b4cdf	0.034008857
12	0xbd87bf2f	-0.06628262
13	0x3df26868	0.1183632
14	0x3d015e1c	0.03158389
15	0xbcf25e86	-0.029586088

encoder.6.weight f4 [32, 16, 8]
0	0x3d2c2e29	0.04203621
1	0x3d86cb8a	0.06581791
2	0x3db43713	0.08799567
3	0x3d7a91cd	0.061174203
4	0x3bb173ff	0.005415439
5	0x3dc65e25	0.096859254
6	0x3dbb6875	0.09150783
7	0xbd20ebac	-0.039287254
8	0x3da51ffe	0.08062743
9	0x3c44b681	0.012006403
10	0x3d9b7c13	0.07592025
11	0x3dd8b769	0.10581858
12	0x3d4d670b	0.050147098
13	0x3dfa3430	0.12216985
14	0xbcb6c5b3	-0.022311067
15	0x3d3e86cd	0.046515275
16	0x3d4aaaba	0.049479224
17	0xbd8f7796	-0.07005231
18	0x3d4170c0	0.047226667
19	0xbd0cc4b2	-0.03436727
20	0x3d43cb78	0.047801465
21	0xbd8fa0e9	-0.07013113
22	0xbd9a2c19	-0.07527942
23	0x3cfd99d2	0.030957136
24	0x3d66400d	0.056213427
25	0xbd066dc1	-0.032819513
26	0x3d7e61fb	0.06210516
27	0x3bcb4b19	0.0062040207
28	0xbcd2fb3c	-0.025754564
29	0x3ce897df	0.02839273
30	0x3d92657b	0.07148262
31	0xbcb9e245	-0.022690902
32	0x3dd40cd8	0.10354012
33	0x3d6186eb	0.05506031
34	0x3d41ce95	0.047316153
35	0xbd3a4001	-0.045471195
36	0x3e04e542	0.1297808
37	0x3ccf7aef	0.025327174
38	0x3dfc3af1	0.1231593
39	0x3de5089a	0.11183281
40	0x3db62d50	0.088953614
41	0x3c3157ed	0.010824186
42	0xbc8c70a9	-0.017143564
43	0xbc07d096	-0.008289477
44	0x3d96bce1	0.073602445
45	0xbcee8cd7	-0.029119892
46	0x3da8ce78	0.08242506
47	0xbcb92e7a	-0.02260517
48	0x3e13e999	0.14444579
49	0x3d68dc3b	0.056850653
50	0x3e062493	0.1309989
51	0x3cbc4c6f	0.022985665
52	0x3d2d7029	0.042343292
53	0x3d8afc98	0.0678646
54	0x3cb72d0f	0.022360353
55	0x3d5d1557	0.05397543
56	0x3dc139eb	0.09434875
57	0x3dea1081	0.11428929
58	0x3d485003	0.04890443
59	0x3d97a8af	0.07405221
60	0x3d3ca6df	0.04605758
61	0x3b9290a5	0.0044728094
62	0xbd09dd2f	-0.033658203
63	0x3d3e8a35	0.046518523
64	0xbce34f04	-0.027747639
65	0x3a16814c	0.00057413126
66	0x3d20460f	0.039129313
67	0xbd349708	-0.044089347
68	0xbd42c2b5	-0.04754897
69	0xbd1975b1	-0.037465755
70	0x3d8f695c	0.070025176
71	0x3dd4b79b	0.103865825
72	0xbbc4befc	-0.0060042124
73	0x3cd307b5	0.025760511
74	0x3cb63974	0.022244193
75	0x3d4abd46	0.04949691
76	0x3c126af0	0.008936629
77	0xbc266d83	-0.010157946
78	0x3db6adbb	0.08919855
79	0x3d7e98da	0.06215749
80	0x3da96a2d	0.082722045
81	0x3db6f7f5	0.08934013
82	0xbc9b8472	-0.018984053
83	0x3cbe935b	0.023263624
84	0x3cd35845	0.025798926
85	0xbc0175dd	-0.007901636
86	0x3d49e1b9	0.04928753
87	0xbcf3a9f2	-0.029744122
88	0x3d92b494	0.07163349
89	0xbd894cfb	-0.06704136
90	0x3cef7844	0.029232152
91	0xbccdc140	-0.025116563
92	0x3d069b4e	0.032862954
93	0xbc40c120	-0.011764795
94	0xbda46027	-0.08026152
95	0x3d23a107	0.03994849
96	0x3cadc334	0.021211244
97	0x3ddf69bc	0.10908839
98	0x3c8d45b7	0.017245157
99	0xbc61fbe1	-0.013792963
100	0x3d2cc21f	0.042177316
101	0x3d8a0ff3	0.06741323
102	0x3df0c84f	0.11756956
103	0xbc6cb7eb	-0.014448146
104	0x3c3893b1	0.011265681
105	0xbd8b85b3	-0.068126105
106	0xbd70efef	-0.05882257
107	0x3d988d0d	0.07448778
108	0xbbf802df	-0.0075687016
109	0x3cccc737	0.024997337
110	0x3d408bcb	0.047008317
111	0x3b9891ad	0.004656038
112	0x3d9ccd6c	0.076563686
113	0xbd72d5a8	-0.05928579
114	0x3d4c1050	0.049820244
115	0x3d44ba9f	0.04802954
116	0xbaaef757	-0.001334886
117	0xbd27f21e	-0.041002385
118	0x3d601342	0.054705866
119	0x3d1e7cce	0.03869324
120	0x3dca3229	0.098728485
121	0x3df0d8e8	0.117601216
122	0x3cd7e7e3	0.02635569
123	0x3cffe2ed	0.031236136
124	0x3d3152a2	0.043291695
125	0x3dc7e309	0.097601004
126	0x3d7fdc2e	0.06246584
127	0x3d32df33	0.04366989
128	0xbc771c64	-0.015082452
129	0xbb3fb5e2	-0.0029252698
130	0xbbc455ef	-0.0059916894
131	0xbb931d71	-0.0044895937
132	0x3da11f3d	0.07867286
133	0x3cbf65e9	0.023364024
134	0xbd806c03	-0.062706016
135	0x3d348042	0.04406763
136	0xbccb8947	-0.024845732
137	0xbd4205ce	-0.047368817
138	0x3cd4285e	0.025898155
139	0xbd5e0431	-0.054203216
140	0xbd35788a	-0.044304408
141	0x3d9582b2	0.07300319
142	0x3d6bf2cf	0.057604607
143	0xbcc83b14	-0.024442233
144	0x3d0591b2	0.03260965
145	0x3c490919	0.012270235
146	0x3d080fc9	0.03321818
147	0x3d538d18	0.05164823
148	0xbbf0ae9c	-0.007345034
149	0x3c85385b	0.016262224
150	0x3cf6a3c9	0.030107396
151	0x3ceb8552	0.028750096
152	0x3d8e6dc6	0.06954531
153	0x3de9864c	0.11402568
154	0x3d90e485	0.07074837
155	0x3d8f486b	0.069962345
156	0xbcce68a1	-0.025196375
157	0x3d2a0ff9	0.04151914
158	0xbd06bb0f	-0.032893237
159	0x3b15c6cc	0.0022854088
160	0xbd9b92b9	-0.075963445
161	0xbd9df52e	-0.0771278
162	0x3d9c8de3	0.0764425
163	0xbd90571c	-0.07047865
164	0xbabfb476	-0.0014625925
165	0xbd44bd11	-0.04803187
166	0xbd50decb	-0.050993722
167	0xbce9899d	-0.028508002
168	0x3bc65e4b	0.006053721
169	0xbb7883e9	-0.0037920421
170	0xbd7821ea	-0.060579218
171	0x3ce2dd9b	0.02769356
172	0x3d2a8449	0.041630063
173	0x3cae0697	0.021243377
174	0x3a81ce2f	0.0009903366
175	0x3d08aa13	0.03336532
176	0xbd5fcad2	-0.054636784
177	0x3d91dafa	0.071218446
178	0x3d393b68	0.04522267
179	0xbda5e9e8	-0.08101255
180	0x3c44171c	0.0119684
181	0xbd7c9654	-0.0616668
182	0xbc899f16	-0.01679949
183	0x3d3f21d4	0.04666312
184	0x3da2d5fc	0.079509705
185	0x3db3cb7d	0.08779047
186	0x3da76b1f	0.081747286
187	0xbd6ef1e0	-0.05833614
188	0xbd93aed0	-0.07211077
189	0xbccfe3db	-0.025377205
190	0xbd86f994	-0.06590572
191	0xbca2be7a	-0.019866217
192	0x3d9db3bd	0.07700298
193	0xbd8de33e	-0.06928109
194	0x3dbad3c1	0.0912242
195	0x3d967fa2	0.07348563
196	0x3da45c51	0.080254205
197	0x3c53e8f3	0.012933957
198	0xbb96873a	-0.004593757
199	0x3d2edd74	0.042691663
200	0xbd9314c5	-0.07181696
201	0x3c4dda07	0.012564189
202	0xbd3a455f	-0.045476314
203	0x3d3bf268	0.045885473
204	0x3c4d51cc	0.012531709
205	0x3c181f4c	0.0092848055
206	0x3db532d0	0.08847582
207	0x3cefc923	0.029270714
208	0xba509421	-0.0007956643
209	0xbc7fe4a5	-0.015618478
210	0xbd4b37b4	-0.04961367
211	0xbcce24ac	-0.02516397
212	0x3d2dee31	0.042463485
213	0x3c3a2011	0.011360184
214	0xbd97cc12	-0.0741197
215	0x3d182fd1	0.037154976
216	0x3db5319b	0.08847352
217	0x3d0373d4	0.032092884
218	0xbaff8599	-0.0019494771
219	0x3c9f5ed3	0.019454395
220	0xbb57ef16	-0.0032948903
221	0x3d613e35	0.054990966
222	0x3d79a66e	0.060949735
223	0xbc800346	-0.01562656
224	0x3c78b05c	0.015178766
225	0xbb9cb9bf	-0.004782885
226	0xbd30ba60	-0.04314649
227	0xbd53458f	-0.051580008
228	0x3d8415de	0.06449483
229	0xbc614c34	-0.013751078
230	0xbd09bc16	-0.03362664
231	0xbd09b5c5	-0.033620615
232	0xbd148ccc	-0.036267087
233	0x3bdb1852	0.006686249
234	0x3dc78903	0.0974293
235	0x3b5cc434	0.0033686282
236	0x3d89fd9c	0.06737825
237	0x3dd57f12	0.10424627
238	0xbc956882	-0.01823831
239	0x3daf3381	0.085547455
240	0xbc8fcd4a	-0.017553944
241	0xbcf4cfb5	-0.029884199
242	0xbb9b338b	-0.004736369
243	0x3d8042ea	0.06262763
244	0x3d95770c	0.07298097
245	0x3d7d1685	0.061789054
246	0x3dd1eca3	0.10250213
247	0x3de179e0	0.11009574
248	0xbd9db25d	-0.07700036
249	0xbcb74565	-0.022371957
250	0x3cda18e9	0.026623206
251	0x3c8ac3c1	0.016939046
252	0x3cc647da	0.024204183
253	0x3bf195ee	0.0073726093
254	0x3d43710e	0.04771524
255	0xbd81d7df	-0.06340002

encoder.6.bias f4 [32]
0	0xbdbcab62	-0.09212376
1	0x3d98d481	0.07462407
2	0xbd82436b	-0.06360515
3	0x3df22813	0.1182405
4	0x3da65444	0.08121541
5	0x3d580112	0.052735396
6	0xbd2051fa	-0.03914068
7	0x3bbd7e4f	0.0057828794
8	0xbd8b7e45	-0.068111934
9	0xbdb22989	-0.086993285
10	0xbd8f402e	-0.06994663
11	0x3c139e35	0.009009887
12	0x3c869a01	0.016430857
13	0x3c0100b2	0.007873701
14	0x3dd7df0f	0.10540592
15	0xbdade48a	-0.08490856
16	0x3df84263	0.12122037
17	0x3c51c784	0.012803916
18	0xbd4e7559	-0.05040488
19	0x3db733ec	0.0894545
20	0xbd0e3b1b	-0.034724336
21	0x3dd2a056	0.10284488
22	0xbd9a7fb2	-0.07543887
23	0x3d21ded3	0.039519142
24	0x3c311ff7	0.010810844
25	0xbd8befb2	-0.06832828
26	0xbd6ad4ff	-0.057332035
27	0x3d2dcd78	0.04243228
28	0x3ccf8229	0.02533062
29	0x3da7960b	0.08182915
30	0xbc9e725b	-0.019341638
31	0xbd9f0f9f	-0.07766651

encoder.9.weight f4 [32, 32, 8]
0	0xbd1d51fb	-0.03840826
1	0x3d7ccccb	0.061718743
2	0xbcb0ad9a	-0.021567155
3	0x3d57393f	0.05254483
4	0x3c379398	0.011204623
5	0x3d6ff72b	0.058585327
6	0x3d367cb9	0.04455254
7	0xbcb81146	-0.022469174
8	0xbd141fe4	-0.036163226
9	0xbd7b23b6	-0.061313353
10	0x3b5300b2	0.003219646
11	0x3c7fc059	0.015609824
12	0xbd25170f	-0.040305194
13	0xbd126417	-0.035739984
14	0x3c117653	0.008878308
15	0xbd80320d	-0.062595464
16	0x3db49361	0.08817173
17	0x3ce75cb3	0.028242445
18	0xbc111fe4	-0.008857701
19	0x3d342237	0.043977942
20	0x3bd76ef0	0.006574504
21	0x3c3d1896	0.011541506
22	0x3d0681e7	0.03283873
23	0x3ccdf874	0.025142886
24	0x3bef5f1f	0.0073050405
25	0xbd36c3c4	-0.04462029
26	0xbd33ece9	-0.043927107
27	0xbc56267b	-0.013070698
28	0xbd991fab	-0.07476743
29	0x3c054d14	0.008136053
30	0xbdc36517	-0.09540766
31	0xbcef3783	-0.029201275
32	0x3d28b84f	0.041191395
33	0xbd07fb95	-0.03319891
34	0x3cd5cf86	0.026099931
35	0xbd1501e4	-0.036378756
36	0x3c5876a1	0.013211877
37	0xbcdbd6ae	-0.026835766
38	0x3d36fac5	0.044672746
39	0x3bf30eb5	0.0074175247
40	0xbd614ddf	-0.055005904
41	0xbd45b977	-0.048272576
42	0x3bc46e2d	0.0059945793
43	0xbd8d6fe9	-0.06906111
44	0xbd6aac3c	-0.05729316
45	0xbd2a792f	-0.041619476
46	0xbccd5342	-0.025064114
47	0xbcd4f9b4	-0.025997974
48	0xbce48e7e	-0.027899977
49	0xbc37979e	-0.011205582
50	0x3d4452cf	0.047930535
51	0x3cccd3cb	0.025003335
52	0xbceb2b87	-0.028707279
53	0xbc3a78ec	-0.011381369
54	0x3c3ae4b6	0.011407068
55	0x3c85478f	0.016269473
56	0xbce91674	-0.02845309
57	0xba648891	-0.000871786
58	0x3c4f37c4	0.012647573
59	0x3d6cd7b6	0.057822905
60	0x3d7801b9	0.060548518
61	0x3c967370	0.018365592
62	0x3d484502	0.048893936
63	0x3d903555	0.07041422
64	0x3d3e8101	0.046509746
65	0x3da6fa9c	0.08153269
66	0xbc4f6825	-0.012659107
67	0x3bf17229	0.0073683453
68	0x3c6c1168	0.014408447
69	0x3d884665	0.06654052
70	0x3d2d4cf1	0.042309705
71	0x3d8fd9d9	0.07023973
72	0x3d22f634	0.03978558
73	0xbc5bbfb3	-0.013412404
74	0x3db09255	0.086216606
75	0xbcb2c7f4	-0.02182386
76	0x3d027bd2	0.031856366
77	0xbc11714d	-0.008877111
78	0x3d5f2000	0.054473877
79	0xba9fb6af	-0.0012185181
80	0x3c49c1e0	0.01231429
81	0x3c29aa67	0.0103555685
82	0x3d94fde2	0.07274987
83	0xbd16c5fd	-0.03680991
84	0xbd1ddf28	-0.038542897
85	0x3c726d89	0.014796623
86	0x3b478372	0.0030443338
87	0x3d870c93	0.06594195
88	0x3d75adab	0.059980076
89	0x3d32cc79	0.04365203
90	0x3d489466	0.04896965
91	0x3d5a1a66	0.05324783
92	0x3d0e1de5	0.03469648
93	0x3d7aadc3	0.06120087
94	0x3d028827	0.031868126
95	0x3d1a2c6e	0.037640028
96	0x3cb2cea8	0.021827057
97	0x3ce03f58	0.027373955
98	0x3d63315a	0.055466987
99	0xbba73a1f	-0.005103364
100	0x3d93e602	0.07221605
101	0x3d8b2b8f	0.067954175
102	0x3d9afe32	0.07568015
103	0x3d53eb03	0.051737797
104	0x3d928659	0.07154531
105	0x3d8e9f43	0.069639705
106	0xbd2ee518	-0.04269895
107	0xba9878d9	-0.0011632695
108	0x3d822cb3	0.06356182
109	0x3cc9ddf8	0.024641976
110	0x3d515a90	0.051111758
111	0xbb908558	-0.004410427
112	0xbcbb5792	-0.022868905
113	0xbd732214	-0.05935867
114	0xbd9e0d35	-0.07717363
115	0xbd0c351f	-0.034230348
116	0xbcf52a48	-0.029927388
117	0x3ce85cc9	0.028364556
118	0x3d4fd98a	0.05074457
119	0x3d324712	0.04352481
120	0x3d183d45	0.037167806
121	0x3acde269	0.0015707734
122	0x3d0a224c	0.033724114
123	0xbc555915	-0.013021727
124	0xbc704221	-0.014664204
125	0x3d1828fc	0.03714846
126	0xbbc0bb3c	-0.005881695
127	0x3bbd893d	0.0057841823
128	0xbdaab158	-0.08334607
129	0xbc460f6f	-0.012088641
130	0xbdc6c2d5	-0.0970513
131	0xbbec16e2	-0.0072048763
132	0xbd822499	-0.06354637
133	0x3ccee4d3	0.025255596
134	0xbd67bcdb	-0.05657659
135	0xbd3130bc	-0.043259367
136	0x3d456805	0.048194904
137	0x3d56f612	0.052480765
138	0x3ca873a0	0.020562947
139	0x3ccee8ea	0.025257546
140	0x3d19ea6c	0.037577078
141	0x3d19d901	0.037560467
142	0x3d8f2d5b	0.06991073
143	0xbbda1b5f	-0.006656095
144	0x3d368141	0.04455686
145	0x3da2d054	0.07949892
146	0x3d0699c9	0.032861505
147	0x3c45b22e	0.012066407
148	0xbbdfd4a6	-0.0068307696
149	0x3da6cb73	0.081442736
150	0x3c3dfc53	0.011595803
151	0x3d407e29	0.046995316
152	0xbd409e84	-0.047026172
153	0x3d182c18	0.037151426
154	0x3cf2daa7	0.029645277
155	0x3d14cf67	0.036330607
156	0x3d52a07e	0.05142259
157	0xbbf5788d	-0.0074911774
158	0x3c048904	0.008089308
159	0x3d051319	0.032488916
160	0x3d9baff1	0.076019175
161	0x3b9cb9f6	0.0047829105
162	0x3d8a6ff0	0.06759632
163	0x3c8da2a3	0.017289465
164	0x3d01645b	0.031589847
165	0xbcfdbf09	-0.030974882
166	0xbc4492ca	-0.011997888
167	0xbceaee83	-0.028678184
168	0xbd5dfc98	-0.05419597
169	0xbcc57f2e	-0.024108496
170	0xbccc5737	-0.024943931
171	0xbd2327d6	-0.039832912
172	0x3ca82780	0.020526648
173	0xbc6ba657	-0.01438292
174	0x3afde7e1	0.0019371473
175	0xbdb07fa4	-0.086180955
176	0x3d77d3b0	0.060504615
177	0xbca056fc	-0.019572727
178	0xbcb7fb04	-0.02245856
179	0x3d3e5af5	0.046473462
180	0xbd2f2d3f	-0.04276776
181	0x3c546841	0.012964309
182	0xbca8fedd	-0.02062934
183	0xbcf7e11d	-0.03025871
184	0x3da15b47	0.07878738
185	0x3d55d8cd	0.05220871
186	0x3d05e4cf	0.032688912
187	0x3cc439ce	0.023953345
188	0x3d0378e6	0.03209772
189	0x3d381ed0	0.04495126
190	0x3c04b94f	0.008100822
191	0xbca1a9ea	-0.019734342
192	0x3a744fdd	0.0009319762
193	0xbd02460e	-0.03180509
194	0xbbd5fe42	-0.006530554
195	0xbd29c402	-0.041446693
196	0x3caf70c1	0.02141607
197	0x3c6b5444	0.014363352
198	0x3ce7216b	0.028214177
199	0x39f4ba9a	0.00046678336
200	0x3d39f08f	0.04539543
201	0x3d557eb8	0.0521228
202	0x3d3a5e6e	0.04550021
203	0x3bf6b1d9	0.0075285253
204	0x3d2d1e83	0.042265426
205	0x3dafba23	0.08580425
206	0x3db33b6b	0.087515675
207	0xbc9675c2	-0.018366698
208	0x3d6941b2	0.056947418
209	0x3c963ab9	0.018338548
210	0xbd1816b8	-0.03713104
211	0x3d83eb3c	0.06441352
212	0x3d8c53ba	0.06851907
213	0xbcc919b7	-0.024548395
214	0xbcdce531	-0.026964756
215	0x3ca9b936	0.020718198
216	0x3c69d21c	0.014271285
217	0x3ace9627	0.0015761302
218	0x3d21cb35	0.039500434
219	0x3cc1b6e5	0.023646781
220	0x3b91f3e1	0.0044541215
221	0x3da9497b	0.082659684
222	0x3d37023c	0.044679865
223	0xbd007ac7	-0.03136709
224	0xbd2d657d	-0.042333115
225	0xbbfaac0c	-0.007649904
226	0x3d38d878	0.045128316
227	0x3cfb3a97	0.030667586
228	0x3d12c61d	0.035833467
229	0x3bee9cb0	0.007281862
230	0xbc62ef10	-0.013850942
231	0xbcab3503	-0.020899301
232	0x3c40503d	0.01173788
233	0x3d3243ce	0.043521695
234	0xbc47318e	-0.012157811
235	0xbd288298	-0.04114017
236	0xbd6b675b	-0.057471614
237	0x3d60005f	0.054687854
238	0xbd0f0c09	-0.034923587
239	0xbd20e378	-0.03927943
240	0x3ba5623b	0.0050471104
241	0x3d680cdb	0.056652885
242	0x3bfde469	0.007748176
243	0xbcc9dd06	-0.024641525
244	0xbccacfcd	-0.02475729
245	0x3d44df0a	0.04806427
246	0x3d54f98b	0.051995795
247	0xbc853a83	-0.016263252
248	0x3d130939	0.035897467
249	0xbb85beee	-0.0040815985
250	0x3d44bff8	0.04803464
251	0xbcbbec76	-0.022939902
252	0x3d4f9dbd	0.05068754
253	0xbc55f504	-0.013058905
254	0x3cc5a528	0.024126604
255	0x3d65304a	0.055954255

encoder.9.bias f4 [32]
0	0xbd827ab3	-0.06371059
1	0xbc4c5baf	-0.012473031
2	0x3db79378	0.08963674
3	0xbd8e898c	-0.06959829
4	0x3caba26a	0.020951468
5	0xbd0bba0e	-0.034112982
6	0xbd99bd6e	-0.07506834
7	0x3dc700a8	0.09716922
8	0x3d8a0de1	0.067409284
9	0xbd3923d9	-0.045200203
10	0xbdaf71b5	-0.0856661
11	0xbb95243a	-0.0045514377
12	0x3cda06a9	0.026614504
13	0x3c21fe54	0.009887297
14	0xbd691165	-0.056901354
15	0xbd823bf4	-0.063590914
16	0xbc1709e7	-0.0092186695
17	0x3dafd0d0	0.0858475
18	0xbcbb64a9	-0.022875147
19	0xbcb017f0	-0.02149579
20	0x3d83ea2d	0.0644115
21	0xbcf403b6	-0.029786926
22	0xbda79a8e	-0.08183776
23	0xbd589117	-0.052872743
24	0xbd2f3461	-0.04277456
25	0xbd928deb	-0.07155975
26	0xbbf577b2	-0.0074910754
27	0xbcf0deb1	-0.029403063
28	0x3de9181c	0.113815516
29	0xbd7f79b3	-0.06237192
30	0xbda28e11	-0.07937253
31	0xbd6becea	-0.057598986

encoder.12.weight f4 [64, 32, 3]
0	0xbd328b97	-0.043590154
1	0xbd45c590	-0.048284113
2	0xbd0f58c3	-0.03499676
3	0x3d1c60da	0.038178302
4	0x3d29bc3d	0.041439284
5	0x3d16713a	0.036729075
6	0xbd9867fa	-0.07441707
7	0xbd16f94e	-0.03685885
8	0x3da18dcc	0.07888374
9	0x3d9c8c7f	0.07643985
10	0xbd7e4fa8	-0.062087685
11	0x3dbbef81	0.09176541
12	0x3d8ad2b9	0.067784734
13	0x3dc32f54	0.095305115
14	0x3d60a5ec	0.054845735
15	0x3dacb910	0.08433735
16	0xbd6c6951	-0.057717625
17	0xbca47898	-0.020077035
18	0x3d10dbf7	0.035366025
19	0xbc39814c	-0.011322331
20	0x3d0bc27a	0.034121014
21	0xbde57b3b	-0.11205145
22	0xbdd1883d	-0.102310635
23	0x3d5c1870	0.053734243
24	0xbd1165b8	-0.035497397
25	0xbc934701	-0.017978193
26	0x3c7feef4	0.015620936
27	0x3de135a3	0.109965585
28	0x3c3c2617	0.011483691
29	0x3db36bc3	0.08760788
30	0x3da292da	0.07938166
31	0x3d83cca7	0.06435519
32	0x3d25adfa	0.04044912
33	0xbd1f029b	-0.038820844
34	0xbcb21794	-0.021739759
35	0xbc049e14	-0.008094329
36	0x3d2259ab	0.039636295
37	0xbd9cf48d	-0.07663832
38	0xbc73c535	-0.014878561
39	0x3c3bf1ed	0.011471254
40	0xbdb4524a	-0.08804758
41	0x3ce8d84f	0.028423456
42	0x3d47fd5c	0.048825607
43	0xbd693f30	-0.056945026
44	0x3d90cc55	0.07070223
45	0x3d2450a6	0.040115975
46	0xbd1fa696	-0.038977228
47	0xbdc3fd15	-0.09569756
48	0xbd7b570a	-0.061362304
49	0x3dc74e2e	0.097317085
50	0xbd16f28b	-0.0368524
51	0xbd401d6b	-0.046903055
52	0xbdddd6bc	-0.10831973
53	0xbe0d6704	-0.13808829
54	0xbdb188ca	-0.086686686
55	0xbd0ac7ea	-0.03388206
56	0xbaddb909	-0.0016916107
57	0x3caf6054	0.021408238
58	0x3cdaf487	0.026727928
59	0x3b920a0d	0.0044567646
60	0xbdbcab98	-0.092124164
61	0xbd8c0f34	-0.06838837
62	0xbdc5c7f2	-0.09657277
63	0xbcc465d3	-0.023974335
64	0x3d1aaa02	0.03775979
65	0xbd3ece0e	-0.046583228
66	0x3deca518	0.11554927
67	0x3ce23c88	0.027616754
68	0xbd8b6c7d	-0.06807802
69	0x3d85a1f8	0.06525034
70	0x3cfe62b8	0.031052932
71	0x3d0213d6	0.0317572
72	0x3d2c5288	0.042070895
73	0xbd524f2b	-0.05134503
74	0x3ce84d30	0.028357118
75	0x3dcfc0b8	0.1014418
76	0x3c092a18	0.008371852
77	0xbdaa080a	-0.083023146
78	0x3cdd4bf2	0.027013753
79	0xbd224c1b	-0.03962336
80	0x3c861fa5	0.016372511
81	0x3d8cb3fc	0.06870267
82	0x3df647bc	0.12025401
83	0x3cf76b46	0.03020252
84	0xbd96e5bd	-0.07368038
85	0x3bb1c94a	0.005425607
86	0xbd14b020	-0.03630078
87	0xbc997a32	-0.018735025
88	0x3d345e9a	0.04403553
89	0x3de6caed	0.11269174
90	0x3dce6ccd	0.10079346
91	0x3d4c6a45	0.049906034
92	0xbdabad6b	-0.08382686
93	0x3d39ccbd	0.04536127
94	0xbac8918b	-0.0015302164
95	0x3d337e51	0.043821637
96	0x3d8a3b14	0.067495495
97	0x3d9967ee	0.07490526
98	0xbbf15c4c	-0.007365739
99	0xbd6472dd	-0.055773605
100	0xbd2fd529	-0.042927895
101	0x3d349e8e	0.044096522
102	0x3d6e8d51	0.05824024
103	0x3d67ec68	0.05662194
104	0x3d2c5acd	0.042078782
105	0xbd37c253	-0.044863056
106	0xbd386dc7	-0.045026567
107	0x3c72d291	0.014820711
108	0xbddf771b	-0.109113894
109	0xbd0f0f1d	-0.034926523
110	0xbd9a89ea	-0.07545836
111	0x3dc8a611	0.097973
112	0xba53d3e2	-0.0008080584
113	0x3dbd9c7e	0.09258364
114	0x3bc5f406	0.0060410528
115	0xbd5af41c	-0.053455457
116	0x3da46d39	0.08028645
117	0xbd39aef0	-0.04533285
118	0xbaa35526	-0.0012461289
119	0xbde3ab7d	-0.11116693
120	0xbbeedc52	-0.007289448
121	0xbde9dc7e	-0.11419009
122	0xbcade65c	-0.021228008
123	0xbd3527e6	-0.044227503
124	0xbd6ff555	-0.058583576
125	0x3c90688c	0.017627977
126	0xbbd52c6d	-0.00650554
127	0x3d480098	0.04882869
128	0xbd88dd12	-0.06682791
129	0x3d312450	0.04324752
130	0x3d21eea1	0.039534215
131	0xbdd16797	-0.10224836
132	0x3d58b429	0.05290619
133	0x3cc0bb65	0.023526857
134	0xbcdad466	-0.026712608
135	0xbd3f4067	-0.04669228
136	0xbd4ca459	-0.04996142
137	0xbdc2f909	-0.09520156
138	0x3c002d3d	0.007823286
139	0x3d9e3046	0.07724051
140	0xbbc6cac4	-0.006066652
141	0x3dae310a	0.08505447
142	0x3d8a4e79	0.06753249
143	0xbc6ed679	-0.014577501
144	0xbd90559c	-0.07047579
145	0xbd4e8222	-0.050417073
146	0xbdd745b2	-0.1051134
147	0xbd234570	-0.039861143
148	0x3d60c1b3	0.054872226
149	0xbc8c7da2	-0.01714975
150	0xbd0f76ac	-0.035025284
151	0x3dbe4b39	0.09291691
152	0xbd441461	-0.047870997
153	0x3d8ba6bb	0.06818911
154	0x3dadea51	0.08491958
155	0x3dbb81b0	0.09155595
156	0xbd977f29	-0.07397301
157	0xbd4db5d0	-0.050222218
158	0xbc969838	-0.01838313
159	0xbdb1e88d	-0.08686934
160	0x3c799ae8	0.015234686
161	0x3d8fdb6e	0.07024275
162	0x3da58096	0.080811664
163	0x3d67fe39	0.05663893
164	0x3d221319	0.039568994
165	0xbd7955ae	-0.060872726
166	0x3d898144	0.067141086
167	0xbd724a88	-0.05915311
168	0x3dcd2090	0.100159764
169	0x3b7fdadf	0.003904037
170	0x3dee3207	0.11630636
171	0xbd87dbaf	-0.06633698
172	0xbbb2357c	-0.0054385047
173	0xbd6c29f9	-0.057657216
174	0x3d97c413	0.07410445
175	0x3c9cd640	0.019145131
176	0xbd6b0449	-0.057377134
177	0x3d1011de	0.03517329
178	0x3d5c768c	0.053823993
179	0x3e05134b	0.12995641
180	0x3c1e38de	0.009657113
181	0xbd8e580f	-0.069503896
182	0xbc8dfdb4	-0.01733289
183	0xbdb46690	-0.08808625
184	0x3d44dad4	0.048060253
185	0xbdb43951	-0.08799995
186	0xbceb7a95	-0.028744975
187	0x3db653e4	0.089027196
188	0x3d9b17f6	0.075729296
189	0xbdcbef7c	-0.099577874
190	0x3bf09973	0.0073425113
191	0x3defa0e3	0.117006086
192	0xbc17c536	-0.009263327
193	0x3df406f1	0.119153865
194	0x3d7d0e39	0.061781142
195	0x3d2aefcb	0.04173259
196	0x3d84f43b	0.06491896
197	0xbda2a025	-0.079407014
198	0x3d48f555	0.04906209
199	0x3dfd2b96	0.12361829
200	0xbbd43a0e	-0.006476647
201	0xbd78d085	-0.060745735
202	0xbd54a507	-0.051915195
203	0x3dc16a27	0.09444075
204	0x3cd806fa	0.026370514
205	0xbd3ac5c6	-0.045598768
206	0x3ddb70e1	0.10714889
207	0x3d266114	0.040619925
208	0xbd886d16	-0.066614315
209	0x3daa091c	0.08302519
210	0x3cbca607	0.023028387
211	0xbd973cf7	-0.07384675
212	0xbd0c79df	-0.034295913
213	0x3dd070e0	0.10177779
214	0x3d2da42c	0.042392895
215	0xbd8b0723	-0.067884706
216	0x3dade053	0.08490052
217	0xbd133346	-0.03593757
218	0xbdaeb5a3	-0.08530738
219	0x3dddfb7a	0.10838981
220	0x3d7c74b0	0.06163472
221	0x3cc82efe	0.02443647
222	0x3d77245b	0.060337406
223	0x3bd2fbd9	0.006438714
224	0xbc82c741	-0.015964152
225	0xbd858691	-0.06519807
226	0x3c782b04	0.0151469745
227	0xbd90f4b0	-0.070779204
228	0xbdb288c4	-0.08717492
229	0x3d29f886	0.041496776
230	0x3deb4e23	0.11489513
231	0xbb894a89	-0.0041897935
232	0x3dc72ea6	0.09725694
233	0x3c8a4a02	0.016880993
234	0xbd67530f	-0.056475695
235	0x3d981f41	0.07427836
236	0xbd046867	-0.03232613
237	0xbd3d4ecb	-0.04621772
238	0x3c8d8347	0.017274512
239	0x3cec6208	0.028855339
240	0x3de8f91f	0.11375641
241	0xbd6a0eaf	-0.05714291
242	0x3dc9bf42	0.09850933
243	0xbd9764a3	-0.07392242
244	0x3d06df24	0.032927647
245	0x3c971eb8	0.018447265
246	0x3d76646d	0.060154367
247	0xbd1fd8ec	-0.039025232
248	0xbd0cdc60	-0.034389853
249	0xbbebb2f7	-0.007192965
250	0xbd8d2c43	-0.06893208
251	0x3d96d915	0.07365624
252	0x3da923cf	0.08258783
253	0xbd9e6481	-0.07734013
254	0xbcb5e41e	-0.022203501
255	0x3dceeee1	0.10104156

encoder.12.bias f4 [64]
0	0xbdc71b92	-0.097220555
1	0xbdd7b087	-0.10531717
2	0xbcff1be1	-0.031141223
3	0x3df9e0ff	0.12201118
4	0xbd43e9b2	-0.04783029
5	0x3dd9ddb7	0.10637992
6	0x3dd4157c	0.1035566
7	0xbc8c3087	-0.017112983
8	0x3db3232a	0.087469414
9	0x3e0fa116	0.14026293
10	0xbe085b58	-0.13316095
11	0x3d4de1e0	0.05026424
12	0x3e1553cf	0.14582752
13	0x3e17386d	0.14767618
14	0xbdbb903a	-0.091583684
15	0x3a0d3e76	0.00053880305
16	0x3dc4e172	0.09613313
17	0xbda0c19d	-0.07849429
18	0x3dce6f36	0.100798056
19	0x3d9b930c	0.07596406
20	0xbe11dac3	-0.14243607
21	0xbce1d008	-0.027565017
22	0x3dafd20b	0.085849844
23	0xbde69292	-0.11258425
24	0xbd724c78	-0.059154958
25	0x3b72529e	0.0036975513
26	0xbdc4799d	-0.095935084
27	0xbc3b9efe	-0.011451481
28	0x3c020706	0.007936245
29	0xbd05c214	-0.03265579
30	0xbcb3c9d8	-0.021946833
31	0xbd2cdb83	-0.04220153
32	0x3e0a2d70	0.13493896
33	0x3d4de9a1	0.050271634
34	0xbdaa04c1	-0.08301688
35	0x3e0dcbbd	0.13847251
36	0x3dff9ade	0.124807104
37	0x3c5ffc0c	0.0136709325
38	0xbdbb3d05	-0.09142498
39	0xbe20a216	-0.15686831
40	0x3d4e5f05	0.050383586
41	0xbd0224f2	-0.031773515
42	0x3cc13303	0.023583895
43	0xbd646e2b	-0.055769127
44	0xbe1c0ab9	-0.15238465
45	0x3dc2e509	0.09516341
46	0x3bf3205f	0.0074196304
47	0x3d76eaa4	0.060282364
48	0xbdfc6840	-0.123245716
49	0xbdf09928	-0.11747962
50	0x3df2fb2b	0.11864313
51	0x3dbde2fa	0.09271808
52	0x3e1a1230	0.15046
53	0x3df7e83b	0.12104841
54	0x3e018ac8	0.12650597
55	0xbdac439c	-0.08411333
56	0xbe1a1292	-0.15046147
57	0x3ddae500	0.106882095
58	0xbd53b839	-0.05168936
59	0xbe185939	-0.14877786
60	0x3c481a20	0.01221326
61	0x3d8fd29d	0.07022593
62	0x3e087576	0.13326058
63	0xbe1cbd88	-0.15306675

encoder.15.weight f4 [256, 192]
0	0x3d06b8b2	0.032890983
1	0x3d7638be	0.060112707
2	0x3d4eb660	0.050466895
3	0x3d5e5907	0.05428412
4	0xbd1cfeef	-0.03832906
5	0xbd08ec48	-0.03342846
6	0xbd6051a8	-0.054765373
7	0x3d4b9084	0.049698368
8	0x3d25869d	0.04041158
9	0xbd3feebf	-0.046858545
10	0x3d33b5d0	0.04387456
11	0xbd80280a	-0.06257637
12	0x3bb1fbac	0.005431613
13	0x3c31613c	0.010826405
14	0xbba86988	-0.0051395334
15	0x3c18ab14	0.009318132
16	0x3c181d72	0.009284364
17	0xbd15bb10	-0.03655535
18	0x3d32bb90	0.043635905
19	0xbd848a83	-0.064717315
20	0x3c0c43cf	0.008561089
21	0x3d8d0cb1	0.06887186
22	0xbcd6dac7	-0.026227368
23	0xbccb815d	-0.024841959
24	0xbd63c5ef	-0.055608686
25	0x3d21d205	0.03950693
26	0xbb7ca8e7	-0.0038552822
27	0xbd67b3d9	-0.056568
28	0x3d1b44a1	0.037907247
29	0x3d1410c1	0.03614879
30	0xbd3e638a	-0.046481647
31	0x3d87af13	0.0662519
32	0x3d81ab80	0.06331539
33	0xbba32b03	-0.0049794926
34	0x3cebc6a6	0.028781246
35	0x3d870315	0.06592385
36	0xbc08ad28	-0.008342065
37	0xbd0fb200	-0.035081863
38	0x3cb52717	0.022113366
39	0x3d3b9515	0.045796473
40	0xbd17387c	-0.036919102
41	0x3d0542ca	0.0325344
42	0x3d6ab412	0.057300635
43	0x3d53e1e5	0.0517291
44	0x3d35f3ef	0.044422086
45	0x3d88a035	0.06671182
46	0x3d897c88	0.067132056
47	0x3c306a8b	0.010767589
48	0xbd4de76d	-0.050269533
49	0xbd6fc13d	-0.058533896
50	0x3bf0bfe7	0.0073470953
51	0x3c037854	0.008024294
52	0x3cfa3cbd	0.03054654
53	0x3e026c66	0.12736663
54	0x3d1fc8ec	0.039009973
55	0x3cfc6b23	0.030812806
56	0xbd8154dd	-0.063150145
57	0xbd693a6d	-0.056940485
58	0xbc8dd003	-0.017311102
59	0xbd3adc8f	-0.045620497
60	0xbbb21b0e	-0.005435354
61	0x3d32c6a9	0.04364649
62	0x3dae56eb	0.08512672
63	0x3af1529f	0.0018411464
64	0x3d66bba9	0.05633131
65	0x3cf3c81d	0.029758507
66	0x3c930e0a	0.01795103
67	0xbd7d6afd	-0.06186961
68	0xbd9113de	-0.070838675
69	0x3cbd0d7c	0.023077719
70	0xbc1fe5d3	-0.009759384
71	0x3d4fa22f	0.05069178
72	0xbd97db57	-0.07414883
73	0x3ce9f14a	0.028557438
74	0x3d5233c4	0.0513189
75	0xbc5efe5f	-0.0136104515
76	0x3d0ce02b	0.03439347
77	0x3ce7a1c4	0.028275378
78	0x3d4bbb01	0.049738888
79	0x3d27ed87	0.040998008
80	0xbb6ba862	-0.0035958518
81	0xbc08e7c7	-0.008356041
82	0xbcee3c2e	-0.02908143
83	0xbbda1564	-0.006655382
84	0xbd25fcf4	-0.040524438
85	0xbdd7d186	-0.1053801
86	0xbdaff977	-0.085925035
87	0x3d32b509	0.04362968
88	0xbda0ea5a	-0.07857199
89	0x3caaf444	0.020868428
90	0x3d9d94f5	0.07694427
91	0x3c6e2406	0.014534956
92	0xbc5a675a	-0.013330305
93	0x3d3a863d	0.045538176
94	0x3d1ab71d	0.037772287
95	0x3bf6478e	0.007515854
96	0x3d2bc646	0.041937135
97	0xbcdf87c0	-0.02728641
98	0xbcdb8bc4	-0.026800044
99	0xbd8571a6	-0.06515817
100	0xbc62b60c	-0.013837349
101	0xbc882c95	-0.01662282
102	0x3d9d5da6	0.07683878
103	0x3c79dbc9	0.015250155
104	0x3d976350	0.07391989
105	0xbda7debe	-0.081967816
106	0xbcb260fe	-0.021774765
107	0xbd83f379	-0.06442923
108	0x3bc34d6e	0.005960158
109	0x3c0de5f8	0.008660786
110	0xbcdd3bec	-0.027006112
111	0x3c9fa24f	0.019486574
112	0xbd3c124b	-0.045915883
113	0xbc4ff0a0	-0.012691647
114	0xbaa33307	-0.001245112
115	0x3d6d0992	0.057870455
116	0x3bd4efa9	0.0064982963
117	0xbd616664	-0.055029288
118	0xbc06ef0c	-0.008235704
119	0x3c691225	0.014225517
120	0xbdbf8a9d	-0.0935261
121	0x3d11dd3a	0.03561137
122	0x3d2c150e	0.042012267
123	0x3d8624b8	0.06549972
124	0x3cee23ab	0.029069742
125	0xbcf3c537	-0.029757125
126	0x3d955776	0.072920725
127	0xbc4b8c7b	-0.01242363
128	0xbcbaadb8	-0.022787914
129	0xbc21ff57	-0.009887538
130	0x3d47fa3d	0.04882263
131	0x3d2ed025	0.04267897
132	0xbcbabe79	-0.022795903
133	0xbcc70f78	-0.024299368
134	0x3d2bd984	0.041955486
135	0x3be4f37a	0.0069870325
136	0xbc56a71d	-0.013101366
137	0x3c945e6f	0.018111436
138	0x3c7c9de7	0.015418506
139	0xbd52d3e6	-0.051471613
140	0x3d38acc4	0.045086637
141	0xbc020810	-0.007936493
142	0xbcbb7a17	-0.022885365
143	0xbb9194c7	-0.0044427845
144	0x3de0da3f	0.10979127
145	0x3d91fa13	0.07127776
146	0x3daa0d36	0.08303301
147	0x3a69809b	0.00089074083
148	0xbcadafd9	-0.021202015
149	0x3d9e1c6d	0.077202655
150	0xbc408750	-0.011751011
151	0xbc70f624	-0.014707122
152	0xbd18e751	-0.037329976
153	0xbd2d0c1a	-0.04224787
154	0xbd8deb6a	-0.06929667
155	0xbc8695ad	-0.016428793
156	0x3cb546f5	0.022128562
157	0xbd0cf148	-0.03440979
158	0x3ccc1014	0.02491001
159	0x3c2d9927	0.010595596
160	0xbc254aad	-0.010088605
161	0xbd85e728	-0.0653823
162	0xbca5b409	-0.020227449
163	0x3ce6d3d7	0.028177185
164	0x3b15d9b5	0.002286536
165	0x3c3f2720	0.011667043
166	0xbb9cc0b6	-0.004783715
167	0x3de44dbf	0.111476414
168	0xbc9dae24	-0.019248076
169	0x3c4457e3	0.011983844
170	0xbc9c891d	-0.01910835
171	0xbd2bb8a8	-0.04192415
172	0x3d373212	0.044725485
173	0xbcfce92c	-0.030872904
174	0xbc4d8fc3	-0.0125464825
175	0xbd84a053	-0.06475892
176	0xbda8f8b9	-0.08250565
177	0xbc776200	-0.015099049
178	0xbd0fb6eb	-0.035086554
179	0xbca85f0c	-0.020553134
180	0xbd8bee80	-0.068326
181	0x3d3dbba6	0.046321534
182	0x3cb47d59	0.022032427
183	0xbd588e11	-0.05286986
184	0x3c9db0a1	0.019249262
185	0xbd847c2b	-0.06468996
186	0xbd2ae11c	-0.041718587
187	0x3d8a4528	0.06751472
188	0xbc618165	-0.01376376
189	0x3cd4aacc	0.025960349
190	0xbd4d47b1	-0.0501172
191	0xbd6033cb	-0.054736894
192	0x3d3fa538	0.046788424
193	0x3ce5e384	0.02806259
194	0x3c4df2fe	0.012570141
195	0xbc8f18da	-0.017467905
196	0xbd41d0b6	-0.047318183
197	0xbcd73a23	-0.026272839
198	0x3c697f77	0.014251581
199	0xbd04295e	-0.032266013
200	0x3d4b6b7d	0.049663056
201	0x3d88119f	0.06643986
202	0x3bec5a22	0.007212893
203	0xbd991bd7	-0.07476013
204	0x3c84964f	0.016184954
205	0x3cd5138b	0.026010295
206	0xbd407bc7	-0.046993043
207	0xbd04c5ad	-0.03241508
208	0xba9a98dc	-0.0011794823
209	0xbd71ae4c	-0.059004113
210	0x3d8475ab	0.06467756
211	0x3cd8317e	0.026390787
212	0x3d317d75	0.043332536
213	0x3c5f9829	0.013647118
214	0x3d7787f2	0.060432382
215	0x3cbf2e8d	0.023337627
216	0xbd91c8c5	-0.07118372
217	0xbc367725	-0.011136805
218	0xbce5d3c8	-0.028055087
219	0xbd9015f3	-0.070354365
220	0xbd43fed6	-0.047850452
221	0x3d3cb2e8	0.046069056
222	0x3c97fe11	0.018553765
223	0xbd0b15da	-0.033956386
224	0xbc44d2c1	-0.012013138
225	0x3d669847	0.056297567
226	0xbb9d1b08	-0.004794482
227	0x3d432622	0.04764379
228	0x3d2fe684	0.042944446
229	0xbcc00a4b	-0.023442408
230	0x3c430308	0.011902578
231	0x3ca17614	0.019709624
232	0x3d9c079b	0.07618638
233	0xbd701609	-0.058614764
234	0xbbae4f74	-0.00531953
235	0x3d04d7dd	0.032432426
236	0xbaa36f1b	-0.0012469025
237	0xbcad0485	-0.02112032
238	0xbd404c0d	-0.046947528
239	0xbd8cd35e	-0.068762526
240	0x3cbebf7b	0.023284664
241	0x3ca52502	0.020159248
242	0xbd321fc9	-0.043487344
243	0x3cccc2b5	0.024995187
244	0x3d575f32	0.05258102
245	0xbc8fe3ec	-0.017564736
246	0xbc22ae17	-0.009929202
247	0x3c50b43d	0.012738285
248	0xbcfe7058	-0.031059429
249	0x3bf7d698	0.0075634234
250	0x3d432d33	0.047650527
251	0xbd1a0778	-0.03760478
252	0xbcb80d6d	-0.02246734
253	0x3d20334f	0.03911143
254	0x3d28395e	0.041070335
255	0x3d5e9693	0.054342818
