dump/source_encoder_cwru_supervised5.pt (torch, 284865 bytes, 12 tensors)

encoder.0.weight f4 [8, 1, 32]
000000 9b 7d 70 3d 5f 79 06 3d f3 e0 a4 3d 63 b7 5d be
       0.058713537 0.032830592 0.08050718 -0.21651988
000010 0d 04 21 be 85 39 39 3e 46 66 79 be 54 58 9f bd
       -0.15724202 0.18088348 -0.2435542 -0.07780519
000020 48 d3 61 bd 73 b0 0c bc ed 91 4d be 31 17 44 3d
       -0.055133134 -0.008586991 -0.20075198 0.04787368
000030 19 e2 1a be 17 c6 87 bd 48 1c 54 3e 34 c8 2b 3a
       -0.15125312 -0.066295795 0.20713913 0.0006552965
000040 ee 80 21 be 96 97 d4 3d ec af a1 bd 54 05 e6 bb
       -0.15771839 0.10380475 -0.078948826 -0.007019678
000050 73 58 ae bd 70 73 5d 3e c7 67 74 be b7 89 d2 3d
       -0.08512964 0.21626067 -0.23867713 0.10280173
000060 41 88 18 3d 8f e4 92 3d 73 82 45 be 6a c1 57 3e
       0.037239317 0.071725 -0.19288044 0.21069875
000070 b8 bd 14 be f8 9a 54 bc 08 5b 25 3e c2 87 40 be
       -0.14525497 -0.012976401 0.16148007 -0.18801787
000080 af 1a 5e 3e c1 14 08 be 8d bb 4f be 6a fe e7 bd
       0.21689866 -0.13289167 -0.20286389 -0.113278225
000090 d6 f5 36 be b0 1b 0c be bd f0 f7 bd 93 0c 86 bd
       -0.17867216 -0.13682437 -0.12106464 -0.06545367
0000a0 4f bd 1b 3d d8 71 5c bd 04 39 0b be 97 f3 1f be
       0.038022336 -0.053819507 -0.13595968 -0.15620266
0000b0 5b e6 4d 3e b6 0c 2e 3e dd dd 51 be e4 3e 16 3e
       0.20107405 0.16997036 -0.2049479 0.14672428
0000c0 f9 8d c8 3d 5c 0c 7b bd 0e ac 04 be 83 ca b5 bc
       0.09792704 -0.061291084 -0.12956259 -0.022191292
0000d0 93 71 ad bc 40 28 73 3d e3 da fc 3d 5a 55 3e bd
       -0.02117232 0.059364557 0.12346437 -0.046468116
0000e0 85 22 c4 3d 10 29 1c bd a6 ac 85 3d bd bf 95 bc
       0.095768966 -0.038125098 0.06527071 -0.018279904
0000f0 5d 0b 1c bd 19 5b b9 bd 19 da 03 3e 23 65 1a 3d
       -0.038096774 -0.090505786 0.12876166 0.037694108
000100 db 53 89 bd 7e ea dd ba 78 f9 ad bd 00 3d 19 be
       -0.06705447 -0.0016930846 -0.08494848 -0.14964676
000110 fc c2 ed 3d b6 9a 92 bd 98 72 da bd ce d7 80 bd
       0.11609456 -0.07158415 -0.10666388 -0.062911615
000120 84 d9 25 3e e5 10 cb 3c 64 7c 89 bc 38 43 72 bc
       0.16196257 0.02478833 -0.016782947 -0.014786534
000130 03 43 4e be 03 09 a5 bd 61 cb 4e be 19 ec 8d bd
       -0.2014275 -0.080583595 -0.2019477 -0.06929798
000140 4c 9d bb 3d d3 b4 03 3e c8 41 e8 3d 31 bf aa 3d
       0.091608614 0.12861948 0.11340672 0.08337248
000150 e5 8d b4 bd df fd 70 be a0 6d 47 3d 3a 13 37 3d
       -0.08816127 -0.23534344 0.04868853 0.04469607
000160 5c 0a 11 bc a2 2b 69 3c b1 7c 73 be ca 64 8c bd
       -0.0088525675 0.014231594 -0.23778035 -0.068551615
000170 60 01 98 3d df c0 7a bd af 85 62 3b cb 89 dd 3d
       0.07422137 -0.061219092 0.0034564545 0.108172975
000180 ef fa 9a bc f0 b2 34 3e 04 1a 0e be c5 04 c3 bd
       -0.018918483 0.17646384 -0.13877112 -0.09522394
000190 73 e0 37 3d 5b 1d 9c 3c da ae 2c be 7b d0 c0 bd
       0.044891786 0.019056967 -0.16863576 -0.094147645
0001a0 82 d1 82 3d de ab ee bd 1c 5d 8c 3d 6b ce 1d be
       0.06387617 -0.11653875 0.06853697 -0.15410773
0001b0 88 8c 04 3d 07 37 95 bd d4 de 0d bd 59 f8 49 be
       0.032360584 -0.07285886 -0.034636334 -0.19723643
0001c0 40 57 25 3e 18 74 7b 3d 83 39 3f bd 5c c0 78 3e
       0.16146564 0.061390013 -0.046685707 0.2429213
0001d0 b6 9b 88 bd 24 b7 72 be 66 f3 21 3e 3a 0d 52 bc
       -0.066703245 -0.23702675 0.15815505 -0.012820536
0001e0 80 97 11 be b6 02 f4 3d 14 cd a1 3d 4a 06 ce bd
       -0.14217949 0.119145796 0.07900444 -0.10059793
0001f0 3c 77 2c 3e 0c 86 f9 bd 48 9a bf 3b 43 16 37 be
       0.1684236 -0.121837705 0.005847249 -0.17879586
000200 e5 49 52 be 56 6b 22 bb 94 4a 39 3e 25 2b 21 bd
       -0.20536001 -0.0024783215 0.18094856 -0.039347786
000210 29 4b 28 3e 13 31 24 3e 60 15 12 3e 6f fb 1a 3d
       0.16434921 0.16034345 0.14265966 0.037837442
000220 7a df 04 3e 31 0f 0d 3e 3b 87 e2 bd 83 21 eb 3d
       0.12975875 0.13775326 -0.110609494 0.11481001
000230 5f 27 b5 3c 51 57 b9 bd 44 5a 3e 3e 23 56 0c 3d
       0.0221135 -0.090498574 0.18589121 0.034261834
000240 00 ca 0c bd 82 b0 b3 bd 61 8c 9a 3d 49 52 6e be
       -0.03437233 -0.087739006 0.075463064 -0.23273577
000250 53 48 a4 bd 04 9a 31 3e 23 f9 8b 3d cd f8 1c bd
       -0.08021607 0.17343909 0.068346284 -0.038323212
000260 46 23 14 be f7 60 46 3e f7 a5 0e 3e c7 5d 39 3d
       -0.14466581 0.19372927 0.13930498 0.04525545
000270 a8 4e eb 3d 78 19 10 be 13 0e e4 bd 39 97 35 be
       0.11489612 -0.14072216 -0.11135497 -0.17733468
000280 23 9c d4 bd e2 c2 b4 bd f0 ae 55 3e 2e 3e 4c be
       -0.10381343 -0.088262334 0.20867515 -0.19945595
000290 cc 3c 29 bd 4d 8a ff 3d 5b 4a 48 3e 8f 03 33 bd
       -0.041317746 0.12477551 0.19559614 -0.043704566
0002a0 15 3d c3 bd 7e fc 41 3e 91 9d 31 be 08 fd ab bb
       -0.09533135 0.18943974 -0.17345263 -0.0052486695
0002b0 37 ad b2 bd 27 85 47 be d0 a3 d3 3d 0e 27 c7 3d
       -0.08724444 -0.19484387 0.10333979 0.09724246
0002c0 e7 1e cb 3d 5e 5c 1d be 0d 43 65 3e be 94 75 bd
       0.099180035 -0.15367267 0.22388859 -0.059956305
0002d0 b7 89 0f 3e 78 2f f9 3c 7c a5 a3 bd 14 19 0a be
       0.14017378 0.030418143 -0.07990548 -0.13486129
0002e0 84 ca a2 3d 0b f6 34 3e 95 5c 67 be 06 fd 5e 3e
       0.07948783 0.17671983 -0.22593911 0.21776208
0002f0 12 f4 55 be 09 14 64 be da c3 07 3e 90 73 84 3d
       -0.20893887 -0.22273268 0.13258305 0.06467354
000300 bf 09 85 3d 18 1c a4 bd 6c 6b 88 bc ef 97 e6 bd
       0.064959995 -0.08013171 -0.016652785 -0.11259448
000310 89 2e 2c be d6 df 07 be 73 61 79 3e 41 de b2 bd
       -0.16814627 -0.1326898 0.2435358 -0.08733798
000320 9e 06 a0 3d 78 a6 f2 bd 8d 1a 0e be 8f 85 f2 3d
       0.07813762 -0.11848158 -0.13877316 0.118418805
000330 4e cf fb 3d e5 ec 08 be 83 da 6a 3d e8 25 32 bd
       0.122953996 -0.13371618 0.057337295 -0.04349318
000340 5a 94 81 bc 5c 49 05 be 56 d3 c6 3b 89 a8 ca bd
       -0.01581781 -0.13016266 0.0060676737 -0.09895427
000350 a5 6e 4f bd 63 10 e9 bd 69 3c 1f 3e 4c b9 3d be
       -0.05064263 -0.11380079 0.15550388 -0.18527716
000360 28 17 71 3e 65 d0 20 be 5d a5 b4 3d 06 d8 f4 bc
       0.2354399 -0.15704496 0.08820603 -0.029888164
000370 fc 7d 2c 3e 43 3c 9f bb 03 26 3d be 9b bf a4 3d
       0.16844934 -0.0048594787 -0.18471532 0.08044358
000380 12 46 fc 3d 50 4c 62 3d 2a e8 12 be 29 ba a8 bb
       0.12318052 0.05524856 -0.14346376 -0.005149145
000390 d6 20 96 bd 60 6a 0e 3e 26 9b 3f 3c 9a d1 33 3e
       -0.07330482 0.13907766 0.011694705 0.17560425
0003a0 ec ef 55 3c 65 ce 13 bd f8 6a d2 bd a4 b7 49 3e
       0.01305769 -0.036085505 -0.10274309 0.1969896
0003b0 c8 7f ec bc c4 e9 48 3c 4d 71 01 bd 4e 55 d8 bb
       -0.028869525 0.012262765 -0.031602193 -0.006601966
0003c0 aa 4b 0d 3e ed 00 c0 3d 36 2f 03 be 4d a4 40 3e
       0.13798395 0.093751766 -0.12810978 0.18812676
0003d0 90 dc 23 be 1d b9 c2 3d 0f ec 88 3d 43 aa 00 3e
       -0.16002107 0.09507964 0.066856496 0.1256495
0003e0 75 43 1d 3d 16 9a 69 3e 3d 19 1d 3e 14 79 4f be
       0.03839441 0.22812685 0.15341659 -0.20261031
0003f0 a8 7a 45 3d 5a dc ea bd c1 9f d5 bd 02 60 1b 3e
       0.048212677 -0.1146781 -0.10430861 0.15173343

encoder.0.bias f4 [8]
000000 b3 0f 4d 3b 42 0f 0d be fd e1 1b 3d 21 c1 a5 3d
       0.0031289875 -0.13775352 0.038057316 0.08093477
000010 66 03 18 be 66 b1 b2 3d 64 11 c8 3d 37 d9 13 3e
       -0.14845046 0.08725242 0.09768942 0.1443833

encoder.3.weight f4 [16, 8, 16]
000000 86 75 27 3d a2 31 b2 3c eb 8a 3a 3d f1 5d ad 3d
       0.040883563 0.021752182 0.04554264 0.084651835
000010 a2 a7 95 3d cf 93 94 3d bf cb 60 bd 5c 9b 59 3d
       0.07307364 0.07254755 -0.054881807 0.053126678
000020 0f 1e c0 3d 1a 3b 07 bd cf 06 f2 bc 15 0f 08 3c
       0.09380733 -0.033015348 -0.029544262 0.008304377
000030 86 00 84 bd 8a cd 00 bd 01 32 35 3d 1e c7 83 bd
       -0.06445412 -0.031446017 0.04423714 -0.06434463
000040 8d 63 c0 bb a3 91 de 3d cb 39 71 3d 15 01 40 3d
       -0.0058712424 0.10867622 0.058893006 0.046876032
000050 29 b0 9a bc d9 e1 39 bd ee df 50 3d 44 bc 1e 3d
       -0.018882828 -0.0453814 0.050994806 0.038753763
000060 e7 fe 7b 3d 53 b8 a2 3b 43 9e 82 bd b4 1c a1 3d
       0.06152239 0.004965821 -0.06377842 0.07866803
000070 5c 18 9d 39 d2 ea a2 3d b3 d2 d1 3d 97 51 40 bd
       0.00029963523 0.07954945 0.10245266 -0.04695281
000080 b8 7f 12 3b 21 b3 3d bd 25 05 26 bc df 14 1e bd
       0.0022353958 -0.04631341 -0.0101330625 -0.038594123
000090 66 71 ab 3d 10 12 6f bd 50 44 28 3d f8 00 41 3c
       0.083712384 -0.058366835 0.041080773 0.011780016
0000a0 46 95 60 3d a6 73 69 bd 05 72 4f bd ad 3b 96 bc
       0.05482986 -0.056995057 -0.050645847 -0.018339003
0000b0 5d f8 b9 3d 7e 72 9f 3d 3d ee 7c 3d d4 fe 9b 3c
       0.09080575 0.077855095 0.06175064 0.01904241
0000c0 69 3e aa bc ed ad 2a 3d df ca 35 bc 5b 28 b4 bc
       -0.020781713 0.041669775 -0.0110957315 -0.0219919
0000d0 a6 f2 8e 3d c7 41 1b 3d 44 28 bf bb ce 8d 9b bc
       0.06979875 0.037904527 -0.0058336575 -0.018988516
0000e0 8c 2b b1 3b 39 cb 1f bd 66 99 e9 bc 7b fa 62 3d
       0.0054068025 -0.039012168 -0.028515529 0.055414658
0000f0 a8 26 c0 3c 0c 55 2b 3c 26 b9 ee bc 62 63 89 bb
       0.023455933 0.0104572885 -0.02914102 -0.0041927556
000100 68 0b 31 bd 20 2f df 3c 6c 12 b5 3d 4f 30 75 3d
       -0.04322377 0.02724415 0.08841404 0.059860524
000110 c1 08 c9 3d 11 d7 5a bd e1 6b 04 3d 32 16 3c bd
       0.09816123 -0.05342776 0.032329444 -0.045919605
000120 bf e4 57 3d fe 7e 91 3b 87 06 16 3d 02 60 6b bd
       0.052708384 0.0044401875 0.03662732 -0.057464607
000130 8f 19 60 3d 93 8e d7 3d 98 c1 bb 3d 42 c8 8a bd
       0.054711875 0.10525241 0.091677845 -0.067764774
000140 de 14 9c 3d d4 11 b0 3c a8 3c 45 bc 67 33 a4 3c
       0.076211676 0.021492876 -0.012038387 0.020044042
000150 24 f2 f3 3a 07 c2 50 3d 77 e3 1d 3d 2f ac 18 3b
       0.0018611592 0.05096629 0.038547006 0.0023295989
000160 dc 87 9d 3d 45 ed 04 bc d3 ac ea bc 95 88 ce 3c
       0.07691929 -0.00811321 -0.028646862 0.025211612
000170 5e 1b 77 bd 57 26 2b bd db 30 94 bd ab 18 b0 bd
       -0.060328834 -0.04178461 -0.07235881 -0.08598455
000180 82 e2 53 3d 6b 87 01 3d 14 93 b7 3c b5 97 bb 3d
       0.051729687 0.031623285 0.022409 0.09159795
000190 bc b2 87 bb 1c 66 25 bd 7d 9d 83 bd 54 ba a2 3d
       -0.00414118 -0.040380582 -0.06426523 0.079456955
0001a0 1b 76 22 3d 8c 22 12 bd d8 bf 99 bd 18 63 04 bd
       0.039663415 -0.035677478 -0.075072944 -0.032321066
0001b0 ca f7 95 3d 3e f5 3d 3b b1 ba 14 3d 91 ec 8e 3d
       0.07322653 0.0028985287 0.036310855 0.06978715
0001c0 8d 82 54 bd 56 44 18 bd cf 1b 8b 3d 44 4f 5f 3d
       -0.051882315 -0.037174545 0.067924134 0.054518953
0001d0 2a fc 17 bd ca ab 92 3d db 72 a5 bd 10 95 e8 3b
       -0.037105717 0.071616724 -0.080785476 0.0070978478
0001e0 75 e1 5d bd f6 cf 09 bd 93 81 ac bb 1a 70 e6 3c
       -0.05417009 -0.033645593 -0.00526447 0.028129626
0001f0 45 8a 69 bd b0 43 d1 bc 24 b5 8c 3c 7b 35 9a bd
       -0.05701663 -0.025544971 0.017176218 -0.07529732
000200 de 82 27 bd 8a 34 82 3d f6 97 3e 3d 9e d9 38 bd
       -0.04089629 0.06357677 0.04653164 -0.04512941
000210 65 40 be 3d 48 23 d4 3d f9 70 a7 3b 18 86 14 3d
       0.09289626 0.10358292 0.005109903 0.036260694
000220 98 fd d8 3d 1e ad ff 3d f0 25 1d 3d 7d 61 b2 3d
       0.10595244 0.12484191 0.03836626 0.08710001
000230 d3 7e 4e 3d 1a 62 66 3d 6a ab 7b 3d 7c 0e 40 3b
       0.050413918 0.0562459 0.06144277 0.0029305508
000240 b2 6c 60 3d 05 8f 23 3d 21 93 41 3d 31 20 29 3d
       0.05479116 0.039931316 0.047259454 0.041290466
000250 03 f4 7c 3c c9 fa 79 3d a4 40 27 3d bb d4 82 3d
       0.015439036 0.061030183 0.04083313 0.06388231
000260 7e ca 88 3d bf 16 08 3e cb f6 d1 3d 96 d9 ee 3d
       0.06679247 0.13289927 0.1025215 0.11662595
000270 ec 10 fc 3c de 51 33 3c 14 c7 d1 3b e3 4d dd 3d
       0.030769788 0.010944812 0.006401906 0.10805871
000280 80 38 1a 3c 03 52 3b 3c ac dc 48 bc c6 5a c7 3d
       0.009412885 0.011433127 -0.0122596435 0.097341105
000290 e5 ac 07 bd 80 2d 1b bd 8f 9b 6e 3d 7e c3 1b 3d
       -0.03312387 -0.03788519 0.05825382 0.038028233
0002a0 2c c2 1f 3d 6e 34 85 3c 52 32 54 3c 50 ca 12 3d
       0.039003536 0.016260352 0.01295145 0.03583747
0002b0 98 9a 58 3d e5 b3 26 3d c8 ef fa bb 2f 2d 36 3d
       0.052881807 0.040698905 -0.0076579787 0.044476684
0002c0 7d 15 14 3d 30 b5 54 bd c1 64 60 bc 89 2c 8e 3a
       0.036153305 -0.051930606 -0.013695897 0.0010847013
0002d0 30 7d e2 3b cb 66 20 bd 77 76 b4 3d 23 0e 47 bd
       0.006911896 -0.03916053 0.08811658 -0.048597466
0002e0 35 31 db 3c 9e 84 7f bd b5 28 23 bd 99 ce a4 3d
       0.026756862 -0.062382333 -0.039833743 0.08047218
0002f0 53 c5 93 3d 09 a7 aa 3d b9 0d a6 3d 57 89 63 3d
       0.07215371 0.08332641 0.08108086 0.0555509
000300 f7 b0 03 bd 1b 37 33 bd ba 8d b9 3d 06 74 f0 3d
       -0.03215119 -0.043753725 0.09060235 0.1174088
000310 16 4d cb bc 9d be c4 3d 0d d2 3a 3d e1 db 3a bb
       -0.02481703 0.09606669 0.045610476 -0.0028512406
000320 95 f7 d4 3d 20 5a 8b 3d b0 a6 08 bc 04 4f f8 3d
       0.10398785 0.06804299 -0.008340523 0.12124446
000330 4b 57 1e bd 2c 66 61 3c bb 76 4c 3c 79 7e 80 3d
       -0.038657468 0.01375727 0.012479479 0.06274123
000340 c6 9a 6e 3d 30 e2 83 3d d5 d9 82 bd 72 bb 0f 3d
       0.058253072 0.06439626 -0.063892044 0.03509087
000350 6d fd 44 bd ba 27 1b bd d8 ae 8f bd af 6a 75 bd
       -0.04809325 -0.037879683 -0.07015771 -0.059916195
000360 1f 88 8d bd 72 f1 d2 bb 70 d9 0d 3d 9b 61 df bc
       -0.06910729 -0.006437474 0.034631193 -0.027268222
000370 d6 16 ee 3c a6 f8 4c bd 20 ee 83 bd f3 0b 63 3d
       0.029063623 -0.050041817 -0.06441903 0.055431318
000380 98 f0 1c 3d 8a 7d 94 3d 57 ea af bd 05 bf 52 3d
       0.038315386 0.07250507 -0.08589619 0.0514517
000390 86 a1 4a bc 50 3b a3 3d 54 d7 f1 3c 2f 42 62 bd
       -0.012367612 0.07970297 0.029521622 -0.0552389
0003a0 59 9c 7c bd cb 91 4c ba 2a 1c 90 bd 76 b5 b7 3d
       -0.061672542 -0.0007803707 -0.07036622 0.08970158
0003b0 d9 66 89 3d f5 87 ae bd a0 11 45 bd 0b 04 f7 bb
       0.0670907 -0.085220255 -0.04811251 -0.0075383238
0003c0 ed af 97 bd 84 f5 26 3d 41 35 9f bd 3e ec bb bd
       -0.07406602 0.040761486 -0.07773829 -0.09175919
0003d0 78 33 35 3d 26 19 2c bd d7 fd 51 bd 85 9e 5a 3d
       0.044238538 -0.04201617 -0.05126747 0.053373832
0003e0 b1 53 a6 3c d5 fc 47 bc 65 f2 19 bd 17 0e 57 3d
       0.020303579 -0.012206276 -0.03758468 0.05250367
0003f0 1d 1d 98 3d 6a 21 29 3d d4 77 45 bc ee 3f b1 bc
       0.07427428 0.04129163 -0.012052495 -0.02163693

encoder.3.bias f4 [16]
000000 41 cb cd bc 9e f3 25 bd f8 b9 a6 3d 24 0f 54 bd
       -0.025121333 -0.040515535 0.081409395 -0.05177225
000010 cd f3 b6 bd bb d7 bc bd 71 0f 4b 3d 2e e6 cc bb
       -0.0893322 -0.09220835 0.049575273 -0.0062530255
000020 60 de b4 bd e9 53 cb bc ec 0f 94 bd 64 7f 4d bb
       -0.08831477 -0.024820285 -0.07229599 -0.0031356448
000030 24 6f cc bd 91 36 e7 3d f2 9a cc bc 97 51 e5 3d
       -0.09982136 0.112897046 -0.024976227 0.11197203

encoder.6.weight f4 [32, 16, 8]
000000 56 b4 07 3d 67 e9 0a 3c 1c 2f 76 bd 6c 4a bf bd
       0.033130966 0.008478499 -0.06010352 -0.09340367
000010 0a f0 0c bc 89 55 2c 3d f6 ca af bc dd 92 8c bd
       -0.008602152 0.04207376 -0.021459084 -0.068639494
000020 a9 e2 ff bb 3b 4b 02 bd e1 c1 89 bc c4 f4 be bc
       -0.0078090024 -0.031810027 -0.016816081 -0.023310073
000030 e0 aa 79 3d 93 00 1b bc 36 8e a9 bd 85 1e 93 3d
       0.060953975 -0.009460586 -0.08279078 0.071835555
000040 c5 92 c2 bc a6 e2 b5 3d 09 06 70 bd cb 74 a5 3c
       -0.023751626 0.088811204 -0.058599506 0.020197293
000050 73 30 37 bd 9b 0f e1 bc ca 1b 6b bc 9e e4 97 3d
       -0.04472394 -0.027473262 -0.014349887 0.07416652
000060 2d 12 02 3d 3d 85 35 3d f8 c8 b1 3d a8 34 a9 3d
       0.031755615 0.04431652 0.0868091 0.082619965
000070 a6 84 78 bd af 77 82 3c dc 8c 43 3d 0e 37 09 bc
       -0.06067338 0.01592621 0.047741756 -0.0083749425
000080 6d 3a 31 3d 14 e1 81 bd 68 56 87 bc f0 31 b7 bc
       0.04326861 -0.06341758 -0.016520694 -0.02236268
000090 7f 9f 5d bd 75 b6 a3 3d 3f 60 35 3c 77 55 40 3d
       -0.054107185 0.07993785 0.01107031 0.046956506
0000a0 61 44 9a 3c 0b 57 05 3c 94 b5 70 3d 0a a5 8a 3d
       0.018831434 0.008138428 0.058766916 0.0676976
0000b0 e0 0b 1a bd ad 62 1a bd 62 26 3b 3d c8 54 c4 bd
       -0.03760898 -0.03769176 0.0456909 -0.09586483
0000c0 a0 a7 7a 3d 3f fd fd bc f2 dc 15 3c 34 28 c0 3d
       0.061195016 -0.031004546 0.009146916 0.09382668
0000d0 06 95 a2 3d 23 96 c8 3d e8 05 c8 3d a9 b3 4a bc
       0.0793858 0.09794261 0.097667515 -0.012371936
0000e0 a9 93 80 3b 48 59 b7 bd ee dc 99 bc 96 71 4d bd
       0.0039238525 -0.08952576 -0.018782105 -0.050157152
0000f0 fc 39 55 bd 5f 8a 8f 3c 29 f4 2d bd 23 f9 b3 bc
       -0.05205725 0.017522035 -0.042469177 -0.021969384
000100 99 84 3e bd 0a 9e 9e 3d 5f 61 a0 3c 0a 2f 4e bd
       -0.046513174 0.07744987 0.01957768 -0.05033783
000110 50 44 b3 bd 9c 54 c2 3b 78 41 55 3d 46 20 aa bb
       -0.08753264 0.0059304964 0.05206439 -0.0051918356
000120 70 b5 a5 bd 64 f6 db 3b 04 3b 7a 3d 66 ad 32 bd
       -0.08091247 0.0067127217 0.061091438 -0.043622397
000130 fe 95 91 3c 27 71 9b bd 1a fc a5 bd 2d f8 7f bd
       0.017771717 -0.075899415 -0.08104725 -0.06249254
000140 e2 47 74 bd 2a 3c 1a bc aa 3c c0 bd a8 84 3e 3d
       -0.059638865 -0.009413758 -0.09386571 0.04651323
000150 aa 20 51 3d 6e 12 99 3b 9d aa 7e 3d c3 f8 41 bd
       0.05105654 0.0046713864 0.06217443 -0.04735638
000160 56 16 22 bd d9 1d 86 3d ab 31 3f bd d5 e8 e2 bc
       -0.039572082 0.06548662 -0.046678226 -0.027698914
000170 67 fd c6 3b e4 70 c4 3c d3 db 25 3c e5 d1 20 bd
       0.0060726884 0.023979612 0.010123211 -0.03926267
000180 45 8b b2 bd 5a 32 86 3d 7d 58 9a bc e5 62 ba bd
       -0.0871797 0.065525725 -0.018841023 -0.09100894
000190 63 78 33 3d 8a 90 27 bd 50 65 cd bd ec bc 9d bd
       0.04381598 -0.040909328 -0.100290895 -0.077020496
0001a0 07 7e 20 3c 0c dd 22 bd fd 31 87 3c 4b 2c 9a 3d
       0.009795672 -0.039761588 0.016503328 0.075279795
0001b0 d4 0b 78 3d e7 aa 03 bc 5d 47 68 3d e8 58 ae bc
       0.060558155 -0.008036352 0.056708682 -0.021282628
0001c0 a3 33 8d bd 30 4c d0 3c b7 62 64 bd 0a 79 4e bc
       -0.068946145 0.025426954 -0.055758204 -0.0126021
0001d0 f5 9f b6 bd 8f 8c e0 bc 82 d4 65 bb 38 c7 f2 bb
       -0.08917228 -0.027410774 -0.0035069291 -0.0074090026
0001e0 05 8e 90 3c 56 8c e6 3d 9d 9d 29 3b 44 32 92 3c
       0.017645845 0.11257236 0.0025881298 0.017846234
0001f0 5d 70 1c bd 0b d8 71 3d de 38 7d 3c 2a ef fd 3c
       -0.038193095 0.059043925 0.015455453 0.030997831
000200 a4 de ee 3d 46 80 06 3e b9 04 84 3d fd 38 80 3d
       0.11663559 0.1313487 0.06446213 0.0626087
000210 0c ce 53 bd ab a4 16 bd 27 60 f6 bc e3 85 e2 3d
       -0.051710173 -0.036778133 -0.030075146 0.11060693
000220 ea 6e b3 3d bb 7f 7a 3d 8a cb b1 3d c6 c6 47 bb
       0.087613896 0.06115697 0.086814 -0.0030483468
000230 9a cd 34 bd 63 04 cb ba c5 2d f2 3d 49 f3 f1 3d
       -0.04414139 -0.0015488978 0.11825136 0.11813981
000240 21 88 af bb 5c 61 25 bd 62 3b 81 bd 98 d1 8f bd
       -0.005356804 -0.040376052 -0.063101545 -0.07022399
000250 7d fc 9a bd d3 08 17 3d 8f cc c9 bb cf 5f 4a 3d
       -0.075676896 0.03687365 -0.0061584185 0.049407776
000260 24 ba 84 3b b5 98 3b bd c4 64 20 bd 25 64 0a 3d
       0.00405051 -0.04579993 -0.039158598 0.03378691
000270 54 10 8d bc 9a 06 a7 3d 2a 5c 9d 3d 9b ec ad bc
       -0.0172197 0.08155556 0.076835945 -0.021230986
000280 ce 49 5c bc 1f d3 3f 3d 2e 4e 48 bd 65 89 a7 3d
       -0.013445331 0.0468322 -0.048902683 0.08180503
000290 77 1a 22 3d 26 2f 9c 3d bc 2f d9 3d 87 e1 6e 3c
       0.03957602 0.0762618 0.10604808 0.014580137
0002a0 5b 23 d9 3c dd 62 5f bb 8b e0 bb 3b 29 82 8d 3d
       0.026506117 -0.0034086027 0.0057335547 0.06909592
0002b0 b6 74 33 bd 93 01 e1 3c 1b 9d 77 3d 81 70 64 3d
       -0.043812476 0.027466571 0.06045256 0.055771355
0002c0 43 ae 67 3c 3c ec 90 3d 8c 81 63 bd 9d 9d 9e bd
       0.014140668 0.07076308 -0.055543467 -0.07744906
0002d0 ee 0d 96 3d cf cf 90 bc 21 9d 5b bd 3a 25 0e 3d
       0.073268756 -0.017677216 -0.053616647 0.03470347
0002e0 82 b4 af 3d d5 2c 8c 3d ce 08 21 3d a1 e3 75 3a
       0.08579351 0.068444885 0.039315037 0.00093799277
0002f0 10 08 b2 bb ec 17 1f bd e5 e8 1a 3d 9e f9 bd 3d
       -0.00543309 -0.038841173 0.03781976 0.09276126
000300 c0 0d 84 bc 47 45 0d 3d 50 a1 15 3c 20 18 68 bb
       -0.016119838 0.034489896 0.009132698 -0.003541477
000310 c4 6a f5 3c d5 2b 9b 3c f7 7e 91 3d e7 32 1d bd
       0.029958136 0.0189418 0.07104295 -0.038378622
000320 91 f6 f8 bc 8a 55 a6 3d 19 57 b7 3b 42 1c b8 3c
       -0.03039101 0.08121784 0.0055950996 0.022474412
000330 08 8a 3d bc 9b 83 35 3d 32 07 d7 3d 68 4b ba 3d
       -0.011568554 0.044314962 0.10499419 0.09096414
000340 64 e8 0a 3d 26 55 d8 3d 51 3a 2f 3d e1 77 68 3d
       0.03391303 0.10563116 0.042780224 0.05675495
000350 3f 30 06 3e fd f3 ec bc e9 a9 10 bd cf 09 c9 3d
       0.13104342 -0.028924936 -0.03531829 0.09816324
000360 a9 d8 20 3d 51 67 af 3d dd cb 71 bb 39 3c ef 3a
       0.039269123 0.08564628 -0.0036895194 0.0018252201
000370 49 c6 12 3d 25 43 75 3c c1 30 d8 3d 2e c2 59 3c
       0.03583363 0.014969622 0.10556174 0.013290925
000380 18 2d 38 3d 4e 78 05 bd 8d 36 25 bc a6 2b d1 3b
       0.04496488 -0.032585435 -0.010083807 0.006383377
000390 b7 ec db 3d 65 a4 80 3d 43 67 58 3d 3d d6 93 3c
       0.10738509 0.06281356 0.052832853 0.018046493
0003a0 de 44 d3 bb 8f 24 82 3c ec 73 cc 39 6f e0 61 bc
       -0.0064474186 0.015886573 0.0003899628 -0.013786419
0003b0 37 1e 95 bd 7d 8f c1 3d 89 27 87 3c 82 9f a8 3d
       -0.07281154 0.09451196 0.016498344 0.08233549
0003c0 c4 87 8c 3d fb 9f d2 3d c0 59 1a bb 1c ef 5d 3d
       0.06861833 0.1028442 -0.002355203 0.05418311
0003d0 2a 61 af 3d 76 1a b4 3d 1f 44 e8 3d 35 63 a4 3d
       0.085634544 0.087941095 0.11341118 0.08026735
0003e0 ef ea 43 3c ec 45 9d 3d 7f c9 10 3d 6b 83 8a bd
       0.011957868 0.07679352 0.03534841 -0.06763347
0003f0 01 09 45 3d b0 88 67 38 e0 13 a8 3d ab 17 2c bc
       0.04810429 5.5201992e-05 0.08206916 -0.01050369

encoder.6.bias f4 [32]
000000 3e 3b ff 3d 4c 92 d6 bd 6e 67 e5 bd 96 89 4a bc
       0.124624714 -0.10477123 -0.11201368 -0.012361905
000010 d9 7b ee 3d f8 28 c0 bd 12 4a 9e 3d 52 ab a0 bd
       0.11644716 -0.09382814 0.077289715 -0.07845177
000020 8f 13 07 3c 7a c3 6c bd e5 4d ad bd fe 10 8a bd
       0.008244409 -0.05780361 -0.08462123 -0.06741522
000030 7d 42 f2 3d 2e 02 8f bd fb 10 b4 bd 70 86 9c bc
       0.11829088 -0.069828376 -0.08792301 -0.019107074
000040 e5 75 f0 3d 20 9f d9 3d a6 08 c8 bd f6 15 f1 bc
       0.117412366 0.10626054 -0.097672746 -0.029429417
000050 c4 e3 04 3e bd 65 9c bd 68 eb 90 3d 49 39 e2 3d
       0.1297751 -0.076365925 0.0707615 0.110460825
000060 83 15 71 3d d9 3d 39 bc b4 aa b1 bd c2 71 b8 bd
       0.058858406 -0.01130625 -0.08675137 -0.090060726
000070 c5 ac 21 bd 61 d6 88 bd e1 ae d7 bd af 9c 9a 3d
       -0.039471406 -0.066815145 -0.105314024 0.07549416

encoder.9.weight f4 [32, 32, 8]
000000 a7 f0 a8 3c 10 12 3a 3c a4 ad cb 3d 0b cc 80 3b
       0.020622564 0.0113568455 0.09945229 0.003930574
000010 55 4f e3 3d c1 34 a2 3d 06 fb 8c 3d 69 ce 60 3c
       0.11099116 0.07920218 0.068838164 0.013721087
000020 bc 4a 63 3c 75 12 e9 3c 67 52 8b bd 60 dc b4 bc
       0.0138727985 0.028451184 -0.068028264 -0.02207774
000030 9d 2a e7 3c a4 e4 fe bc 35 50 22 bd 85 8c aa ba
       0.028218562 -0.031114884 -0.039627273 -0.0013011849
000040 04 b6 93 bd f9 b7 8c bd 97 45 82 bd 03 e6 14 bc
       -0.07212451 -0.068710275 -0.063609295 -0.009088042
000050 b6 01 97 3c 85 e6 72 3d 46 fd 17 3d 91 1f e8 3c
       0.018433433 0.05930187 0.037106775 0.028335365
000060 bb da 00 3d 48 d5 08 bd eb 92 a7 3c f6 6b 38 3d
       0.031458598 -0.033406526 0.020455798 0.045024835
000070 b6 92 27 3c 77 50 90 3c 82 96 c0 3c 68 ba ef bc
       0.01022785 0.017616494 0.023509268 -0.02926369
000080 5f 6f b3 39 af 92 42 3c dd 3d c4 bc 35 ea 0f 3d
       0.00034224518 0.011875792 -0.02395528 0.035135467
000090 1a f5 0b bc 8d f2 1c 3d 81 f1 fb bb 44 b5 4c 3d
       -0.0085423235 0.038317252 -0.0076887016 0.049977556
0000a0 2a da d5 bc 73 e6 d3 bb 0f ea b6 3b a0 42 9f 3d
       -0.026105005 -0.0064666807 0.005582101 0.077763796
0000b0 6b 1f 21 bc bd 58 18 3d b0 21 49 3c e1 14 8d 3d
       -0.009834151 0.037194002 0.012276098 0.06888748
0000c0 d2 d4 ad 3d 13 bb 4e 3d 4e 5f 49 bc 21 ec 9c 3d
       0.08487858 0.050471377 -0.012290789 0.076622255
0000d0 ca b0 7a 3d c3 5a a7 3d 82 2b ac 3c 24 d7 7e 3c
       0.061203755 0.08171608 0.02101684 0.015554223
0000e0 ac bb 70 bd b5 84 fc 3b 36 8b 45 3d 7b 0c 00 3d
       -0.058772728 0.0077062496 0.048228465 0.031261902
0000f0 35 e6 b4 bc 4f 2f e8 bc c4 b0 6e bc f0 b8 b3 bc
       -0.022082428 -0.028342871 -0.014568511 -0.021938771
000100 f9 b0 88 bd 89 74 14 bb b4 b5 92 bd 15 3e 7f bd
       -0.0667438 -0.0022652468 -0.07163563 -0.062315065
000110 1d 16 46 bd fe 40 95 bd 68 df 34 bd 00 f0 1f 3d
       -0.048360933 -0.07287787 -0.04415837 0.03904724
000120 f4 1f 4c 3d d4 22 5d bd 2c df 55 bd 2e fb 46 3c
       0.04983516 -0.053988293 -0.052214786 0.012144847
000130 af c0 f5 bc e2 2a 0b 3d 10 6a 20 3d d4 67 75 3d
       -0.029999105 0.033976443 0.03916365 0.05991347
000140 e6 30 62 bd ee b1 09 bd c4 d7 c3 3c a9 86 27 bc
       -0.055222414 -0.033616953 0.023906596 -0.010224977
000150 83 58 df 3b 73 73 85 3b c7 45 57 3d 33 bd ca bc
       0.0068159713 0.0040726005 0.05255678 -0.02474842
000160 23 77 c0 bc 35 5e 02 bc 0e 9b 76 bc 83 bd 9f 3c
       -0.023494309 -0.007957031 -0.015051616 0.019499546
000170 b4 26 20 bc 62 c7 69 3c 8f 61 a3 bc ce 66 81 3d
       -0.009774853 0.014268728 -0.01994398 0.063184366
000180 74 1f 3d 3c 13 e1 8c 3d 08 b0 5c 3d fc dc b3 3d
       0.011543144 0.06878867 0.053878814 0.08782384
000190 2d 33 5b 3d da 8d 87 3b c2 17 53 3d 68 17 48 3d
       0.053515602 0.004136783 0.05153633 0.048850447
0001a0 fc b0 84 bc e7 a3 1c bd 9a 55 7d 3c 86 86 97 bc
       -0.016197674 -0.038242247 0.0154623035 -0.018496763
0001b0 d0 3c ce bc d7 77 65 bd 61 11 57 bd 16 f6 3d bd
       -0.025175482 -0.05602249 -0.05250681 -0.046377264
0001c0 25 98 28 bd b7 a1 5b 3c 94 87 8a bd 8f 36 9b bd
       -0.04116072 0.013405255 -0.06764141 -0.075787656
0001d0 92 84 44 bd 7a 8e fc bc b9 d4 15 3d 10 1e d2 bc
       -0.04797799 -0.030829657 0.03657982 -0.0256491
0001e0 c6 c9 63 bd f3 e7 83 3c ed 3c ff bc 0b a1 06 3d
       -0.055612348 0.016101813 -0.031156981 0.032868426
0001f0 09 46 4e bd 14 f3 d5 3c 06 2f 1b bb 53 30 dc bc
       -0.05035976 0.026116885 -0.0023679151 -0.026878512
000200 ce 81 16 3b 29 99 d2 bb 62 b2 a4 3d 89 4d 67 3c
       0.0022965553 -0.0064269495 0.08041836 0.014117607
000210 2e 62 90 3c ee 8c 97 3d 04 5a 99 3d 0e 43 49 3c
       0.01762494 0.07399927 0.07487872 0.0122840535
000220 0d 8b 8a 3d bc eb 2c 3c 5c 7f d8 3c b7 a7 94 3d
       0.06764803 0.01055425 0.026427917 0.072585516
000230 ba 86 b2 3d 61 38 64 3d 15 d7 15 bc 9d 37 db 3c
       0.08717103 0.05571783 -0.009145518 0.026759917
000240 68 5e 8b bd 32 2e ee 3c 34 f4 21 3d 1d 84 59 bd
       -0.06805116 0.029074762 0.03953953 -0.05310451
000250 41 a8 b7 bc 7f e4 88 3c f5 3f c8 bc 0b 64 eb 3a
       -0.022419097 0.016710518 -0.02444456 0.0017958892
000260 e5 5e 99 bd fe a1 af 3c 91 0e 96 bc 0d 92 26 3d
       -0.07488803 0.021439549 -0.018317493 0.04066663
000270 53 54 b6 bc ef 7f 4c 3c 77 57 52 3d 4f 0e 96 3c
       -0.022257006 0.012481674 0.051352944 0.01831737
000280 ab 60 76 3d e6 3d b1 3d 72 35 8d 3c 3f 22 a0 3d
       0.060150784 0.08654384 0.017237399 0.07819032
000290 08 87 08 3c 89 90 b7 3d c8 66 e5 3d 5f 2d e2 3c
       0.008332975 0.08963115 0.112012446 0.027609525
0002a0 70 73 00 3d 24 4f 2c bd fa b7 1d bd 92 e0 3c 3d
       0.03136009 -0.042067662 -0.03850553 0.046112604
0002b0 90 d2 de 3b 00 08 5b 39 2c aa 0c bd 28 7e 45 3c
       0.0068000033 0.00020888448 -0.034341976 0.012054004
0002c0 4f d6 b3 3c f5 21 c4 3b db 40 3f 3d ef 60 42 3b
       0.021952776 0.0059854933 0.04669271 0.0029659828
0002d0 f0 34 72 3d d3 b9 44 bb 02 ce 93 3c 33 a8 af 3d
       0.059132516 -0.0030017986 0.018042568 0.08577003
0002e0 b4 c1 ab 3c 7d cf 61 3c bd 91 c2 3d e9 fa a4 3d
       0.020966388 0.013782379 0.095004536 0.0805567
0002f0 3b 1d 8e 3d 1d 1b 0d 3a 2b c3 d0 3d 82 be 66 3d
       0.06939169 0.00053827633 0.10193475 0.056334026
000300 bf 54 a1 bb 29 ec 63 bb 69 92 9c 3d 79 3b fe 3c
       -0.0049234326 -0.0034778214 0.07645113 0.031034218
000310 58 93 a4 bc e6 0c 51 3d dd 3d 00 bc 3f 5a 8d 3d
       -0.02008979 0.05103769 -0.007827249 0.06901979
000320 4f 44 f6 3b eb 99 02 3d a4 d2 dd 3c f1 16 f2 3c
       0.0075154672 0.03188507 0.02707798 0.029551955
000330 19 3a 78 3b 41 d4 2a bc 6e 1f 86 bc 7b a7 a0 3d
       0.0037876426 -0.010426582 -0.016372409 0.07844444
000340 66 9f 63 bd 68 14 35 bd f7 55 bd bc 2f a8 58 bd
       -0.055571936 -0.044208914 -0.02311228 -0.052894767
000350 76 71 ea 3b fd d1 c8 3c eb ad 48 ba 24 86 e0 3c
       0.007154639 0.024514193 -0.00076553103 0.027407713
000360 7e 97 f1 bc 15 57 d5 bc ca d9 19 3c f6 56 1e bd
       -0.029491182 -0.0260425 0.009390304 -0.03865715
000370 24 9a 0f 3d bf 36 77 bd 82 24 43 bb 78 5a 07 bd
       0.03505911 -0.060354944 -0.00297764 -0.033045262
000380 0a b2 03 bc ca 5a 3b bd 07 d8 bd 3c ef 86 01 3d
       -0.008038053 -0.04574088 0.023174299 0.031622823
000390 35 03 39 bc 85 71 62 bd 60 ec 63 bd 1a 60 5a 3c
       -0.0112922685 -0.055284042 -0.055645347 0.013328576
0003a0 5b cd a4 3c 49 b9 21 bd 0e a7 a7 bd 02 4b 4b bc
       0.020117452 -0.039483342 -0.0818616 -0.01240802
0003b0 7f 91 17 bd 90 43 ab 3b 56 99 06 3d d5 1b 37 3d
       -0.03700399 0.00522656 0.032861076 0.044704277
0003c0 fd de b9 bc a7 0f 1b ba 58 07 22 3d bd ee 46 bd
       -0.022689337 -0.0005915113 0.039557785 -0.048567522
0003d0 bf 32 6c bd 66 93 ee 3c e3 86 0e 3b 27 12 da bc
       -0.057665583 0.02912302 0.002174788 -0.026619984
0003e0 f0 6e 18 bd fb 11 e4 3c 87 8a e1 bc fc 64 50 3b
       -0.037215173 0.027840605 -0.027531875 0.0031798473
0003f0 80 0a 8a 3d 2e fe 8b 3d 52 17 c0 3c 3d cb e0 bc
       0.06740284 0.0683559 0.02344862 -0.027440662

encoder.9.bias f4 [32]
000000 50 54 98 3d 37 bf 0f bd 30 76 b2 3d 93 d6 17 bd
       0.07437956 -0.035094466 0.08713949 -0.03706987
000010 c5 90 cf 3b 7f c6 86 3d ab 0a e3 3d 70 5e 6e bd
       0.0063343965 0.06580829 0.11086019 -0.05819553
000020 73 59 35 3c e8 ca d0 bd 6d 95 e9 bb 7a f3 9c bd
       0.01106869 -0.10194951 -0.0071284086 -0.07663627
000030 59 94 7f bd ae 9c 2c bd 32 88 88 b9 b6 ef 4e bd
       -0.062397335 -0.04214161 -0.00026041415 -0.050521575
000040 59 83 d0 bc 2c dd db 3d 30 4b 7b 3d 85 f7 5d bd
       -0.025453256 0.107355446 0.061351 -0.05419113
000050 00 be c2 bc a7 02 98 bd 70 f3 db 3d 44 2a ca 3d
       -0.02377224 -0.07422381 0.107397914 0.09871343
000060 94 ce 34 bd 6a 71 60 bd 9d a8 82 bd d0 28 9a bd
       -0.04414232 -0.05479566 -0.06379817 -0.075273156
000070 59 8e 0a 3d 8c 9d a4 3d a1 3e 4e bc 9f 7c b7 bd
       0.03382716 0.08037862 -0.012588174 -0.089593165

encoder.12.weight f4 [64, 32, 3]
000000 d2 28 84 bc 5a b0 a0 bc ff bd cc 3d 5d 2c 36 bd
       -0.016132746 -0.019615341 0.099971764 -0.044475902
000010 cb 59 fd 3d ba 3a d3 3c 6d 55 53 bd 5b 91 84 3b
       0.12370642 0.025784839 -0.05159514 0.004045648
000020 8b d9 5c bd 09 fa 8e 3d cb e2 c2 bb 72 52 11 bd
       -0.053918403 0.06981284 -0.005947446 -0.035479017
000030 db 70 3e 3d 5f aa 73 bb 5a 16 de 3d 8d 89 1e bd
       0.046494346 -0.0037180407 0.10844107 -0.038705397
000040 c9 9e 82 3c c6 02 10 3d 56 4c 8b 3d 23 28 f6 3b
       0.015944855 0.035158895 0.06801669 0.007512109
000050 5b 0a a3 3d dd 34 9e 3d 38 43 9d bd b3 f1 89 bd
       0.079609595 0.077249266 -0.076788366 -0.067355536
000060 ab 47 61 3d da bc 34 3a 39 3c 3d bd 32 26 e9 bc
       0.05499999 0.0006894596 -0.04620001 -0.028460596
000070 47 a3 65 3c e1 5e 86 bd bb 93 ed bd 17 f5 2d bd
       0.014015979 -0.065610655 -0.11600443 -0.042470064
000080 45 aa ac bd ea c3 74 bd f6 8c 1a bc 4c 10 82 3d
       -0.08430914 -0.05975715 -0.009433022 0.06350765
000090 b1 5c 25 bd 78 60 06 3d 61 73 e1 bd 7c d8 b2 3c
       -0.0403716 0.032806844 -0.11008335 0.021831743
0000a0 bc 58 31 bd 80 7c b6 bd 97 49 eb 3c 71 e3 27 3c
       -0.043297514 -0.08910465 0.028721614 0.010247097
0000b0 26 4e a2 bc d4 b4 9c bb d0 40 d7 bd 35 27 99 bc
       -0.019812655 -0.0047822986 -0.10510409 -0.018695453
0000c0 a2 b1 d6 bc 4d f9 16 bd b6 b1 cf bd f3 44 2e bc
       -0.026207749 -0.036858846 -0.101413175 -0.010636556
0000d0 ec b6 f8 3d ea 74 91 bc f0 b5 0a 3e 77 a2 19 3d
       0.121442646 -0.017755944 0.13545966 0.037508454
0000e0 ef be 85 bd ff 4f 80 3d a4 d1 d0 bd 5e 6c f8 3c
       -0.06530558 0.06265258 -0.10196236 0.030325111
0000f0 9b e7 b8 bc 6d 91 9d bd 49 54 96 bd 7e 30 9f bd
       -0.022571376 -0.076937534 -0.07340295 -0.07772921
000100 87 79 cf bd b8 06 e7 bd 0a f7 83 3d 31 21 0a 3e
       -0.101306014 -0.112805784 0.06443603 0.13489224
000110 f7 32 8f 3d 89 11 dd 3d 5c 81 1c 3d 1b aa 7f 3d
       0.06992143 0.1079436 0.038209304 0.062418085
000120 64 ea a8 3d 87 91 c6 3c e3 16 8d 3c 8a 51 0c bd
       0.082478315 0.024239315 0.017222827 -0.03425745
000130 43 73 81 bd 87 3d 10 bd e1 73 d7 bd de a6 ee bb
       -0.063208126 -0.035214927 -0.10520149 -0.0072830757
000140 dd b7 eb bd 17 a5 41 3c 16 76 dd bd 0b bd 7b bd
       -0.115096785 0.011819146 -0.10813539 -0.061459582
000150 1f 2e 2e 3c e8 c7 83 3d 0a 69 65 bd a1 0a fa 3b
       0.010631113 0.064346135 -0.056008376 0.0076306616
000160 18 1e e8 3d 05 55 10 bd ea 99 00 bd ed 8e f0 bd
       0.11333865 -0.03523733 -0.031396784 -0.11746011
000170 3f 72 53 3c 03 21 c3 bd e8 11 73 3c 02 80 97 bd
       0.012905656 -0.09527781 0.014835812 -0.073974624
000180 d7 fd ac bd 42 fb ad bb 11 b0 ba bd 6c 80 38 3d
       -0.084468536 -0.0053094933 -0.09115613 0.045044348
000190 c5 67 d2 3d d2 54 79 bd 98 c6 05 be 42 67 16 be
       0.10273699 -0.060871907 -0.13064039 -0.14687827
0001a0 5c 7f 92 bd 2b 28 97 3d 9c d6 83 3d 18 f3 79 bd
       -0.07153198 0.07380708 0.06437418 -0.061022848
0001b0 8b d8 a4 3b 62 a5 0c be 0c 0f 39 3d ec 76 54 bd
       0.0050306967 -0.13734964 0.045180365 -0.051871225
0001c0 f4 a2 96 bd b5 5a 61 bd 4e f9 b6 3b 30 cb d4 bd
       -0.073552996 -0.055018146 0.0055839187 -0.103903174
0001d0 c2 e9 1d bc 58 14 c8 3d 53 37 7b bc de bd a3 bc
       -0.009638252 0.09769505 -0.015333015 -0.019987997
0001e0 fd c9 a9 bb 7b 07 03 3d 7b 09 33 bd a0 34 ad bd
       -0.0051815496 0.031989556 -0.043710213 -0.08457303
0001f0 da 47 43 bd b9 06 0d bb 9b 9e 94 3c fc 2b 9d bd
       -0.047675945 -0.00215189 0.018142035 -0.07674405
000200 e7 e8 14 bd 3a d4 62 3d ad 0b 1f bb 57 db 98 3d
       -0.036354925 0.055378176 -0.0024268434 0.07463711
000210 d0 2e ca 3d f7 29 a7 bb f0 55 1f 3d 9c 27 0e bd
       0.0987221 -0.005101438 0.038900316 -0.034705743
000220 00 44 ab 3c 88 ba 1d 3d ff 3c c9 3d b8 a1 6b 3c
       0.020906448 0.03850797 0.09826087 0.0143818185
000230 75 fc 1d 3d a1 27 4d bc d3 45 4d bd 5b 13 b9 bc
       0.03857084 -0.012521655 -0.050115418 -0.022592237
000240 20 05 b5 3d 1c 01 96 3d b1 90 d1 3c 53 40 14 bc
       0.08838868 0.0732443 0.02558169 -0.009048539
000250 54 02 93 bd 60 dc 81 bc 32 13 0c 3d 52 b4 7f 3c
       -0.071781784 -0.015852153 0.034197994 0.015606957
000260 6e 5e c1 bd ad 5b b4 3d 50 e6 06 bc 98 4c ce bc
       -0.09441839 0.08806548 -0.008233622 -0.025183007
000270 4d 88 38 bd a7 82 1e bd 6e db 16 3b 6f 01 45 3d
       -0.04505186 -0.03869882 0.0023018974 0.04809707
000280 0b 12 9b bd a1 de fe 3c 8d 53 51 bd 8e 4f 05 bd
       -0.07571801 0.031112017 -0.05110507 -0.032546572
000290 8f 1f 44 bd 20 df f2 bc 6e e0 85 bc c8 31 9d bd
       -0.04788166 -0.02964741 -0.016342368 -0.07675511
0002a0 eb 32 c9 bc 23 b2 26 3d 92 af a8 bd d3 f7 16 3c
       -0.024560412 0.04069723 -0.082366124 0.009214359
0002b0 97 60 7f bd 98 02 87 bd 3a 4d c6 3d 71 36 be 3d
       -0.062347975 -0.065922916 0.096826985 0.092877276
0002c0 75 45 db 3d be 4c ba 3d dc bb 8a 3d fe 63 b2 3d
       0.10706607 0.09096669 0.067741126 0.08710478
0002d0 16 5d bc bd 68 a0 ac bd d2 63 d3 bb 4d c4 4f bd
       -0.09197442 -0.084290326 -0.0064511085 -0.050724316
0002e0 77 58 20 bd 53 45 3a 3d d4 73 1d bc e2 91 a1 3d
       -0.039146867 0.04547627 -0.009610135 0.07889153
0002f0 27 dc 3b 3d 36 61 d7 3d f6 6a 9e 3d f5 57 dc 3d
       0.04586425 0.105165884 0.07735245 0.10758964
000300 72 c9 d0 3d d9 79 c5 3d a2 ed 62 3c 6d c0 6e 3d
       0.10194673 0.09642381 0.013850601 0.05828898
000310 1e f4 82 3c 22 bf 78 3d c1 12 cb bc 0c 97 60 bc
       0.015985545 0.060729153 -0.024789216 -0.013707887
000320 ed 38 45 3d d8 48 c7 bd c4 1e 99 bd 06 83 b7 3b
       0.04814999 -0.09730691 -0.07476571 0.005600336
000330 00 f2 9a 3d 03 15 91 3c b8 61 47 3d 5a 0d c3 3c
       0.07565689 0.017710214 0.048677176 0.023810077
000340 ae 82 b7 3d bd 5f 5d bb b5 fa b2 3d 15 23 31 bd
       0.08960472 -0.0033778988 0.08739225 -0.043246347
000350 84 fb 84 3d 69 70 e1 bd 88 eb d8 bd 93 e3 c2 bd
       0.06493285 -0.11007769 -0.10591799 -0.095160626
000360 e1 78 d0 bd a5 5e 98 3d cb 28 50 bd 47 f2 de bd
       -0.10179306 0.07439927 -0.050820153 -0.108860545
000370 2d cf a8 3d 91 de 8d bb 89 5b 95 bd 6c 6f 2b 3d
       0.08242641 -0.0043295105 -0.072928496 0.041854307
000380 ce 0f a0 3c 29 b3 e2 3c 38 fc ed bd ec 1d 80 bc
       0.019538786 0.02767332 -0.116203725 -0.015639268
000390 74 b5 99 bd 35 18 13 3d 6e 37 d3 3c b5 a6 6d bd
       -0.075053126 0.035911757 0.025783267 -0.058020312
0003a0 80 d8 53 bb 00 e2 23 3c 17 c5 73 3d 84 70 72 bd
       -0.003232509 0.010002613 0.05951413 -0.059189335
0003b0 ec 8a ac bc b8 08 5a 3d 12 67 9d 3d b4 63 3a 3d
       -0.021062337 0.05323097 0.07685675 0.04550524
0003c0 b3 28 40 3d 51 e3 b1 bd 93 02 83 bc ac df 0c 3e
       0.046913814 -0.08685935 -0.015992438 0.13757199
0003d0 00 06 f6 3d 3e d5 19 3e b3 37 01 3e e9 c1 51 bd
       0.12012863 0.15022752 0.12618904 -0.051210318
0003e0 ff 6b 7c 3c c2 38 71 bd 0c d2 c6 3c 43 23 9a 3d
       0.015406608 -0.05889202 0.02427008 0.07526257
0003f0 90 d5 95 bd a0 c1 ad bd 48 05 04 3d 7f a4 49 bd
       -0.073161244 -0.08484197 0.0322316 -0.04922914

encoder.12.bias f4 [64]
000000 75 c9 da 3d 1a 04 08 be 53 97 ae 3d 02 a7 75 bd
       0.10682956 -0.13282815 0.085249566 -0.059973724
000010 14 4a 0b 3e 17 82 83 bd 49 ef c1 bd 26 b1 19 3e
       0.13602477 -0.06421297 -0.09469468 0.15008983
000020 49 ad e3 3d a1 9d 74 3d 09 70 b6 3b 15 ce 73 bd
       0.11117036 0.05972064 0.005567555 -0.059522707
000030 c0 aa da bd 74 18 81 3d 64 a6 51 3d 45 7e a6 3d
       -0.10677099 0.06303492 0.051184073 0.08129553
000040 06 d6 95 3d 3e b7 5e bd c9 03 17 3e 88 84 e2 bd
       0.07316212 -0.054373972 0.14747538 -0.110604346
000050 ba 54 39 3d f3 ec 95 3d 84 84 3b 3d bf 65 14 3d
       0.045246817 0.07320585 0.045780674 0.036229845
000060 c4 c2 bb bd cc 75 05 3e ea ad 0c be 83 63 e7 bd
       -0.09168008 0.13033217 -0.13738218 -0.11298277
000070 6e fd 60 3d 6f a8 3c 3d 00 ba 6e 3c a3 5d 85 bc
       0.05492919 0.04605907 0.014570713 -0.016280001
000080 c9 62 63 bd d4 81 ac 3d 89 0a 06 be 11 6b ab 3d
       -0.05551413 0.084232 -0.13089956 0.08370031
000090 e5 63 19 bc 0b 6b 2e bd 10 f6 e1 bd 77 d6 fc 3d
       -0.009362196 -0.042582553 -0.11033261 0.123455934
0000a0 9a 11 be bd 0e b1 b0 bc 63 35 9b 3d 0a 76 a7 bd
       -0.09280701 -0.021568801 0.07578542 -0.08176811
0000b0 0f 8a 9f bd 8b 79 f9 3d 31 21 b8 bd 6e 9f 03 3e
       -0.077900045 0.121813856 -0.08990706 0.12853786
0000c0 bd fc 10 3e 44 7d 9f bd 87 0c 03 3e 73 ab 65 3d
       0.14158912 -0.077875644 0.12797748 0.05607171
0000d0 90 53 90 3d 67 7d 2d 3d ee 6d f8 bd b7 3e b1 3d
       0.07047188 0.04235592 -0.121303424 0.0865454
0000e0 e7 30 ec 3d 03 7a 7f bd 5e ac d6 3c 4c d6 a6 3d
       0.11532765 -0.06237222 0.026205238 0.08146343
0000f0 5e ab 82 3d 44 65 00 3e c0 27 a1 bd 85 88 a2 3d
       0.06380342 0.1253863 -0.0786891 0.07936195

encoder.15.weight f4 [256, 192]
000000 aa 38 57 bc 7d f3 70 3d b4 a6 07 bd f5 de 3a 3d
       -0.013136068 0.05882596 -0.033117965 0.045622785
000010 6e 5f 0d 3d 06 1e 8e bd c2 b4 04 bc a0 34 20 bd
       0.034514837 -0.0693932 -0.008099737 -0.039112687
000020 3a 8f 41 3d 2a be ca 3b f4 6d 61 bd c3 94 77 b8
       0.047255732 0.00618722 -0.0550365 -5.9027934e-05
000030 8c f3 3a 3c 13 fb f8 bc d5 fa 93 3d b9 5a c2 3a
       0.011410605 -0.030393159 0.07225577 0.0014828063
000040 a2 66 67 bd 38 f3 8c 3b 61 4c 92 3c a5 0d 6a bc
       -0.056494363 0.004301455 0.017858686 -0.01428548
000050 7b 7d 69 3d 7e 78 5f bc ee a6 85 bd 80 c6 8b 3d
       0.057004433 -0.013639567 -0.0652598 0.0682497
000060 73 83 d6 bc 58 48 0d 3c 7c 69 f9 bc ea 7a 2d 3c
       -0.026185727 0.008623205 -0.030445807 0.010588387
000070 93 73 90 3c 57 2d 61 3d 19 57 76 bd fa 39 1f bd
       0.017633235 0.05497488 -0.060141657 -0.03887365
000080 87 3a 12 3d 6d 5b 89 3c 53 df 58 b9 c1 7e d8 3b
       0.035700347 0.016767228 -0.0002068256 0.006606907
000090 08 1f 8a 3d b9 8a ed bc 6f 3d 1e 3d f4 c6 fb bc
       0.067442 -0.028996812 0.038632806 -0.030734517
0000a0 a2 81 14 3d 16 20 03 bc 82 38 69 bd 49 82 2e bb
       0.03625644 -0.008003255 -0.056938656 -0.002662795
0000b0 db 9e 85 3d df 70 48 3d 08 3f ff bc 41 49 72 3d
       0.0652444 0.048935767 -0.031157985 0.05915189
0000c0 dc 08 7d 3d 03 c3 9a bb 52 c8 38 3d 0d be 7d 3d
       0.061776027 -0.0047229542 0.045112915 0.061948825
0000d0 23 e4 53 3d e9 4d 4e bd 47 6e 1e 3d 3b f6 6c 3d
       0.05173124 -0.05036727 0.038679387 0.05785201
0000e0 81 5f 1b 3d 3a b8 10 bd bb 96 db 3c 08 fc 6f bc
       0.037932876 -0.035331942 0.026805272 -0.014647491
0000f0 f8 de 34 3d 0b 1f ec 3c 54 33 b7 bc 4f a4 64 3d
       0.044157952 0.028823396 -0.022363342 0.05582076
000100 28 13 74 bd bf cb 69 3d 16 ed 52 3b f1 db 6e bd
       -0.05958858 0.057079073 0.0032184771 -0.05831522
000110 6f 4e ec bc 6a 8d 53 bd 50 d3 2c 3d 33 b6 10 bc
       -0.028845994 -0.051648535 0.04219371 -0.008832502
000120 6a 65 e0 3c 95 6e 1f 3d 31 21 0b 3c 3c fa 1c 3d
       0.027392108 0.03892382 0.0084918 0.03832458
000130 50 e3 fe 3c 5d e5 c8 bc 14 4c 92 bd 57 b9 9e bd
       0.03111425 -0.024523431 -0.07143417 -0.077501945
000140 ec 7a 55 bb 11 6e 85 3a 29 07 a8 3c 01 05 6a bd
       -0.0032574488 0.0010179897 0.020511227 -0.05713368
000150 b0 41 46 3c 78 4d 90 3d 63 ad 2e 3c 63 38 0a bd
       0.012100622 0.07046026 0.010661456 -0.03374518
000160 29 4c 89 3c ca 57 7b bd 9c ae 23 bd c5 dc 38 3d
       0.016759949 -0.06136302 -0.039961442 0.045132417
000170 46 7b 21 bc ed 48 49 bd aa 7e e5 3a 68 6c 8f 3d
       -0.009856051 -0.049141813 0.0017509062 0.07003099
000180 41 bb 39 3d a8 04 77 bd 46 2c 77 bd 4c 46 6e bc
       0.045344595 -0.060307175 -0.060344957 -0.014543127
000190 6b a2 3a 3d 77 c2 29 bd eb 8c 53 bd 93 71 84 3c
       0.04556505 -0.04144522 -0.05164806 0.016167438
0001a0 e2 c4 1b bd 78 8b b8 bc 86 0f 2b 3c 05 db 5b 3c
       -0.03802956 -0.022527441 0.010440713 0.013418918
0001b0 c0 92 86 bc c3 d4 74 3d a4 e9 33 bd 7e fb 7f bd
       -0.016427398 0.059773218 -0.04392399 -0.0624957
0001c0 41 d9 24 3d 79 d8 7b 3d 94 f3 06 bd 66 2d 5f 3d
       0.040246252 0.06148574 -0.032947138 0.054486655
0001d0 b9 44 08 3c 0f ee 49 bd ce 7f 60 bc 3a ed 92 3d
       0.008317166 -0.049299296 -0.013702346 0.071741536
0001e0 c6 9d 9e bc 42 6c 35 bc 29 62 98 bd 08 b9 6c bc
       -0.019362342 -0.011073174 -0.074405976 -0.014448412
0001f0 3c e5 59 bd 66 10 a1 3c bd 2d 8a bd 8b 73 7d bd
       -0.05319713 0.01966114 -0.06747005 -0.06187777
000200 19 9a a6 bc bf 87 19 bc f0 20 94 3d 13 ef 05 3d
       -0.020337151 -0.009370743 0.07232845 0.032698702
000210 b4 6a 51 bd d9 0d 31 bd 5d 92 0a 3d 53 3b 1f 3d
       -0.05112715 -0.043226097 0.03383099 0.038874935
000220 45 b0 89 bd 0c 30 ad bc 04 b0 50 3d ef d4 89 bd
       -0.06723074 -0.021141075 0.05094911 -0.06730067
000230 2d 58 41 bd 37 56 07 bd b9 0f 84 3d b6 f3 35 3d
       -0.04720323 -0.033041205 0.06448311 0.044421874
000240 96 21 10 3d 34 b6 1d bd ed 6f 66 3d 4c d2 34 bd
       0.03518828 -0.03850384 0.056259084 -0.044145867
000250 e9 3d 9f 3c e7 56 db 3a 24 ad ea 3c ce c6 6c bd
       0.0194387 0.0016734273 0.028647013 -0.057806782
000260 fa 71 88 bb 67 66 94 3d b8 76 93 3d 41 e0 be bc
       -0.0041639777 0.07246094 0.07200378 -0.023300292
000270 b0 c0 2d bb 91 ce 81 bc c9 33 32 3d dd 70 ee 3b
       -0.0026512556 -0.015845569 0.043506417 0.007276638
000280 91 ff 99 3c 02 50 79 3d 04 c0 2a bc ad 53 59 3d
       0.018798621 0.060867317 -0.010421757 0.053058315
000290 eb 58 3f bc 52 ee 90 3c f1 63 dc bc 80 02 9e 3d
       -0.011678915 0.017691765 -0.026903125 0.077153206
0002a0 f7 54 8a bd ba bc 23 3c eb 20 9e bd 70 55 6e 3d
       -0.06754487 0.009993726 -0.07721122 0.05818695
0002b0 59 61 2a 3c a2 a2 49 3d b6 34 1c bd 0a a9 fa 3c
       0.010399186 0.049227364 -0.038136207 0.030598182
0002c0 42 af 87 3d 0d 3b b1 3b 29 5b 09 3d da 2f 94 3c
       0.06625225 0.0054086507 0.033534203 0.018089224
0002d0 39 c3 26 3d 07 9f 86 bd b0 dc 46 bd dc ff 6e bd
       0.040713523 -0.06573301 -0.048550308 -0.058349475
0002e0 41 04 93 3d aa 96 25 3d dd 6a e4 3c 98 6c 53 3d
       0.07178546 0.040426888 0.027882988 0.051617235
0002f0 78 3c 9f bd 9b 20 f2 3b 88 e6 5f bd cf f2 9a 3d
       -0.077752054 0.007389141 -0.05466321 0.07565843
000300 23 c8 f1 3c 94 24 0c 3d d4 86 f7 3c b8 1b ec 3c
       0.029514378 0.03421457 0.030215658 0.028821811
000310 f9 2f 8f bd 5a ed 98 bd cc 18 59 3d 98 a0 a9 bc
       -0.06991572 -0.07467146 0.053002164 -0.02070646
000320 b6 5d 75 3d 20 c6 81 3c f6 6b 84 3d 14 78 84 3d
       0.059903823 0.015841544 0.064659044 0.064682156
000330 4a da aa bc af 38 84 3d f8 65 8f 3d 5a 60 7d bc
       -0.020856041 0.06456124 0.07001871 -0.0154648665
000340 69 a4 d7 3d e0 1a 04 3d d1 cc 55 3c 32 a4 50 3d
       0.105294056 0.032252192 0.01304932 0.05093784
000350 35 72 12 bc 95 2a bc 3d 47 a7 72 3c 10 57 a7 3c
       -0.008938362 0.091878094 0.01481039 0.020427257
000360 40 e6 4f bc f1 eb bd 3d 00 64 ef 3d cb f4 ae 3c
       -0.012689173 0.09273518 0.11688995 0.02135696
000370 58 6f 03 3e b8 9e 3e 3d b5 44 90 3d 45 bf 05 bd
       0.12835443 0.046538085 0.07044355 -0.032653112
000380 75 e3 27 3d e2 74 96 bd 06 1c 0c bd d4 cb 2c bd
       0.040988404 -0.073465124 -0.034206413 -0.042186573
000390 5f 49 32 3d 4a f2 5d bd b0 5d 95 3d 52 13 56 3d
       0.043527003 -0.054186143 0.0729326 0.05226452
0003a0 34 a5 88 3c 66 1c e8 3c 44 a4 d2 3c b4 1c 22 3d
       0.016680337 0.028333854 0.025713094 0.039578155
0003b0 2a 5e e3 3c 92 ce ea bb fb 4b c6 3d b3 8f c1 3d
       0.027754862 -0.0071657384 0.09682461 0.094512366
0003c0 d6 f1 4c bc e1 69 42 3d e3 24 2b 3d 16 0f 96 bd
       -0.01250883 0.047464255 0.041783225 -0.07327096
0003d0 7b 35 ef bd 37 06 a5 3b e0 31 7d ba 7d 2b 09 3d
       -0.116801225 0.0050361413 -0.0009658616 0.03348874
0003e0 20 89 8e 3d 43 d3 0d 3d df 4a 27 3d df 03 5d 3d
       0.06959748 0.034625303 0.040842887 0.05395877
0003f0 a8 c7 55 3d cc 0f 99 bd 15 9a 59 3d da ce bc 3d
       0.05219236 -0.07473716 0.05312546 0.09219141
