dump/source_encoder_cwru_cua_adda.pt (torch, 284865 bytes, 12 tensors)

encoder.0.weight f4 [8, 1, 32]
0.11338927 0.19690162 -0.12546402 -0.14297505 0.05219273 0.07860643 0.12555754 -0.1896277
-0.06494092 0.059258778 0.22458488 -0.16480868 0.055291716 0.19886796 -0.008490819 -0.108607434
-0.107819915 0.06917146 0.034504637 0.006199636 -0.12678102 -0.086928144 -0.120574996 0.20716871
0.22344159 0.0045724316 -0.19358094 0.2139215 0.036809266 0.022621555 -0.108192265 0.15728654
-0.119929805 -0.050091404 0.12760368 -0.209754 0.18652083 0.1720516 -0.15950125 0.08039187
0.16495955 -0.03695704 -0.023486096 0.11555432 -0.024346884 -0.18718748 0.039091047 0.04744118
0.01695374 0.06747732 0.06884677 0.12767239 0.07448535 0.09860555 -0.116455965 0.08983048
-0.10555045 0.0047691646 -0.056006175 -0.19185495 0.13055158 0.16685346 -0.041335706 -0.053586993
-0.13828062 -0.10706874 0.12985836 0.15357068 -0.07404687 0.073437296 0.066377245 -0.09910326
0.18123722 0.13860543 -0.20338653 -0.062064774 0.07188658 -0.0037290794 0.08775749 0.23206854
-0.00018104479 -0.20746732 -0.006752925 0.02393999 0.1831599 -0.02141713 -0.18631367 0.19425248
0.025117118 0.07262356 -0.21737273 0.1154283 0.18243583 0.16067049 -0.20526554 -0.14778328
-0.06110877 -0.21158108 0.19894248 -0.03391536 -0.21180259 -0.052325565 -0.121625096 -0.112130195
-0.1489884 -0.028558522 -0.083290584 -0.103730135 0.15449053 0.19818127 -0.1549685 -0.22367063
-0.0042145373 0.109963775 -0.13428016 0.031628437 0.015245967 0.06677063 -0.11479325 0.09714061
0.05944333 -0.045672752 -0.021473132 0.18067482 -0.227248 0.1184354 0.073993035 -0.16180664
-0.13398698 -0.15225983 0.017343912 0.17557293 -0.21244514 -0.11596989 -0.024718303 0.04797766
-0.21459922 -0.044998452 0.094043836 0.022507122 -0.054535486 -0.20324932 0.20148423 0.10849713
-0.15378547 -0.05825214 0.108736806 0.15417504 -0.087070934 0.013448345 -0.18958554 0.24055502
0.11501218 -0.10266243 0.09160885 0.06713063 0.063023925 -0.14867923 -0.18659152 0.13324116
0.037042115 0.03646223 0.010385471 0.11834953 -0.04334653 -0.046060566 0.18444945 -0.10552118
-0.06016582 -0.15142047 0.1537687 0.1542399 -0.16229913 -0.18974033 0.13882619 -0.04420935
0.080232166 -0.087652914 0.124848954 0.1831808 0.0056318906 -0.2552647 0.011748684 0.15953387
0.14127252 -0.17605563 0.023553403 -0.0998845 0.19220802 -0.17366742 -0.19446732 0.1782713
0.17031872 0.030067947 -0.12503107 0.23857188 -0.12540334 0.01599472 0.078212924 0.08169371
0.12614629 -0.12514415 0.14668988 0.0664576 -0.11336548 -0.06432197 -0.1155023 0.1009297
0.035718843 0.17227735 -0.21510443 -0.19706212 0.16951643 0.13946432 -0.15536262 -0.007964702
0.11424799 0.14115642 -0.1869628 0.12580585 0.059735473 -0.16281259 0.12706898 0.050811168
0.028443415 -0.12863067 0.1972946 0.07045513 -0.042619526 -0.09400787 0.0135665 0.1058523
0.067228146 -0.19265522 0.14666514 0.10940169 0.13948143 0.09972613 -0.09171631 0.051542077
-0.06463011 0.05695059 -0.009801552 -0.08315234 0.2647916 0.06374688 -0.07827101 -0.115926154
0.18523839 0.19752093 0.010141889 0.14849995 0.2272587 0.051344898 -0.2272845 0.1625033
00000000: a238 e83d 94a0 493e a479 00be 0d68 12be
00000010: 0bc8 553d 68fc a03d 2892 003e c42d 42be
00000020: bfff 84bd 55b9 723d 94f9 653e 9bc3 28be
00000030: 9179 623d 0ba4 4b3e 131d 0bbc 936d debd
00000040: b0d0 dcbd c4a9 8d3d bc54 0d3d 5126 cb3b
00000050: e2d2 01be 6207 b2bd 06f0 f6bd 0924 543e
00000060: dfcd 643e 56d4 953b 153a 46be 3d0e 5b3e
00000070: 50c5 163d d750 b93c e893 ddbd b90f 213e
00000080: c29d f5bd a52c 4dbd 8aaa 023e c1c9 56be
00000090: 51ff 3e3e 4b2e 303e 4c54 23be 7ea4 a43d
000000a0: 28eb 283e 4460 17bd ea65 c0bc bea7 ec3d
000000b0: 1e73 c7bc 13ae 3fbe ef1d 203d af51 423d
000000c0: 92e2 8a3c 8d31 8a3d 89ff 8c3d 8dbc 023e
000000d0: c68b 983d b5f1 c93d 7780 eebd 0bf9 b73d
000000e0: d62a d8bd a746 9c3b bb66 65bd a075 44be
000000f0: 50af 053e a2db 2a3e a14f 29bd 097e 5bbd
00000100: 6f99 0dbe db46 dbbd 97f9 043e a241 1d3e
00000110: e3a5 97bd 4b66 963d cbf0 873d a6f6 cabd
00000120: 4096 393e 95ee 0d3e 8f44 50be a237 7ebd
00000130: 4539 933d 9263 74bb 33ba b33d 60a3 6d3e
00000140: d7d6 3db9 5072 54be a447 ddbb cc1d c43c
00000150: 458e 3b3e fa72 afbc 03c9 3ebe 1fea 463e
00000160: 6ac2 cd3c a9bb 943d f596 5ebe ac65 ec3d
00000170: 75d0 3a3e ce86 243e 2131 52be 8054 17be
00000180: 314d 7abd b6a8 58be 94b7 4b3e d5ea 0abd
00000190: c7e2 58be 5553 56bd 9416 f9bd 84a4 e5bd
000001a0: 6a90 18be 90f3 e9bc 4194 aabd 7770 d4bd
000001b0: c432 1e3e 08f0 4a3e 10b0 1ebe ea09 65be
000001c0: 1a1a 8abb b034 e13d bd80 09be d28c 013d
000001d0: 38ca 793c 0abf 883d b918 ebbd a8f1 c63d
000001e0: d97a 733d 5a13 3bbd 6ce8 afbc d202 393e
000001f0: b3b3 68be 428e f23d a989 973d a4b0 25be
00000200: e233 09be 00ea 1bbe d214 8e3c 64c9 333e
00000210: 388b 59be 9f81 edbd 0a7e cabc 3984 443d
00000220: e6bf 5bbe 4c50 38bd 0e9a c03d db60 b83c
00000230: 9a60 5fbd 9720 50be e251 4e3e be33 de3d
00000240: f079 1dbe cc99 6ebd 67b1 de3d 10e0 1d3e
00000250: 3f52 b2bd 7256 5c3c b622 42be 0e54 763e
00000260: 818b eb3d ae40 d2bd 6c9d bb3d c97b 893d
00000270: b012 813d 5e3f 18be d911 3fbe 5f70 083e
00000280: 79b9 173d 6b59 153d d327 2a3c 3d61 f23d
00000290: 228c 31bd 01aa 3cbd 51e0 3c3e 7d1b d8bd
000002a0: 6f70 76bd f80d 1bbe 8b75 1d3e 10f1 1d3e
000002b0: be31 26be 4a4b 42be 7428 0e3e dd14 35bd
000002c0: c350 a43d 5f83 b3bd cfb0 ff3d bf93 3b3e
000002d0: b98b b83b 0eb2 82be 8d7d 403c d95c 233e
000002e0: bea9 103e ed47 34be 11f3 c03c 3f90 ccbd
000002f0: 2ed2 443e dfd5 31be 7122 47be c08c 363e
00000300: 0868 2e3e 0e51 f63c 2508 00be 304c 743e
00000310: bc69 00be 5c07 833c 192e a03d 084f a73d
00000320: 7e2c 013e ca25 00be df35 163e ec1a 883d
00000330: 292c e8bd 3dbb 83bd 788c ecbd 3bb4 ce3d
00000340: ec4d 123d 7969 303e 5644 5cbe a7ca 49be
00000350: b795 2d3e bccf 0e3e 6117 1fbe 627e 02bc
00000360: dafa e93d 4f8b 103e 2d73 3fbe 40d3 003e
00000370: 2fad 743d 58b8 26be 5f1e 023e 5f1f 503d
00000380: 2a02 e93c c2b7 03be 9807 4a3e c74a 903d
00000390: d091 2ebd 3387 c0bd 0646 5e3c 17c9 d83d
000003a0: e9ae 893d 6947 45be 632f 163e fe0d e03d
000003b0: 38d4 0e3e 373d cc3d c3d5 bbbd c91d 533d
000003c0: cb5c 84bd 0645 693d b096 20bc c64b aabd
000003d0: c492 873e b98d 823d 8d4c a0bd b16a edbd
000003e0: 22af 3d3e ed42 4a3e 2a2a 263c 5f10 183e
000003f0: 81b6 683e 074f 523d 45bd 68be 4467 263e

encoder.0.bias f4 [8]
0.08370586 -0.0077781864 -0.058005013 -0.13109672 -0.052191805 -0.05470031 0.12120182 0.075192355
00000000: fa6d ab3d 28e0 febb aa96 6dbd 383e 06be
00000010: 13c7 55bd 6f0d 60bd a938 f83d 73fe 993d

encoder.3.weight f4 [16, 8, 16]
0.04783288 0.054019544 0.10281895 0.068865225 -0.010309863 0.06864649 -0.03581644 -0.016485514
0.016208148 -0.0224265 0.101843655 -0.05226356 0.10157333 0.07847812 0.061616536 0.025552114
0.048836894 0.056074135 0.018428268 -0.014448807 0.048337877 -0.025694221 0.050388098 -0.060363676
-0.0009649984 -0.011935869 -0.064635456 0.042879127 0.09183874 -0.07033675 -0.025890915 -0.06802802
0.038107485 -0.03078078 0.03760192 0.0089475075 -0.0023399391 -0.085068576 -0.07204487 -0.05812628
-0.06642071 -0.098328434 0.0026485247 -0.037814617 -0.08913097 0.021334479 -0.040423382 -0.05300337
-0.11543344 0.012353001 -0.050573193 -0.037830528 0.03961494 -0.07146103 0.014409525 -0.007485207
-0.08748878 -0.03780489 0.027818304 -0.12068581 -0.067465074 -0.06775019 0.00209821 -0.0006645504
-0.08104494 -0.054803804 -0.0019150994 -0.05166012 0.045794256 -0.03347253 0.013105711 -0.01107159
0.019292843 0.05609857 -0.08382633 0.053681668 -0.033924308 0.0052190027 0.040260907 -0.03592629
0.013963838 0.050189402 -0.018869026 -0.0504803 0.030165177 -0.09126455 -0.0060132714 -0.048690323
-0.0072842725 -0.09559777 -0.06929994 0.0076917154 -0.06521886 0.029153029 -0.040482566 -0.09162101
-0.046998475 0.09620471 0.0917312 -0.044484127 0.06924774 0.082955934 -0.033872288 0.09695045
-0.043421343 0.11290754 0.0767351 -0.0030748805 0.099581204 0.04518585 0.04819365 0.029461486
-0.04669822 -0.058616996 0.10491272 -0.05321832 -0.022988021 0.08342781 -0.032379813 0.1054075
-0.042474873 0.07313018 0.058034226 -0.01686979 0.099814504 0.08990002 -0.0070004817 -0.021527493
0.07907585 -0.031032426 0.054195266 -0.014649114 0.014840818 -0.021612475 -0.008239639 0.02921704
0.051233135 -0.063205406 -0.05710322 0.040670637 -0.04060135 0.024855698 -0.066960625 -0.06496634
-0.04472985 0.023648335 0.07078351 0.005946284 0.03412902 0.057831313 0.0023695393 -0.037746493
0.020431537 -0.035286624 -0.040058654 0.115705214 -0.04295182 0.07670209 0.069212176 0.061558872
0.11802365 0.12854373 0.03677461 0.023693653 0.067503594 0.060358934 0.0018627297 -0.012464457
0.071837574 0.07784967 -0.0008415605 0.12053665 0.04541211 0.1446503 0.045279764 0.021829404
0.068064965 -0.017874643 -0.009153992 0.09206969 0.002479498 0.08686257 0.008146863 0.044481892
0.061579287 -0.02745494 0.090344 0.10285212 0.14288281 0.12611441 0.008577822 0.13322312
0.0018591391 0.03607404 0.021969784 -0.031108517 0.10249053 0.07786635 0.08828585 0.12092308
0.04998109 0.025522288 0.022561701 0.0072563607 0.079888836 -0.005629792 0.010748722 -0.02255297
0.089821376 -0.013766182 0.08596074 0.11342932 0.06681814 0.062392112 0.1461689 0.08857359
0.14897579 0.016153118 -0.017413313 0.053291146 0.0023682583 0.10075447 0.023726964 0.11670468
-0.0833838 -0.07439071 -0.011096167 0.040493045 0.075528614 -0.077551715 0.043283135 -0.026746368
0.014772135 -0.06338613 0.07520314 0.020437201 0.07185502 -0.02867561 0.09609946 0.002977561
-0.01153397 0.029799893 0.07818935 0.009773292 -0.053420097 0.019588808 0.08652935 0.04281953
-0.015226758 -0.014403915 0.022383539 0.04288837 -0.03818129 -0.049353763 0.02559346 -0.0071575954
00000000: 69ec 433d 9943 5d3d be92 d23d 3609 8d3d
00000010: b3ea 28bc 8896 8c3d 42b4 12bd a10c 87bc
00000020: f3c6 843c c8b7 b7bc 6893 d03d 5112 56bd
00000030: ae05 d03d 23b9 a03d 9f61 7c3d ab52 d13c
00000040: 3209 483d fead 653d e1f6 963c b0ba 6cbc
00000050: f0fd 453d b07c d2bc c063 4e3d e73f 77bd
00000060: f2f7 7cba aa8e 43bc 985f 84bd 06a2 2f3d
00000070: f315 bc3d b70c 90bd 2f19 d4bc 4652 8bbd
00000080: 9816 1c3d f927 fcbc 7904 1a3d 9198 123c
00000090: aa59 19bb 6f38 aebd 438c 93bd d215 6ebd
000000a0: 9507 88bd 6b60 c9bd df92 2d3b 80e3 1abd
000000b0: 4c8a b6bd a5c5 ae3c fd92 25bd 101a 59bd
000000c0: 5e68 ecbd 3e64 4a3c d625 4fbd 2ff4 1abd
000000d0: 4643 223d 295a 92bd ee15 6c3c 7846 f5bb
000000e0: 512d b3bd 4dd9 1abd 36e3 e33c 1f2a f7bd
000000f0: 212b 8abd 9dc0 8abd 1f82 093b 3935 2eba
00000100: e4fa a5bd f479 60bd 1304 fbba 9099 53bd
00000110: c292 3b3d 7e1a 09bd 56b9 563c 9d65 35bc
00000120: 060c 9e3c 9dc7 653d 24ad abbd 4fe1 5b3d
00000130: 37f4 0abd 2b04 ab3b 9fe8 243d 7227 13bd
00000140: 95c8 643c 6793 4d3d 3793 9abc 6ec4 4ebd
00000150: f61c f73c e9e8 babd fa0a c5bb 816f 47bd
00000160: e8b0 eebb c3c8 c3bd 20ed 8dbd c90a fc3b
00000170: 7791 85bd 55d2 ee3c 0cd1 25bd cca3 bbbd
00000180: 7981 40bd fa06 c53d 91dd bb3d fd34 36bd
00000190: c2d1 8d3d cde4 a93d abbd 0abd f58d c63d
000001a0: 94da 31bd 113c e73d 4b27 9d3d ef83 49bb
000001b0: 3bf1 cb3d cc14 393d b466 453d 3759 f13c
000001c0: a246 3fbd 6018 70bd 7bdc d63d 74fb 59bd
000001d0: 6051 bcbc 33dc aa3d b2a0 04bd e3df d73d
000001e0: 22fa 2dbd 47c5 953d 4cb5 6d3d 8432 8abc
000001f0: 8c6b cc3d 801d b83d 4c64 e5bb 6d5a b0bc
00000200: 85f2 a13d b737 febc dbfb 5d3d d602 70bc
00000210: e726 733c a50c b1bc 8dff 06bc 9358 ef3c
00000220: d6d9 513d d671 81bd 11e5 69bd 4196 263d
00000230: 9a4d 26bd 2d9e cb3c a722 89bd 130d 85bd
00000240: a636 37bd 27ba c13c f2f6 903d 0cd9 c23b
00000250: dfca 0b3d 87e0 6c3d 464a 1b3b 119c 1abd
00000260: 0a60 a73c b588 10bd 8b14 24bd dbf6 ec3d
00000270: 3fee 2fbd fc15 9d3d 1dbf 8d3d 2825 7c3d
00000280: 62b6 f13d f8a0 033e f9a0 163d 3119 c23c
00000290: 533f 8a3d ee3a 773d d626 f43a b937 4cbc
000002a0: 941f 933d a66f 9f3d 2b9c 5cba ebdb f63d
000002b0: 0c02 3a3d 351f 143e 4677 393d 94d3 b23c
000002c0: a565 8b3d d86d 92bc a0fa 15bc 098f bc3d
000002d0: 137f 223b 01e5 b13d 6c7a 053c a532 363d
000002e0: 903a 7c3d 2fe9 e0bc 4606 b93d 22a4 d23d
000002f0: df4f 123e 2324 013e fe89 0c3c a46b 083e
00000300: 5bae f33a 5fc2 133d faf9 b33c 4ad7 febc
00000310: 8ee6 d13d 6578 9f3d 36cf b43d 85a6 f73d
00000320: f9b8 4c3d 1e14 d13c 51d3 b83c c4c6 ed3b
00000330: c29c a33d 1e7a b8bb 681b 303c 02c1 b8bc
00000340: 45f4 b73d 8d8b 61bc 2f0c b03d a24d e83d
00000350: f3d7 883d df8e 7f3d 4dad 153e 1266 b53d
00000360: 1c8d 183e 8b53 843c 5da6 8ebc d147 5a3d
00000370: c834 1b3b 5c58 ce3d 0d5f c23c dd02 ef3d
00000380: 20c5 aabd 285a 98bd b3cc 35bc 09dc 253d
00000390: bfae 9a3d 6fd3 9ebd a849 313d 331b dbbc
000003a0: d306 723c 96d0 81bd 1b04 9a3d eb6b a73c
000003b0: ba28 933d 1de9 eabc cbcf c43d 2f23 433b
000003c0: faf8 3cbc e81e f43c bd21 a03d 2820 203c
000003d0: 08cf 5abd b578 a03c 4d36 b13d 8863 2f3d
000003e0: a779 79bc 66fe 6bbc af5d b73c b7ab 2f3d
000003f0: fc63 1cbd 2c27 4abd 60a9 d13c 438a eabb

encoder.3.bias f4 [16]
0.07861135 -0.024790362 -0.09596225 -0.09141362 0.017695595 0.009920405 0.06701518 -0.034091603
-0.056146774 -0.08561605 0.12907103 0.120661825 -0.058193937 -0.08325133 -0.10991158 -0.014791535
00000000: fdfe a03d 2815 cbbc db87 c4bd 1037 bbbd
00000010: 5af6 903c 3289 223c 413f 893d a3a3 0bbd
00000020: 29fa 65bd 7857 afbd 322b 043e 8c1d f73d
00000030: c45c 6ebd ac7f aabd 5319 e1bd 3258 72bc

encoder.6.weight f4 [32, 16, 8]
0.13469294 0.13163573 0.007869215 0.02813552 0.084245436 0.079414584 0.05826903 0.035718612
-0.05067171 -0.029506681 -0.015513244 0.06137135 -0.053193323 -0.06854849 0.010977872 -0.055365987
-0.025269931 0.013103695 0.045918237 0.026545327 0.014236237 -0.040945865 -0.10002947 -0.04757972
-0.057841945 0.032282595 0.06304322 0.050669443 -0.00928008 0.020458428 -0.0881924 0.023161551
-0.055298302 -0.06675036 -0.029249378 -0.10478369 -0.09743007 0.03149364 -0.04694707 -0.011007464
-0.09366291 -0.05544973 -0.08612997 0.06611251 -0.028620437 -0.035895012 0.03838803 0.022947596
0.05271826 0.003998239 0.085751645 -0.02397265 0.024365522 0.103473544 0.06736295 0.09119879
0.027413057 -0.08903328 -0.056564543 -0.010946061 -0.06309291 0.020154383 0.004960661 0.039094955
0.008136413 -0.02571664 -0.042588074 0.0077987155 -0.11208665 0.031982515 0.06644298 0.012132385
-0.03910866 0.028899383 0.030828828 -0.059108198 0.011412643 -0.027915593 -0.092168555 -0.083262995
0.09159848 0.051113196 0.09466289 0.049934756 0.054455716 0.011679393 0.05989009 -0.004142548
-0.061776936 0.034719333 -0.040719345 -0.029548576 0.08872819 0.009383502 0.104282305 0.04144231
0.0043504867 0.028123789 -0.007066352 -0.02063136 -0.06495499 -0.006318053 -0.059057433 -0.009660518
0.032969724 0.041205626 0.004699861 -0.08015151 0.056889378 -0.06884821 0.018728008 -0.027309725
0.05050264 0.06109205 -0.076140665 -0.07209376 -0.094888836 -0.046940777 -0.108179234 0.028174082
-0.0015752711 0.020492591 -0.03678849 -0.021677736 0.046372868 -0.03238986 -0.11201473 -0.055612832
0.09784847 -0.01160267 -0.02436926 0.047818817 0.054452386 -0.02578407 0.08593426 0.12943749
0.010679067 0.025677066 -0.001838192 0.041963574 0.000812427 0.11016228 0.08930946 0.07074608
0.08035835 0.017397698 0.11661724 0.016316857 0.021180702 0.027939057 0.021810934 0.12320734
0.082677186 0.045041002 0.066533655 0.058262985 -0.026101688 0.10792063 0.06905756 0.033201553
0.11929276 0.03824252 0.1046586 0.11315145 -0.031947426 0.01639159 -0.041747265 -0.036523957
-0.010026587 0.10284141 0.070721805 0.023073616 -0.03776802 0.053981863 0.09779587 0.04252583
0.0808366 0.094329394 -0.02069123 -0.023216873 0.13844296 0.06589258 0.043436196 0.011842995
-0.023045 -0.015073536 0.037466936 0.03316306 0.10071351 0.10976955 -0.015095559 0.007991049
0.027221214 -0.02826203 -0.025218386 0.004980027 0.016091222 0.06962963 -0.0024586455 -0.03231024
-0.01400597 -0.019473378 -0.0061180918 -0.0048780255 0.13369566 -0.03018377 -0.043685477 0.05105644
-0.030748272 0.029646715 0.030999172 -0.025136732 0.060037985 0.100824036 0.0062425705 0.11147602
0.10668925 0.11970316 0.07589096 0.00086020475 0.055538423 0.085340306 0.01318934 0.010329703
0.05306086 0.023359608 0.05357958 -0.02834583 0.014383211 0.09302641 0.09843216 0.007700411
0.028760506 0.06886555 -0.01860046 0.092680834 0.1196318 0.07104362 -0.010884344 -0.021788813
0.091354035 0.01962868 0.10446053 0.04332188 0.0499239 0.13840844 0.0007949139 0.115511954
0.13490431 0.080422156 0.008853653 0.11410598 0.12153427 -0.0044163177 -0.05360442 0.0182672
00000000: f2ec 093e 84cb 063e e1ed 003c 767c e63c
00000010: df88 ac3d 1da4 a23d 82ab 6e3d ae4d 123d
00000020: 248d 4fbd ffb7 f1bc 432b 7ebc 8660 7b3d
00000030: 3ee1 59bd 2763 8cbd 88dc 333c 72c7 62bd
00000040: e302 cfbc e1b0 563c c314 3c3d 9675 d93c
00000050: 1b3f 693c dab6 27bd 40dc ccbd f4e2 42bd
00000060: adeb 6cbd c13a 043d ce1c 813d c38a 4f3d
00000070: 7a0b 18bc 6f98 a73c 389e b4bd 4bbd bd3c
00000080: 7980 62bd 6ab4 88bd 649c efbc d598 d6bd
00000090: 6b89 c7bd 7aff 003d 924b 40bd a658 34bc
000000a0: 57d2 bfbd 421f 63bd e964 b0bd ff65 873d
000000b0: 6875 eabc a606 13bd c43c 1d3d 99fc bb3c
000000c0: 1aef 573d a903 833b 8f9e af3d 4a62 c4bc
000000d0: 349a c73c f0e9 d33d 96f5 893d 6ec6 ba3d
000000e0: 5991 e03c 1557 b6bd 39b0 67bd 1c57 33bc
000000f0: db36 81bd ce1a a53c 0a8d a23b 0822 203d
00000100: 974e 053c b4ab d2bc d570 2ebd 5e8c ff3b
00000110: b08d e5bd 1900 033d 4213 883d e9c6 463c
00000120: 6730 20bd 66be ec3c bd8c fc3c 701b 72bd
00000130: 18fc 3a3c 3eaf e4bc dec2 bcbd ca85 aabd
00000140: fc97 bb3d 125c 513d 9ede c13d 6388 4c3d
00000150: f50c 5f3d ed5a 3f3c 504f 753d 36be 87bb
00000160: d009 7dbd dc35 0e3d 54c9 26bd db0f f2bc
00000170: 20b7 b53d 43bd 193c f691 d53d 69bf 293d
00000180: 878e 8e3b dc63 e63c db8c e7bb 1903 a9bc
00000190: 1f07 85bd ac07 cfbb 35e6 71bd 2647 1ebc
000001a0: 430b 073d 3bc7 283d 4b01 9a3b 7a26 a4bd
000001b0: d604 693d 4a00 8dbd 7b6b 993c a5b8 dfbc
000001c0: dbdb 4e3d a83b 7a3d a3ef 9bbd e5a5 93bd
000001d0: 1455 c2bd f944 40bd 138d ddbd 55cd e63c
000001e0: 5479 ceba 14e0 a73c 87af 16bd 8295 b1bc
000001f0: 7af1 3d3d 3bab 04bd fb67 e5bd 48ca 63bd
00000200: c764 c83d 2019 3ebc 0ba2 c7bc aadd 433d
00000210: 7709 5f3d 1d39 d3bc 4dfe af3d 438b 043e
00000220: 41f7 2e3c b658 d23c 7def f0ba ffe1 2b3d
00000230: 0ef9 543a c39c e13d e1e7 b63d 52e3 903d
00000240: eb92 a43d 9e85 8e3c 05d5 ee3d eeaa 853c
00000250: 2783 ad3c 73e0 e43c d8ac b23c 2154 fc3d
00000260: a852 a93d ea7c 383d cc42 883d 2ba5 6e3d
00000270: 35d3 d5bc 7e05 dd3d 0d6e 8d3d 5afe 073d
00000280: c34f f43d 30a4 1c3d 4057 d63d f3bb e73d
00000290: 4edb 02bd a847 863c 2eff 2abd 259a 15bd
000002a0: 8e46 24bc 849e d23d 98d6 903d e104 bd3c
000002b0: a4b2 1abd 161c 5d3d 3349 c83d 912f 2e3d
000002c0: a98d a53d c52f c13d a880 a9bc 5031 bebc
000002d0: fec3 0d3e b0f2 863d 27ea 313d 1f09 423c
000002e0: dec8 bcbc fef6 76bc ee76 193d fdd5 073d
000002f0: e242 ce3d dcce e03d 5d53 77bc e4ec 023c
00000300: 06ff de3c c685 e7bc ca96 cebc 7f2f a33b
00000310: bdd1 833c fb99 8e3d 3a21 21bb be57 04bd
00000320: 4c79 65bc a286 9fbc 467a c8bb d8d7 9fbb
00000330: 84e7 083e f443 f7bc 8bef 32bd 8f20 513d
00000340: cde3 fbbc abdd f23c faf1 fd3c 8ceb cdbc
00000350: 64ea 753d d57c ce3d 7a8e cc3b 8a4d e43d
00000360: e57f da3d ee26 f53d b86c 9b3d 5d7f 613a
00000370: 427c 633d e6c6 ae3d 1a18 583c ea3d 293c
00000380: 5856 593d a65c bf3c 4376 5b3d 8435 e8bc
00000390: 8fa7 6b3c a184 be3d cd96 c93d bb53 fc3b
000003a0: 279b eb3c 6209 8d3d fe5f 98bc 73cf bd3d
000003b0: 8401 f53d 517f 913d 3f54 32bc 747e b2bc
000003c0: d317 bb3d 53cc a03c 67ef d53d 4972 313d
000003d0: 017d 4c3d f1ba 0d3e c561 503a 8891 ec3d
000003e0: 5b24 0a3e 5fb4 a43d ea0e 113c 65b0 e93d
000003f0: f6e6 f83d c2b6 90bb 4f90 5bbd 18a5 953c

encoder.6.bias f4 [32]
0.12736607 0.063951366 -0.09538517 0.1056706 -0.0059444937 0.11643466 -0.09730782 0.10089982
-0.11625405 -0.03598713 -0.095620595 -0.04703703 -0.09851045 0.13468459 0.1325953 -0.05936481
-0.0027478659 0.033514027 0.11224296 -0.005790289 0.13937868 -0.07175121 -0.0633335 0.08689926
-0.07087383 0.1255516 -0.05290685 0.12147801 -0.09670623 0.00021605856 -0.10739038 -0.06604916
00000000: 406c 023e eff8 823d 4d59 c3bd d469 d83d
00000010: 07ca c2bb 4c75 ee3d 5349 c7bd 91a4 ce3d
00000020: 9a16 eebd 3e67 13bd bbd4 c3bd e7a9 40bd
00000030: d9bf c9bd c2ea 093e 10c7 073e 8428 73bd
00000040: 8a15 34bb 0146 093d a3df e53d 77bc bdbb
00000050: 49b9 0e3e 4cf2 92bd feb4 81bd 3df8 b13d
00000060: 4c26 91bd 9990 003e dab4 58bd 77c9 f83d
00000070: ea0d c6bd c78d 6239 7def dbbd c844 87bd

encoder.9.weight f4 [32, 32, 8]
0.08114099 0.037904456 -0.003019528 0.107869074 -0.0039106924 0.08261892 0.045479205 0.0071210386
-0.0028454214 0.055524465 -0.0039329478 -0.068104655 -0.025509587 -0.0032051932 -0.015915697 0.03405834
0.045945067 -0.06914269 -0.07087041 -0.110811196 -0.03688866 -0.0018884073 0.0260855 0.0012933922
-0.031554703 0.046267282 -0.03137472 -0.02525835 -0.024564452 0.04415364 0.004322568 0.037713036
0.043793906 0.048273716 -0.036267363 -0.09430112 -0.028001228 -0.034741096 -0.0011998946 -0.037796065
0.08907302 -0.016419964 0.030840578 0.07067173 0.065045945 0.015755802 0.0990289 0.013005801
0.031743158 -0.045342673 -0.04123454 0.003966183 -0.057330042 0.013468459 0.035509646 -0.027555654
0.055985503 -0.028069504 -0.0635655 -0.06627059 -0.038308255 -0.00522862 0.03654074 -0.032752406
0.032794625 0.028794838 -0.06007504 -0.02245618 -0.08508268 -0.03157522 -0.0021002502 0.026104566
0.04598192 0.072927 0.004428779 0.023519736 0.02194194 -0.0040551834 0.06263213 0.0094710095
0.04641816 -0.0878297 -0.067112975 -0.006750275 -0.074252926 0.06541103 0.0004637019 0.060344044
0.0049635996 -0.06724621 -0.03278197 -0.065213054 0.033646658 0.016364519 0.076994665 0.022017159
0.014044646 -0.041534677 -0.07114231 -0.07822696 -0.041523263 -0.03274508 0.056566443 0.059508108
-0.002844605 0.07345264 0.08449922 0.07210375 0.068750314 0.050330427 0.049699765 -0.0073342263
-0.016067566 -0.045800354 -0.06747658 -0.059419636 0.006807315 0.0126644885 0.08989783 0.0773763
0.03744394 -0.038804024 0.007998437 0.025662258 0.0062364377 -0.049731854 -0.03414975 -0.05336132
-0.0014920708 -0.051212806 0.025790213 -0.08294159 0.036587816 -0.021957759 0.08075556 -0.04629781
0.07763577 0.048908964 -0.05570134 -0.056994554 0.04909485 0.06782995 0.084305 0.03932195
-0.010211206 0.07863408 0.01771078 -0.0014041191 0.010155892 0.09451465 0.053958945 0.04924732
-0.028291997 -0.08253071 -0.037361115 -0.011243521 -0.035039954 -0.015669085 0.085878864 0.0011340287
0.03875464 0.010008376 0.0017206945 0.030643638 0.0924646 0.08142352 0.056696143 0.059198532
-0.036148515 0.047670882 -0.095523626 -0.04478951 0.0059045777 0.04088816 0.047956906 0.06136233
0.061271414 -0.055244073 -0.035319198 0.015032411 -0.02298485 0.038706355 0.07629022 -0.00015426891
0.019805398 0.0348133 -0.007111373 -0.01729884 0.019703673 0.0021735113 0.011610318 -0.018268883
-0.03878058 -0.009372381 -0.044836346 -0.030231988 -0.04149898 0.0036309601 -0.013375672 -0.0047480958
0.07777016 0.01141935 0.013236211 0.040960107 0.08517257 0.103739426 0.038768206 -0.008860599
-0.05567337 -0.016999573 -0.03141558 -0.081948824 0.03684856 -0.047374338 0.04404285 0.04605535
-0.017989635 0.061610788 0.10070373 -0.0058532255 0.065293126 0.09385007 0.048989207 0.035901785
0.056427404 -0.03481345 -0.04946818 0.0035620998 -0.055209223 -0.017163131 -0.012295034 0.014031973
-0.015964946 -0.045243617 -0.0022714313 -0.09685254 -0.055024553 0.03567237 -0.036233336 -0.037103795
0.04350775 0.02182932 -0.0806375 -0.02361744 -0.025543777 0.043852847 0.08706316 0.003922264
0.07609816 0.043459367 -0.086734846 -0.021663878 -0.07729324 0.020985385 -0.00046891742 0.026474472
00000000: 3f2d a63d b441 1b3d 46e3 45bb 76ea dc3d
00000010: 4425 80bb 1c34 a93d 6748 3a3d 9a57 e93b
00000020: 407a 3abb 9f6d 633d f5df 80bb 747a 8bbd
00000030: 7bf9 d0bc 380e 52bb a361 82bc c280 0b3d
00000040: e530 3c3d af9a 8dbd 8124 91bd fbf0 e2bd
00000050: 9018 17bd 6f84 f7ba 42b1 d53c 0a87 a93a
00000060: 813f 01bd c382 3d3d c782 00bd 99ea cebc
00000070: 643b c9bc 72da 343d 54a4 8d3b fc78 1a3d
00000080: 3d61 333d a9ba 453d 168d 14bd f220 c1bd
00000090: d562 e5bc ae4c 0ebd c845 9dba 0cd0 1abd
000000a0: ea6b b63d 2983 86bc 61a5 fc3c 57bc 903d
000000b0: cf36 853d 5012 813c aacf ca3d 4816 553c
000000c0: 1d05 023d 3db9 39bd 8de5 28bd c1f6 813b
000000d0: e8d2 6abd d0aa 5c3c 9072 113d 65bc e1bc
000000e0: 0e51 653d 04f2 e5bc a12e 82bd e0b8 87bd
000000f0: 1ee9 1cbd d854 abbb beab 153d 6327 06bd
00000100: a853 063d 27e3 eb3c 3f11 76bd 06f6 b7bc
00000110: d43f aebd 0555 01bd 5aa4 09bb 3ed9 d53c
00000120: 8a57 3c3d c05a 953d 4a1f 913b 76ac c03c
00000130: 95bf b33c 58e1 84bb 4645 803d 4b2c 1b3c
00000140: f820 3e3d 0fe0 b3bd 8772 89bd 6931 ddbb
00000150: eb11 98bd 38f6 853d 041d f339 512b 773d
00000160: b1a5 a23b 62b8 89bd 6346 06bd 6c8e 85bd
00000170: 14d1 093d e20e 863c 61af 9d3d 545d b43c
00000180: 841b 663c 4420 2abd 0fb3 91bd 7535 a0bd
00000190: 4c14 2abd b41f 06bd 37b2 673d c6be 733d
000001a0: 8d6c 3abb 566e 963d ed0d ad3d 22ab 933d
000001b0: f7cc 8c3d 4727 4e3d fb91 4b3d f353 f0bb
000001c0: 21a0 83bc 2799 3bbd 2931 8abd 0162 73bd
000001d0: e60f df3b b77e 4f3c 5a1c b83d 7777 9e3d
000001e0: d15e 193d f8f0 1ebd e00b 033c a839 d23c
000001f0: 085b cc3b a1b3 4bbd 9ce0 0bbd 6691 5abd
00000200: 9791 c3ba 85c4 51bd ff45 d33c 48dd a9bd
00000210: 1bdd 153d c2e0 b3bc 2c63 a53d c6a2 3dbd
00000220: 81ff 9e3d c454 483d 1727 64bd 1f73 69bd
00000230: ae17 493d 6eea 8a3d 1aa8 ac3d 0e10 213d
00000240: e74c 27bc e80a a13d 3316 913c 6b0a b8ba
00000250: e664 263c e690 c13d 0e04 5d3d 8fb7 493d
00000260: 9ec4 e7bc dc05 a9bd f807 19bd bf36 38bc
00000270: 0e86 0fbd 745c 80bc 42e1 af3d b0a3 943a
00000280: 2fbd 1e3d 2cfa 233c ed88 e13a 5e08 fb3c
00000290: 155e bd3d 60c1 a63d 373a 683d 297a 723d
000002a0: 7710 14bd 8b42 433d e4a1 c3bd 3575 37bd
000002b0: 307b c13b 587a 273d 766e 443d 1157 7b3d
000002c0: bcf7 7a3d 9c47 62bd ddaa 10bd 804a 763c
000002d0: b94a bcbc 8e8a 1e3d 0c3e 9c3d 3fc3 21b9
000002e0: ee3e a23c 6498 0e3d 8506 e9bb 4cb6 8dbc
000002f0: 9969 a13c 7871 0e3b 3439 3e3c a0a8 95bc
00000300: 63d8 1ebd 9d8e 19bc 51a6 37bd 13a9 f7bc
00000310: d6fa 29bd 67f5 6d3b a225 5bbc ea95 9bbb
00000320: f645 9f3d 3a18 3b3c b1dc 583c c9c5 273d
00000330: f56e ae3d 5675 d43d 69cb 1e3d 0c2c 11bc
00000340: c209 64bd b042 8bbc a0ad 00bd c9d4 a7bd
00000350: 84ee 163d 980b 42bd 4766 343d 89a4 3c3d
00000360: 005f 93bc 985b 7c3d c23d ce3d 6acc bfbb
00000370: 67b8 853d 7734 c03d e8a8 483d c00d 133d
00000380: 6c20 673d 8c98 0ebd 259f 4abd 1e72 693b
00000390: 1123 62bd b299 8cbc 1c71 49bc 5ce6 653c
000003a0: ebc8 82bc 5f51 39bd 4bdc 14bb a05a c6bd
000003b0: 6d61 61bd 311d 123d 6869 14bd 26fa 17bd
000003c0: 2f35 323d 67d3 b23c 4625 a5bd 5d79 c1bc
000003d0: 2f41 d1bc 0b9f 333d 2c4e b23d 5686 803b
000003e0: 5ad9 9b3d 7302 323d 0aa2 b1bd 7278 b1bc
000003f0: eb4b 9ebd 8be9 ab3c 08d9 f5b9 fee0 d83c

encoder.9.bias f4 [32]
0.0057224357 0.07774338 -0.07686513 -0.0016912749 -0.032803405 -0.041856084 -0.08929124 0.039668757
-0.024195015 -0.06344652 -0.0730976 -0.04131596 0.009717978 -0.03557499 -0.032043833 -0.07978575
0.09980325 -0.06504288 0.05642732 -0.03704803 0.08456325 -0.005693806 -0.036519438 -0.08317305
0.024212644 0.041529536 -0.013052473 0.11306611 -0.030042779 0.09242653 0.09990739 -0.0025174685
00000000: 4583 bb3b ec37 9f3d 776b 9dbd c5ad ddba
00000010: dd5c 06bd 4971 2bbd 53de b6bd b57b 223d
00000020: a034 c6bc 40f0 81bd 32b4 95bd ed3a 29bd
00000030: 2738 1f3c 15b7 11bd 6540 03bd b666 a3bd
00000040: a565 cc3d 3435 85bd 5520 673d adbf 17bd
00000050: 7f2f ad3d 1b93 babb 6895 15bd a256 aabd
00000060: 9859 c63c e01a 2a3d 0ada 55bc 348f e73d
00000070: 461c f6bc 1f4a bd3d 3f9c cc3d 1dfc 24bb

encoder.12.weight f4 [64, 32, 3]
0.05133587 0.08710918 -0.06860854 -0.022054419 -0.02607573 0.019095592 0.06749369 -0.06982074
-0.108536474 -0.12739658 -0.0699263 0.0026949958 -0.029947514 -0.05214697 -0.005848274 -0.067470886
-0.11077912 -0.008411649 0.029112382 0.029341223 -0.101882264 0.030184478 -0.108177125 -0.08850047
-0.0601233 0.08063624 0.00805323 0.00019929752 -0.020497072 0.07317632 -0.040763658 -0.021637877
-0.049241584 -0.006031597 -0.061053317 0.06509316 0.033085786 -0.12863754 -0.060290407 -0.05423084
-0.13100345 -0.12302617 -0.000560726 0.029207293 0.0137848845 -0.035809718 -0.121526025 0.040249515
0.06950558 0.023152253 0.023171622 -0.022049557 -0.027907584 0.05313907 -0.04582958 0.017641852
-0.096623324 -0.074435815 0.06997509 0.07116115 0.09381914 0.00013583674 0.09000412 0.06782819
0.0021679318 0.04899816 0.031175777 0.04023806 0.05611824 0.017725818 -0.123713546 -0.12343592
-0.03909061 -0.06302064 -0.08902039 -0.083872266 0.016092021 -0.10380738 -0.02225873 -0.13821194
-0.12273281 0.066685796 0.0023013987 -0.016357021 0.010382702 0.02983369 -0.08330224 0.013378579
0.04571868 0.061302707 -0.002970579 0.091186464 -0.0451618 0.01889197 -0.07342173 0.03974036
0.076131776 -0.04935961 -0.06805753 -0.10820333 -0.03943442 -0.10143778 0.058690265 -0.08337666
0.09111782 -0.028882759 -0.033593338 0.11536541 0.112250865 0.012235179 0.03773122 -0.0020447965
0.04806854 -0.046155944 0.08408034 -0.06703415 0.08480717 -0.0070835096 0.010487621 0.0012956042
0.06677867 -0.06066349 -0.037183978 0.06723105 -0.04784241 0.14132214 -0.059189085 0.003541836
0.018493231 0.061311997 0.050243035 -0.09571402 -0.0015433523 -0.0040695397 -0.066556916 0.11581077
0.024655318 0.06319705 0.062706485 -0.035399646 -0.060489416 -0.02062677 0.012992733 -0.045979913
-0.034126345 0.02437702 -0.016180454 0.032278184 -0.039597545 0.050419167 -0.038776238 -0.097083315
-0.10155889 0.12384483 0.055485085 -0.029150808 -0.0013964551 -0.111147515 -0.016340712 -0.05471247
0.023030646 -0.032129075 0.06425124 -0.008095797 0.033025827 0.09917246 0.11427277 0.025137525
-0.06042978 -0.05378062 0.023740131 0.010529705 -0.06475914 0.10523633 0.03602382 0.08598358
0.02541339 0.036882196 -0.031936906 0.007532384 0.12544146 -0.025946604 0.031750295 -0.000564934
-0.090193376 -0.14295281 0.06099531 -0.08466993 -0.03806235 -0.024373267 -0.12624568 0.060769558
0.020758754 -0.03254893 0.00025286208 0.11145519 0.0397571 -0.04573893 -0.02601869 -0.07984639
-0.1145919 -0.049984694 -0.05901932 -0.012255092 0.07473441 0.014785844 -0.07753222 0.025706433
-0.02534751 -0.085375845 -0.019439753 0.055702668 0.010748729 -0.02081291 -0.028384358 0.008067875
0.0002795056 -0.03233082 -0.053807054 0.045100097 -0.039383803 -0.07630399 0.09525733 0.031349134
0.022520239 -0.07931072 -0.057580303 -0.058955308 0.04477232 0.029100781 -0.12815261 -0.0769967
-0.059297416 0.039723344 -0.104901105 0.009460539 -0.08265962 -0.053533703 -0.09732483 -0.008346909
-0.06733109 0.11916113 -0.038821943 0.014788204 -0.081373684 0.054456804 -0.0026795606 0.009100997
0.061524794 -0.01690756 -6.981334e-05 -0.08041606 0.06032101 0.0035524399 0.06554354 -0.025956098
00000000: 9045 523d 4c66 b23d a282 8cbd 78ab b4bc
00000010: c59c d5bc 5c6e 9c3c 223a 8a3d 2dfe 8ebd
00000020: 5f48 debd 4074 02be 8535 8fbd 879e 303b
00000030: 7d54 f5bc 1098 55bd e1a2 bfbb 2d2e 8abd
00000040: 2ae0 e2bd 03d1 09bc 177d ee3c 015d f03c
00000050: a6a7 d0bd 7045 f73c f88b ddbd bc3f b5bd
00000060: d943 76bd 9d24 a53d b2f1 033c 85fa 5039
00000070: 7ae9 a7bc 77dd 953d cbf7 26bd eb41 b1bc
00000080: 8bb1 49bd b4a4 c5bb 0b13 7abd 904f 853d
00000090: f684 073d 8fb9 03be 13f3 76bd 2821 5ebd
000000a0: c525 06be 25f5 fbbd affd 12ba 2244 ef3c
000000b0: ffd9 613c 36ad 12bd a3e2 f8bd addc 243d
000000c0: f158 8e3d cba9 bd3c 6ad2 bd3c 46a1 b4bc
000000d0: 729e e4bc 5aa8 593d ccb7 3bbd a585 903c
000000e0: 73e2 c5bd ce71 98bd 1a4f 8f3d f0bc 913d
000000f0: 4024 c03d 666f 0e39 1454 b83d 82e9 8a3d
00000100: dc13 0e3b 4bb2 483d 5864 ff3c aad0 243d
00000110: 3ddc 653d bc35 913c 875d fdbd f9cb fcbd
00000120: 7a1d 20bd f710 81bd 5250 b6bd 39c5 abbd
00000130: 6ad3 833c f798 d4bd f157 b6bc 6e87 0dbe
00000140: 575b fbbd 9092 883d 10d3 163b 29ff 85bc
00000150: 351c 2a3c c865 f43c 5d9a aabd d431 5b3c
00000160: 8343 3b3d 8c18 7b3d 0cae 42bb f8bf ba3d
00000170: 94fb 38bd 55c3 9a3c 225e 96bd cac6 223d
00000180: faea 9b3d 4d2d 4abd bf61 8bbd b599 ddbd
00000190: fd85 21bd 9cbe cfbd 3465 703d 62c1 aabd
000001a0: fb9b ba3d 899b ecbc 2b99 09bd b344 ec3d
000001b0: c8e3 e53d 0f76 483c 0d8c 1a3d fe01 06bb
000001c0: 84e3 443d 040e 3dbd 5032 ac3d 3349 89bd
000001d0: 62af ad3d c91c e8bb 45d4 2b3c 43d1 a93a
000001e0: 41c3 883d 487a 78bd 3a4e 18bd 6fb0 893d
000001f0: 67f6 43bd c0b6 103e 4170 72bd 261e 683b
00000200: 1e7f 973c 4a22 7b3d a4cb 4d3d b605 c4bd
00000210: 4f4a caba c659 85bb fe4e 88bd 322e ed3d
00000220: f3f9 c93c 746d 813d 426c 803d 38ff 10bd
00000230: c0c3 77bd 79f9 a8bc 79df 543c 6f55 3cbd
00000240: 11c8 0bbd 51b2 c73c df8c 84bc 2136 043d
00000250: 0931 22bd 5484 4e3d d5d3 1ebd 9ed3 c6bd
00000260: 1bfe cfbd 5ca2 fd3d 5444 633d adcd eebc
00000270: 4209 b7ba 4fa1 e3bd f5dc 85bc 2f1a 60bd
00000280: c4aa bc3c c799 03bd 2796 833d 3ca4 04bc
00000290: 1746 073d ee1a cb3d d807 ea3d 36ed cd3c
000002a0: 3885 77bd 1149 5cbd aa7a c23c c984 2c3c
000002b0: 71a0 84bd 2586 d73d b78d 133d 2918 b03d
000002c0: be2f d03c c911 173d 46d0 02bd 37d2 f63b
000002d0: ba73 003e f98d d4bc 990c 023d 1418 14ba
000002e0: 4eb7 b8bd 3962 12be 38d6 793d 6e67 adbd
000002f0: 44e7 1bbd 72aa c7bc 8c46 01be 80e9 783d
00000300: 430e aa3c 0752 05bd 9392 8439 9e42 e43d
00000310: 57d8 223d bf58 3bbd 2625 d5bc 8186 a3bd
00000320: 28af eabd c0bc 4cbd 3ebe 71bd 95c9 48bc
00000330: 5b0e 993d 5340 723c 36c9 9ebd 4c96 d23c
00000340: 95a5 cfbc 88d9 aebd 1e40 9fbc 7b28 643d
00000350: 701b 303c d67f aabc 5086 e8bc 1f2f 043c
00000360: 9b8a 9239 526d 04bd c964 5cbd e1ba 383d
00000370: e950 21bd 4445 9cbd 4616 c33d f367 003d
00000380: 5d7c b83c a96d a2bd 53d9 6bbd 1f7b 71bd
00000390: 2e63 373d c364 ee3c 703a 03be 72b0 9dbd
000003a0: d9e1 72bd f2b4 223d 64d6 d6bd 6000 1b3c
000003b0: 7249 a9bd 2846 5bbd 3e52 c7bd 79c1 08bc
000003c0: e2e4 89bd c00a f43d c203 1fbd 394a 723c
000003d0: 3fa7 a6bd 190e 5f3d 919b 2fbb 591c 153c
000003e0: 6c01 7c3d b981 8abc c068 92b8 2db1 a4bd
000003f0: 2a13 773d 0dd0 683b b13b 863d e2a1 d4bc

encoder.12.bias f4 [64]
-0.039924864 -0.11073876 0.019588642 0.09118888 0.003868352 0.04583394 0.055345807 -0.12555672
0.047924113 -0.108038336 -0.093522705 -0.13160294 -0.08632677 0.07036282 0.08856673 -0.00029227405
-0.052487895 0.072986044 0.01891021 0.11278556 0.07991996 -0.04449364 0.07826456 0.08247828
0.1107846 0.0486438 0.08123812 -0.12533362 0.0063629323 -0.09148308 0.10759026 -0.097802944
0.02807608 0.10425847 0.08592727 0.13565731 -0.07281973 0.049783207 -0.14137304 0.0017454627
-0.11441306 -0.13569511 -0.11259442 0.08022173 -0.11677282 0.11680555 0.09660441 0.10834809
-0.044238716 0.0922513 0.07293673 0.15247971 0.064548686 0.11700698 0.040107973 0.06944589
0.07626976 0.039817225 -0.016485285 0.110556155 -0.009562857 0.080771856 0.028092828 0.12748808
00000000: 4188 23bd 01cb e2bd 5c78 a03c 3cc1 ba3d
00000010: 2d84 7d3b 5fbc 3b3d 49b2 623d f191 00be
00000020: 134c 443d 3443 ddbd d588 bfbd ecc2 06be
00000030: 17cc b0bd 621a 903d 7962 b53d 5c3c 99b9
00000040: 8cfd 56bd b579 953d 96e9 9a3c 1efc e63d
00000050: 13ad a33d f73e 36bd 2b49 a03d 5fea a83d
00000060: 09e3 e23d b93e 473d 2c60 a63d 7557 00be
00000070: 2580 d03b 7b5b bbbd 4858 dc3d e94c c8bd
00000080: cfff e53c 7785 d53d a3fa af3d c0e9 0a3e
00000090: 8322 95bd 7ae9 4b3d 18c4 10be 02c8 e43a
000000a0: 6551 eabd a9f3 0abe e797 e6bd 4a4b a43d
000000b0: 9726 efbd c037 ef3d 88d8 c53d 9ae5 dd3d
000000c0: a833 35bd 40ee bc3d da5f 953d a423 1c3e
000000d0: 1a32 843d 5ba1 ef3d 4248 243d a639 8e3d
000000e0: 5233 9c3d 6317 233d 260c 87bc 446b e23d
000000f0: 88ad 1cbc b76b a53d ee22 e63c 3c8c 023e

encoder.15.weight f4 [256, 192]
-0.032560777 -0.036793064 -0.056228988 0.060198218 -0.0024405525 -0.058229994 0.024931785 0.053713553
0.031479698 -0.038494725 0.02120217 -0.058415435 -0.0241938 -0.0114960885 -0.057457305 -0.0476499
0.024075609 -0.009407266 -0.022035956 -0.002235872 -0.020834476 -0.041281644 -0.059333794 -0.028422996
-0.0687025 0.047123674 -0.065438785 8.812469e-05 -0.021782054 0.0651445 0.042668246 -0.042205222
0.034617305 -0.03180399 0.066327915 0.079489596 0.061553594 -0.042541098 0.062010035 0.060171958
-0.014518979 -0.05862606 -0.048003934 -0.07023672 0.03344276 0.061964225 0.04316675 -0.034097888
0.066171326 0.03771788 0.02083941 -0.0060269237 -0.066726424 -0.052845106 -0.079315096 -0.021955127
-0.0033540132 -0.02108079 -0.044710513 -0.08054392 0.014358771 -0.060237903 -0.012111915 -0.012207752
0.017847495 0.032698885 0.0049317903 0.016348843 -0.016479881 0.038122986 -0.08227398 0.021181848
-0.041796688 0.054228637 0.0031910497 0.024653286 -0.065051734 -0.0023332126 0.03188581 -0.039509963
0.0038424747 0.017107826 -0.059966844 0.046597328 -0.038907267 -0.06258489 0.06596435 0.051971573
-0.016676571 -0.007291724 0.05426369 -0.05850571 -0.023468314 0.038919512 0.028557958 0.023888191
-0.04477661 0.023172902 -0.06938455 0.053493824 -0.030389696 -0.01609477 -0.025342336 -0.04658486
0.05081051 -0.07148916 -0.019320263 0.0049542747 -0.008703189 0.03994972 -0.04301569 -0.04938102
0.044891775 0.06797567 0.002680339 0.08909091 0.07882989 -0.021980163 -0.014233035 -0.04298408
0.06335481 -0.043154206 0.04093691 0.0061521246 -0.0015193996 0.010156837 -0.019978965 0.0058821263
0.069952145 -0.0026646382 -0.030807752 0.056252036 -0.0565231 -0.06928701 0.031025346 0.072871074
0.063438125 0.035443936 0.058813017 0.04277063 -0.046258062 -0.007893822 -0.020752959 0.021701433
0.026858637 -0.03698028 0.06585251 0.032394912 0.017671544 0.020892022 -0.079152055 -0.07291628
-0.0052505257 -0.019153384 0.04941488 0.05300847 0.014333609 0.06230875 -0.02233817 -0.06529371
0.024695724 0.043940086 -0.041842777 -0.07178071 -0.051239528 -0.02363408 -0.03177214 -0.0012471825
0.03636604 -0.089176185 0.06050716 -0.04032451 0.017678065 -0.07354166 -0.037949305 0.03369619
-0.053604014 -0.013865318 0.049862117 -0.045693018 0.0146656 -0.019018339 0.00048007767 -0.017380133
-0.041144688 -0.006640352 -0.0068831006 -0.02242883 -0.025492726 0.040320907 -0.06852241 0.03952281
0.024025857 -0.07138105 0.0030763138 -0.014231285 -0.025061365 -0.03772728 -0.08046912 0.034363672
-0.071062125 0.06748182 0.02891409 0.027647128 -0.03877242 -0.040495403 -0.008136512 -0.02243985
-0.042742915 -0.011662146 0.06151305 -0.017276257 -0.038138933 -0.07378774 -0.010635913 -0.07861743
0.10547154 -0.008411785 0.008978558 -0.030619742 -0.07539243 -0.011616963 0.048208166 0.040590487
-0.033417813 -0.07726844 -0.045191582 -0.008948868 -0.049912974 -0.0048360922 -0.053088315 0.007993526
0.051000003 -0.02758331 -0.006340722 -0.03516769 0.0891976 -0.029090015 0.08366905 0.0689796
-0.05808428 0.022863666 0.017179508 -0.050256215 -0.069745615 -0.055298336 -0.015390379 0.0019790418
-0.01893106 0.074870415 0.0071503837 -0.04158665 -0.03874475 -0.0035234264 -0.0034258552 0.060860455
00000000: 735e 05bd 53b4 16bd 5e50 66bd 6892 763d
00000010: adf1 1fbb 9382 6ebd be3d cc3c be02 5c3d
00000020: dbf0 003d a5ac 1dbd 2cb0 ad3c 0645 6fbd
00000030: 1332 c6bc 175a 3cbc 5a58 6bbd 8b2c 43bd
00000040: 363a c53c ef20 1abc c084 b4bc b587 12bb
00000050: 10ad aabc f116 29bd fe07 73bd 58d7 e8bc
00000060: e5b3 8cbd c104 413d c504 86bd 95cf b838
00000070: 4770 b2bc 7b6a 853d e6c4 2e3d 62df 2cbd
00000080: e0ca 0d3d e744 02bd eed6 873d 71cb a23d
00000090: 9f1f 7c3d 933f 2ebd 3cfe 7d3d df76 763d
000000a0: 03e1 6dbc e121 70bd c69f 44bd 45d8 8fbd
000000b0: 47fb 083d 33ce 7d3d 9ecf 303d 3aaa 0bbd
000000c0: d584 873d 107e 1a3d 69b7 aa3c 807d c5bb
000000d0: dda7 88bd 1c74 58bd f46f a2bd 3ddb b3bc
000000e0: 01cf 5bbb 9fb1 acbc 5f22 37bd 36f4 a4bd
000000f0: 0d41 6b3c 05bc 76bd 0e71 46bc 0603 48bc
00000100: e934 923c 44ef 053d db9a a13b 02ee 853c
00000110: d100 87bc d926 1c3d 437f a8bd 8e85 ad3c
00000120: 0133 2bbd d91e 5e3d ee20 513b b0f5 c93c
00000130: d839 85bd d0e8 18bb b29a 023d 33d5 21bd
00000140: 07d2 7b3b b625 8c3c cb9f 75bd d7dc 3e3d
00000150: 3a5d 1fbd 822c 80bd 5118 873d 25e0 543d
00000160: 4e9d 88bc 6aef eebb 9a43 5e3d afa3 6fbd
00000170: 9f40 c0bc 116a 1f3d 61f2 e93c 2bb1 c33c
00000180: ae67 37bd 19d5 bd3c 7d19 8ebd 571c 5b3d
00000190: d0f3 f8bc 2ed9 83bc bb9a cfbc c4cf 3ebd
000001a0: ae1e 503d e968 92bd 8745 9ebc 7857 a23b
000001b0: d297 0ebc 51a2 233d 3831 30bd c143 4abd
000001c0: 70e0 373d d436 8b3d a0a8 2f3b 4c75 b63d
000001d0: 9171 a13d be0f b4bc ad31 69bc 1310 30bd
000001e0: 2bc0 813d 77c2 30bd 76ad 273d c397 c93b
000001f0: 9726 c7ba dd68 263c edaa a3bc dabe c03b
00000200: 1243 8f3d 36a1 2ebb 8a60 fcbc 8968 663d
00000210: c484 67bd 59e6 8dbd de28 fe3c 6e3d 953d
00000220: d9eb 813d a92d 113d ebe5 703d 4230 2f3d
00000230: 1879 3dbd 1755 01bc 1c02 aabc 34c7 b13c
00000240: a506 dc3c a278 17bd aedd 863d 87b0 043d
00000250: eac3 903c bf25 ab3c 791a a2bd 2155 95bd
00000260: 9a0c acbb 8fe7 9cbc 4267 4a3d 691f 593d
00000270: 83d7 6a3c 7637 7f3d 8afe b6bc b5b8 85bd
00000280: b04e ca3c 85fa 333d 5563 2bbd c401 93bd
00000290: 8ae0 51bd 429c c1bc 8123 02bd 8078 a3ba
000002a0: 8ff4 143d 01a2 b6bd 5bd6 773d 502b 25bd
000002b0: 97d1 903c 039d 96bd bb70 1bbd 0405 0a3d
000002c0: e28f 5bbd 5c2b 63bc 383c 4c3d 9a28 3bbd
000002d0: fc47 703c 59cc 9bbc efb2 fb39 c860 8ebc
000002e0: 5587 28bd 4f97 d9bb a28b e1bb aabc b7bc
000002f0: 1fd6 d0bc 8927 253d 7a55 8cbd ace2 213d
00000300: e0d1 c43c 3a30 92bd fb9b 493b 562a 69bc
00000310: 7e4d cdbc ec87 1abd fecc a4bd ecc0 0c3d
00000320: 0589 91bd e933 8a3d 3edd ec3c 3b7c e23c
00000330: d4cf 1ebd 82de 25bd 014f 05bc c7d3 b7bc
00000340: 3213 2fbd 9612 3fbc 1cf5 7b3d f086 8dbc
00000350: 9237 1cbd 071e 97bd 4142 2ebc 2d02 a1bd
00000360: 7601 d83d 95d1 09bc cd1a 133c 41d6 fabc
00000370: 5967 9abd 1355 3ebc ed75 453d 3642 263d
00000380: 1ee1 08bd ea3e 9ebd cf1a 39bd 469e 12bc
00000390: 8c71 4cbd 1578 9ebb 2273 59bd 47f7 023c
000003a0: 61e5 503d 65f6 e1bc d5c5 cfbb ff0b 10bd
000003b0: 3bad b63d 2f4e eebc ae5a ab3d 2d45 8d3d
000003c0: c8e9 6dbd 954c bb3c 0abc 8c3c 76d9 4dbd
000003d0: cad6 8ebd 8280 62bd ee27 7cbc d0b2 013b
000003e0: 4f15 9bbc a955 993d c44d ea3b c356 2abd
000003f0: d1b2 1ebd 49e9 66bb 5084 60bb d048 793d

encoder.15.bias f4 [256]
0.0486117 0.062269922 0.03796207 0.014851241 -0.0517301 0.08972706 -0.04755713 0.044032764
-0.06475592 -0.06600535 0.082173355 -0.020575922 -0.03573944 0.04261737 0.008870847 -0.022007506
0.03578851 -0.055824686 0.05839831 0.008982005 -0.035681948 0.01718849 -0.025647053 0.056533013
-0.018688332 -0.026743531 0.04416552 -0.07591638 0.043444622 -0.031428095 -0.056086436 -0.06815557
0.081796676 0.0303453 -0.07342537 -0.07003386 -0.07471876 -0.0055372766 -0.056595217 0.101684436
0.019661564 0.040712375 0.079659484 -0.03518613 -0.04497002 0.015585629 -0.07603259 0.042319916
-0.044941347 -0.038549885 -0.090061955 -0.022264346 0.026599497 0.008076583 0.06089915 -0.058484115
0.02307013 0.05628551 -0.004657723 -0.033231214 0.020099925 -0.018660981 -0.09278982 0.014948307
0.054426156 -0.019583846 -0.042698342 0.0012836969 -0.004872504 0.02522043 0.016480483 0.05790522
0.024953496 -0.03195922 -0.050157055 -0.008455048 0.07310064 -0.04868428 0.077794366 0.035447605
0.06870333 0.07826593 -0.008477722 -0.02585887 -0.0057596075 0.018489804 -0.0034858517 -0.054403093
-0.06465221 -0.041562516 -0.05908255 -0.05408725 -0.030754346 0.03256792 0.039913785 -0.021313198
-0.008358258 0.061707005 0.019115502 0.06930073 0.0026713298 0.046913356 0.0013095365 0.036968097
-0.05371556 -0.023229558 -0.047653582 -0.017246429 -0.0023206507 -0.027193207 -0.027428528 -0.03292453
-0.029221455 0.08501576 0.061514843 0.015517889 0.07991151 -0.03469601 0.06243662 -0.04054518
-0.033955056 -0.016961075 0.04045074 0.031442944 0.0029844802 0.00022394654 -0.033979245 -0.0034797082
-0.027957965 -0.06559169 0.0047127996 -0.027281247 -0.017786011 0.064520456 -0.077214964 0.0063826204
0.073533304 -0.06342966 -0.041825544 -0.009794242 0.060202427 0.011544001 0.038129363 0.044669025
0.0014354482 -0.017841768 0.05316487 -0.010916552 0.024318255 0.06293254 0.01944584 -0.0009844189
0.052798234 0.027279314 -0.0479378 0.07411125 0.09576424 0.018288368 -0.05660011 0.054508798
-0.07118912 -0.06820771 -0.017117055 -0.030896394 -0.08102998 0.071473256 -0.082482144 0.02953399
0.01087216 -0.013808274 0.07426825 -0.06758031 0.056562714 -0.032922115 -0.030786617 0.07230404
-0.026658393 -0.013835077 -0.03043732 -0.0498043 -0.050804134 -0.057986416 0.051419187 0.05619917
0.033874255 0.07682594 0.028492019 0.011124839 -0.065973 -0.028290676 -0.012788959 -0.049471684
-0.051265582 0.04987387 0.07671099 0.06406855 -0.050945368 -0.072923 -0.0663978 -0.00020049007
0.027934454 -0.036768664 -0.07629998 0.077742584 -0.030874537 0.034647606 0.09033683 0.025321437
-0.08023467 -0.08165375 0.05741376 -0.05922305 -0.039410397 -0.07309428 0.0899133 -0.006853573
0.03299258 0.07278767 0.017788067 0.041024886 0.06875586 0.047818925 0.067704566 -0.03599816
-0.05024551 -0.074074924 0.08342666 -0.057246994 -0.019363368 0.05346171 0.05726359 0.044134595
0.047310814 -0.030908497 0.017284065 -0.003704072 -0.006337285 0.008677699 0.06970276 -0.018806089
0.019682333 -0.025152596 -0.058719236 0.068834744 -0.014815493 0.0319587 0.06320385 -0.0076329517
-0.02450545 0.103741154 0.004618565 0.06995853 -0.046538997 -0.024179792 -0.06749364 0.042068653
00000000: 101d 473d bf0e 7f3d 1e7e 1b3d 9f52 733c
00000010: f1e2 53bd d2c2 b73d 44cb 42bd b35b 343d
00000020: c09e 84bd d02d 87bd 814a a83d d68e a8bc
00000030: 8563 12bd 8d8f 2e3d 0757 113c 1649 b4bc
00000040: f996 123d 6da8 64bd 1133 6f3d 4229 133c
00000050: 3c27 12bd e0ce 8c3c c519 d2bc 298f 673d
00000060: 4618 99bc 4015 dbbc e8e6 343d 0c7a 9bbd
00000070: fdf2 313d bfba 00bd e4ba 65bd 2695 8bbd
00000080: 0485 a73d b596 f83c 0a60 96bd ea6d 8fbd
00000090: 2606 99bd 0b72 b5bb 63d0 67bd ee3f d03d
000000a0: 4a11 a13c 05c2 263d 8324 a33d 551f 10bd
000000b0: 7c32 38bd de5a 7f3c f9b6 9bbd a657 2d3d
000000c0: 6b14 38bd 7ce6 1dbd 6772 b8bd b863 b6bc
000000d0: 30e7 d93c a553 043c 6371 793d 0a8d 6fbd
000000e0: 92fd bc3c a38b 663d d09f 98bb 741d 08bd
000000f0: 99a8 a43c eade 98bc 9708 bebd bee9 743c
00000100: f6ed 5e3d 4d6e a0bc 75e4 2ebd b841 a83a
00000110: 87a9 9fbb 139b ce3c 1402 873c 062e 6d3d
00000120: 466b cc3c ace7 02bd 7c71 4dbd 0b87 0abc
00000130: cab5 953d 2b69 47bd a752 9f3d 8231 113d
00000140: 55b4 8c3d e349 a03d 25e6 0abc fbd5 d3bc
00000150: 17bb bcbb ee77 973c e372 64bb c7d5 5ebd
00000160: 6168 84bd 753d 2abd 8b00 72bd 988a 5dbd
00000170: 8af0 fbbc f065 053d a37c 233d 0499 aebc
00000180: 13f1 08bc 7cc0 7c3d 1d98 9c3c 8bed 8d3d
00000190: 7a11 2f3b 3828 403d c1a4 ab3a dc6b 173d
000001a0: d904 5cbd ea4b bebc 6730 43bd 6248 8dbc
000001b0: 0f16 18bb 4ac4 debc cbb1 e0bc dfdb 06bd
000001c0: d561 efbc be1c ae3d fdf6 7b3d be3e 7e3c
000001d0: a5a8 a33d 671d 0ebd 8bbd 7f3d b412 26bd
000001e0: 7514 0bbd f4f1 8abc adaf 253d 51ca 003d
000001f0: 4597 433b 31d3 6a39 d22d 0bbd d10b 64bb
00000200: 1a08 e5bc f054 86bd d46d 9a3b ec7c dfbc
00000210: f8b3 91bc 4d23 843d e122 9ebd 4d25 d13b
00000220: a198 963d 69e7 81bd 4351 2bbd 0778 20bc
00000230: d296 763d 0d23 3d3c 892d 1c3d def6 363d
00000240: a625 bc3a e628 92bc 68c3 593d 56db 32bc
00000250: 1437 c73c c7e2 803d e24c 9f3c 9e07 81ba
00000260: f642 583d de78 df3c 6d5a 44bd a4c7 973d
00000270: 0b20 c43d 7dd1 953c 84d5 67bd 9e44 5f3d
00000280: 9acb 91bd 7cb0 8bbd 1139 8cbc 6f1a fdbc
00000290: 0cf3 a5bd 9260 923d 66ec a8bd 44f1 f13c
000002a0: 2521 323c 193c 62bc f419 983d 8c67 8abd
000002b0: 4eae 673d 57d9 06bd 3734 fcbc 2414 943d
000002c0: b462 dabc 85ac 62bc b057 f9bc 98ff 4bbd
000002d0: ff17 50bd 2a83 6dbd ed9c 523d 1a31 663d
000002e0: bbbf 0a3d eb56 9d3d 1868 e93c f544 363c
000002f0: da1c 87bd d9c1 e7bc c888 51bc d2a2 4abd
00000300: dcfb 51bd 8b48 4c3d a71a 9d3d 5f36 833d
00000310: 17ac 50bd a758 95bd 92fb 87bd a53a 52b9
00000320: ccd6 e43c bd9a 16bd 2a43 9cbd 8137 9f3d
00000330: 99ec fcbc a6ea 0d3d 8402 b93d e76e cf3c
00000340: 1352 a4bd 153a a7bd b12a 6b3d de93 72bd
00000350: cc6c 21bd 74b2 95bd 7724 b83d f093 e0bb
00000360: 3a23 073d b411 953d 48b8 913c b609 283d
00000370: dfcf 8c3d c7dd 433d b1a8 8a3d ce72 13bd
00000380: 3cce 4dbd 98b4 97bd 99db aa3d d37b 6abd
00000390: ed9f 9ebc abfa 5a3d 3a8d 6a3d 7ac6 343d
000003a0: fcc8 413d d133 fdbc 5097 8d3c 04c0 72bb
000003b0: 00a9 cfbb e82c 0e3c 52c0 8e3d 3a0f 9abc
000003c0: d83c a13c d10c cebc 9583 70bd 3bf9 8c3d
000003d0: aebc 72bc 20e7 023d 0571 813d d71d fabb
000003e0: a7bf c8bc 3e76 d43d 5557 973b 6b46 8f3d
000003f0: ad9f 3ebd b314 c6bc 1b3a 8abd 2e50 2c3d
