dump/source_encoder_cwru_cua_so.pt (torch, 284865 bytes, 12 tensors)

encoder.0.weight f4 [8, 1, 32]
0.2119528 -0.22009057 0.04043757 0.06538437 0.2000371 -0.15955797 -0.052528944 0.044654008
0.013059728 0.11145089 -0.10118089 0.19563577 -0.0897085 -0.1518073 0.0154000055 0.10044285
0.033123504 0.06413228 -0.00486095 0.16919051 -0.100769565 -0.0779036 0.11867179 0.09076725
-0.14203358 0.23012045 0.20848171 -0.15602371 0.08086353 0.20111324 0.18017429 -0.19655895
-0.011707206 -0.04046356 -0.019306907 0.13148367 0.006683998 0.118206464 -0.11503913 0.014020263
0.012256701 -0.0047814557 0.12310174 0.11762412 -0.07187006 -0.17423062 -0.106183045 -0.07126876
0.07381656 0.13934533 -0.12801443 -0.015942153 -0.040299606 0.13474989 -0.13014627 0.18714583
-0.07768422 -0.18518086 0.07410074 0.055644862 0.15108182 -0.09684521 0.09828329 0.12372294
0.15365987 -0.021704141 0.07617798 0.08591835 0.06442902 -0.044874147 0.14663535 0.14172883
-0.117337115 -0.22563194 -0.039233476 0.17497894 0.12286954 -0.12661807 -0.12555401 -0.19881791
0.18688436 0.15053274 -0.18888617 -0.13658214 -0.04397336 -0.11282442 -0.12889221 -0.18536888
0.16659291 0.015672786 -0.013323058 0.03777778 0.043211397 -0.18562637 -0.18274832 0.028787686
0.14014637 0.18657304 -0.054168068 -0.1205677 0.07846305 -0.14683162 0.22723551 0.12450467
-0.12282401 -0.062398937 0.22521438 0.11912008 -0.15000558 -0.18538989 0.18968679 0.1076128
-0.0144827785 -0.018394163 -0.028009241 0.1267183 -0.17150706 0.117574304 0.081918545 0.014146435
-0.106857985 0.13207065 -0.00025918425 -0.123894654 -0.09449741 0.10232264 -0.094097435 -0.20767057
-0.17603302 -0.10032286 -0.012501946 -0.06645096 -0.10953189 0.0058924234 0.11862663 -0.18453926
-0.031462077 0.1153108 0.014537741 -0.07569784 0.22054982 0.13214761 -0.084266946 -0.09216244
0.17734043 -0.15530482 -0.0040866067 0.039810456 0.04070172 0.13888288 0.04486495 0.08251449
-0.06841004 0.09561168 0.15468411 0.0069816695 -0.21387026 0.16353677 -0.119286954 0.025919518
-0.0011196191 0.19962032 -0.24908751 0.030649375 0.115536325 0.15293306 -0.14660226 -0.17069475
0.16889128 0.11537625 0.011494859 0.02927419 0.114697136 0.018196592 -0.054681007 0.058775306
-0.18534386 0.1883505 0.17816733 -0.15617047 -0.18307349 0.1367849 -0.08157911 -0.2067247
0.033518456 0.22291961 -0.049169276 -0.14483912 0.10494384 -0.07361386 0.06870828 -0.020752545
0.10751887 0.06143413 0.07311467 -0.18995753 -0.04716133 0.017853048 -0.15160152 0.10680604
0.19236366 0.10993625 -0.22426572 0.17612468 0.17318226 -0.068015516 0.06884919 0.16206366
0.15566337 0.122110605 0.086501144 -0.06513986 0.17988081 0.14259982 -0.20486093 0.18092765
0.009330954 0.07708306 0.041312084 0.18974021 0.19368395 -0.11912909 0.20157893 0.1922894
-0.25686267 0.040717114 0.08107763 0.09523569 -0.21683055 -0.011472163 0.19139859 -0.11150155
0.101679444 -0.21138746 -0.013892775 0.102176145 0.044392858 -0.21752651 0.11201962 0.07620765
-0.21176495 0.04203948 -0.09909849 0.053654335 -0.19662508 -0.24179135 0.13889875 0.08480144
-0.1417362 0.07061714 0.10716866 -0.001681777 0.08358185 -0.046250094 -0.16287696 -0.06878581
00000000: 280a 593e 6c5f 61be dea1 253d 3ee8 853d
00000010: 87d6 4c3e 2a63 23be 9728 57bd 1fe7 363d
00000020: 78f8 553c 5d40 e43d ed37 cfbd be54 483e
00000030: 17b9 b7bd 5f73 1bbe 4e50 7c3c fbb4 cd3d
00000040: 83ac 073d c957 833d 9b48 9fbb 4740 2d3e
00000050: 4660 cebd ec8b 9fbd 320a f33d 2ee4 b93d
00000060: 4071 11be b2a4 6b3e 3b7c 553e aec4 1fbe
00000070: c79b a53d a1f0 4d3e 9c7f 383e c046 49be
00000080: 95cf 3fbc 1ebd 25bd 8529 9ebc a8a3 063e
00000090: 7005 db3b 3b16 f23d a399 ebbd 3fb5 653c
000000a0: 54d0 483c c2ad 9cbb c41c fc3d eae4 f03d
000000b0: 9c30 93bd 8369 32be 7f76 d9bd 5bf5 91bd
000000c0: 232d 973d 8bb0 0e3e 3716 03be 1e99 82bc
000000d0: 3311 25bd e0fb 093e 1045 05be 28a3 3f3e
000000e0: e818 9fbd 0da0 3dbe 21c2 973d deeb 633d
000000f0: 31b5 1a3e c856 c6bd c048 c93d 7462 fd3d
00000100: 0359 1d3e e2cc b1bc 3303 9c3d f6f5 af3d
00000110: 5df3 833d f4cd 37bd 9427 163e 5d21 113e
00000120: 714e f0bd 0f0c 67be 48b3 20bd ae2d 333e
00000130: 06a3 fb3d 2ba8 01be 3b91 00be ec96 4bbe
00000140: 9d5e 3f3e 4125 1a3e 606b 41be 30dc 0bbe
00000150: 691d 34bd 7d10 e7bd 52fc 03be 57d1 3dbe
00000160: 5597 2a3e 3764 803c f548 5abc e0bc 1a3d
00000170: 6ffe 303d d714 3ebe 6022 3bbe 27d4 eb3c
00000180: 8882 0f3e 010d 3f3e 56df 5dbd 33ec f6bd
00000190: 3cb1 a03d 075b 16be 6db0 683e 4efc fe3d
000001a0: 288b fbbd 0796 7fbd 999e 663e 3af5 f33d
000001b0: 109b 19be d9d6 3dbe 413d 423e 1a64 dc3d
000001c0: 2d49 6dbc 5baf 96bc a373 e5bc 71c2 013e
000001d0: 8c9f 2fbe ccca f03d e9c4 a73d 73c6 673c
000001e0: 5cd8 dabd 873d 073e 1fe3 87b9 7bbc fdbd
000001f0: dc87 c1bd 888e d13d 28b6 c0bd 98a7 54be
00000200: 0042 34be 1276 cdbd f6d4 4cbc 7117 88bd
00000210: 4152 e0bd 3b15 c13b 85f2 f23d dcf7 3cbe
00000220: 61de 00bd 1228 ec3d b52f 6e3c 7807 9bbd
00000230: d0d7 613e b451 073e 2694 acbd a9bf bcbd
00000240: bb98 353e 3a08 1fbe f1e8 85bb 4a10 233d
00000250: d9b6 263d 5037 0e3e 4fc4 373d 5bfd a83d
00000260: 901a 8cbd 0ed0 c33d 8365 1e3e 7dc6 e43b
00000270: ce00 5bbe 2f76 273e b84c f4bd 2b55 d43c
00000280: 2fc0 92ba 4569 4c3e cc10 7fbe 6614 fb3c
00000290: 4f9e ec3d 7c9a 1c3e e71e 16be 9bca 2ebe
000002a0: d6f1 2c3e 624a ec3d ef54 3c3c 6dd0 ef3c
000002b0: 55e6 ea3d 0511 953c 31f9 5fbd 60be 703d
000002c0: c8ca 3dbe f4de 403e 7f71 363e 27eb 1fbe
000002d0: 9e77 3bbe 5711 0c3e f312 a7bd a4af 53be
000002e0: a64a 093d 0a45 643e b965 49bd b550 14be
000002f0: ccec d63d ddc2 96bd edb6 8c3d 3e01 aabc
00000300: da32 dc3d 5ba2 7b3d 25bd 953d 3a84 42be
00000310: 3d2c 41bd 8e40 923c 6e3d 1bbe 20bd da3d
00000320: fbfa 443e 4226 e13d eaa5 65be 075a 343e
00000330: b156 313e b84b 8bbd ce00 8d3d 04f4 253e
00000340: 3866 1f3e 2015 fa3d 8327 b13d 0c68 85bd
00000350: ad32 383e b005 123e 10c7 51be 1945 393e
00000360: dce0 183c b9dd 9d3d dc36 293d 424b 423e
00000370: 1655 463e f4f9 f3bd b56a 4e3e 83e7 443e
00000380: 8183 83be fdc6 263d 070c a63d ee0a c33d
00000390: d408 5ebe bdf5 3bbc fefd 433e ed5a e4bd
000003a0: 503d d03d f475 58be 869e 63bc ba41 d13d
000003b0: 49d5 353d 45bf 5ebe 8b6a e53d c212 9c3d
000003c0: e9d8 58be 9731 2c3d 26f4 cabd a6c4 5b3d
000003d0: 1658 49be 2798 77be 793b 0e3e 61ac ad3d
000003e0: 4b23 11be b89f 903d 3e7b db3d 126f dcba
000003f0: f62c ab3d bd70 3dbd 38c9 26be 93df 8cbd

encoder.0.bias f4 [8]
-0.056393858 0.16810843 -0.08010799 -0.022568159 -0.07125151 -0.1292701 0.13382363 -0.057574555
00000000: 3ffd 66bd 9e24 2c3e a80f a4bd dce0 b8bc
00000010: 50ec 91bd 625f 04be 1009 093e 4cd3 6bbd

encoder.3.weight f4 [16, 8, 16]
-0.050481956 -0.014902936 -0.008722921 0.031886127 0.06630812 0.036806416 0.08071171 0.08810828
0.08862504 0.049716294 0.017062526 -0.02200624 0.02774441 0.11225401 0.007338194 0.042476587
0.07395058 0.076520614 0.036513902 0.007566261 0.052460767 0.00470047 -0.080265045 -0.0076922914
-0.01611111 0.02777868 -0.031975023 -0.062137455 0.049958706 0.013325005 -0.06897559 0.007843669
0.05061412 0.056463815 0.07568063 0.12389372 0.009535449 0.11474925 0.12867786 -0.0073616514
0.04377094 -0.009185822 0.010015227 0.050187755 0.12334589 0.030160481 0.09612048 0.021179829
0.08574099 0.10538747 0.012985833 -0.043113228 -0.042637486 -0.054437708 0.09943707 -0.020014454
-0.053111922 -0.03635844 -0.026712608 0.0046357713 0.01306749 -0.013960818 0.104020655 0.045848396
0.07289244 0.023486992 0.010833005 0.025254661 0.09010835 -0.02930074 0.017609907 0.0007991432
0.121409886 0.10375793 0.105855145 0.026835551 -0.031790175 0.045119334 -0.0076730065 0.11998354
0.053821933 0.13062437 0.0033406396 0.050922226 0.03282636 0.091637 0.037929107 0.071510874
0.07134203 0.027361972 0.12737687 -0.005955555 0.028957283 0.022572236 0.080789216 0.09693006
-0.043713212 0.026160862 -0.052392576 0.087530196 0.079977565 0.05699036 -0.075985976 0.020604033
-0.056987513 -0.02838781 0.024087282 0.012120646 0.046984486 -0.07203275 0.059337713 0.06040147
0.08586715 0.06818717 0.0013044899 0.019286647 0.052807014 -0.021038136 0.12108518 0.08953182
0.063636355 0.114817396 0.027885688 0.09322536 0.099168226 0.08177239 0.0131145865 0.069568135
-0.0137593895 0.05715122 0.030232439 0.10133821 -0.0030899472 0.011401702 0.07161394 0.014826003
0.099082194 0.06422305 -0.025442999 0.059078913 0.061907202 -0.0037572086 0.003773616 -0.036198184
0.09621339 0.07701087 0.0028700717 0.06863131 0.024938546 0.09752683 0.04516025 0.11682761
0.08686419 0.07352347 0.08735927 0.014036119 0.08974086 0.08416184 0.08605978 0.09756519
-0.04338948 0.10108979 0.02832229 -0.0122221615 -0.012967143 0.034954067 -0.0067586494 0.017059568
-0.0033254416 0.076877594 0.008173084 -0.032087244 0.042192765 -0.01878845 0.061600897 0.10650344
0.0045047845 0.096753865 -0.01139818 0.0066345967 0.04874554 -0.033150166 0.024389692 0.036188927
0.06787061 0.00310332 0.050759077 0.12884809 0.09167671 0.04490433 0.12130161 0.12825905
-0.0536241 0.034330763 0.014422979 -0.041344926 0.022520225 0.08410321 -0.011898685 0.021935523
-0.017485367 -0.032086276 0.07469211 0.049054924 0.08336882 0.10831152 -0.045094527 0.025376776
0.012599313 0.07121997 -0.0052613374 0.024260275 0.014308276 0.07785318 -0.03959469 -0.025419427
0.08573415 0.08392521 0.009733782 0.08365577 -0.03228401 0.0015115229 0.108583145 -0.007334994
0.013729258 -0.024930554 0.13465893 0.016010646 0.13543789 0.0027831509 0.10947378 0.10878139
0.021737725 0.13268627 0.100313954 0.042777542 0.025191763 -0.009875942 0.04875719 0.03594876
0.037759352 -0.05593956 -0.043333568 0.084275305 -0.031782594 -0.022949783 0.07192023 0.04785008
-0.016509937 0.1340575 0.087342724 0.112647966 0.13110347 0.07233219 0.08536369 0.0032597154
00000000: 2bc6 4ebd 722b 74bc 95ea 0ebc 079b 023d
00000010: 8dcc 873d 53c2 163d 2e4c a53d 1d72 b43d
00000020: 0c81 b53d 50a3 4b3d b6c6 8b3c 6e46 b4bc
00000030: 3f48 e33c 6ee5 e53d 3c75 f03b eefb 2d3d
00000040: 6773 973d d7b6 9c3d 9a8f 153d 66ee f73b
00000050: 1ae1 563d 6606 9a3b 0062 a4bd 9e0f fcbb
00000060: 72fb 83bc 1d90 e33c 3ef8 02bd d883 7ebd
00000070: 80a1 4c3d 1f51 5a3c 1343 8dbd bb82 003c
00000080: c050 4f3d 9a46 673d 72fe 9a3d febb fd3d
00000090: 923a 1c3c a801 eb3d 21c4 033e 023a f1bb
000000a0: 2849 333d 2180 16bc e816 243c ad91 4d3d
000000b0: c59c fc3d 1d13 f73c d0da c43d 5281 ad3c
000000c0: f998 af3d 63d5 d73d 88c2 543c 7f97 30bd
000000d0: a5a4 2ebd 13fa 5ebd aaa5 cb3d 5af5 a3bc
000000e0: e38b 59bd 96ec 14bd 66d4 dabc abe7 973b
000000f0: 0719 563c eabb 64bc c808 d53d 87cb 3b3d
00000100: a248 953d cb67 c03c eb7c 313c dde2 ce3c
00000110: ba8a b83d 1b08 f0bc a742 903c 987d 513a
00000120: bfa5 f83d 0a7f d43d 95ca d83d 3bd6 db3c
00000130: 6a36 02bd 0dcf 383d d86d fbbb eeb9 f53d
00000140: 6374 5c3d 65c2 053e a2ee 5a3b d393 503d
00000150: ef74 063d 2eac bb3d 8d5b 1b3d 4b74 923d
00000160: c51b 923d 3726 e03c 156f 023e d126 c3bb
00000170: d337 ed3c 69e9 b83c d174 a53d 4483 c63d
00000180: a00c 33bd 4e4f d63c 9999 56bd 0843 b33d
00000190: 47cb a33d b96e 693d 899e 9bbd cac9 a83c
000001a0: bd6b 69bd 8d8d e8bc b152 c53c ad95 463c
000001b0: ce72 403d e885 93bd 1a0c 733d 8867 773d
000001c0: 1edb af3d b7a5 8b3d 6bfb aa3a 08ff 9d3c
000001d0: 2b4c 583d 2b58 acbc 82fb f73d 755c b73d
000001e0: c753 823d 6225 eb3d 8770 e43c f0ec be3d
000001f0: b618 cb3d 4878 a73d 90de 563c bd79 8e3d
00000200: 106f 61bc 6617 6a3d 05aa f73c 688a cf3d
00000210: b680 4abb 34ce 3a3c 54aa 923d c4e8 723c
00000220: 9beb ca3d 6087 833d d66d d0bc bbfc 713d
00000230: 6892 7d3d 803b 76bb c54e 773b 8c44 14bd
00000240: 870b c53d e0b7 9d3d d017 3c3b 928e 8c3d
00000250: ec4b cc3c 26bc c73d f4f9 383d 5043 ef3d
00000260: dae5 b13d 7993 963d 6be9 b23d c0f7 653c
00000270: 0eca b73d 0b5d ac3d 1c40 b03d 42d0 c73d
00000280: 2bb9 31bd 2a08 cf3d 2604 e83c 763f 48bc
00000290: 2474 54bc ff2b 0f3d a977 ddbb 82c0 8b3c
000002a0: a7ef 59bb 0072 9d3d 66e8 053c ea6d 03bd
000002b0: 52d2 2c3d 3cea 99bc 3951 7c3d 7a1e da3d
000002c0: df9c 933b e426 c63d 6fbf 3abc 0867 d93b
000002d0: 67a9 473d 78c8 07bd e4cc c73c d73a 143d
000002e0: bfff 8a3d 1261 4b3b c0e8 4f3d c1f0 033e
000002f0: 00c1 bb3d 9aed 373d fa6c f83d 5756 033e
00000300: f2a4 5bbd 6a9e 0c3d 5c4e 6c3c 4c59 29bd
00000310: 567c b83c 4e3e ac3d b4f2 42bc 20b2 b33c
00000320: 793d 8fbc e66c 03bd 2df8 983d d1ed 483d
00000330: 46bd aa3d 6ed2 dd3d 0ab5 38bd f5e2 cf3c
00000340: 596d 4e3c c7db 913d 4c67 acbb 7cbd c63c
00000350: 426d 6a3c 7d71 9f3d 0b2e 22bd 673c d0bc
00000360: 6395 af3d fbe0 ab3d 717a 1f3c b753 ab3d
00000370: 3d3c 04bd 4b1e c63a d760 de3d 645a f0bb
00000380: aff0 603c 293b ccbc 08e4 093e c228 833c
00000390: 3bb0 0a3e 8665 363b ca33 e03d c7c8 de3d
000003a0: 5013 b23c e9de 073e 6771 cd3d 8137 2f3d
000003b0: f55e ce3c b4ce 21bc 9fb5 473d 023f 133d
000003c0: 8da9 1a3d e120 65bd 8a7e 31bd 8898 ac3d
000003d0: 772e 02bd 2f01 bcbc ea4a 933d 72fe 433d
000003e0: d93f 87bc 5f46 093e bee0 b23d fab3 e63d
000003f0: fd3f 063e e622 943d 29d3 ae3d f3a0 553b

encoder.3.bias f4 [16]
-0.06586701 0.119219765 0.061654318 0.08247392 0.024592433 0.056833796 0.13737388 0.115065865
-0.07084427 0.13812448 -0.050794784 -0.007312162 0.08184464 -0.087873496 -0.076502986 -0.01855398
00000000: 48e5 86bd 7e29 f43d 3d89 7c3d 16e8 a83d
00000010: 1276 c93c 8eca 683d bdab 0c3e a7a7 eb3d
00000020: cd16 91bd 8170 0d3e 310e 50bd dc9a efbb
00000030: 2a9e a73d 05f7 b3bd 99ad 9cbd 84fe 97bc

encoder.6.weight f4 [32, 16, 8]
-0.05239046 -0.008640351 -0.063151196 -0.035313014 0.054731645 -0.01988165 -0.014502544 -0.037400737
-0.080027 0.05500191 0.0026856642 0.0030507063 -0.01875587 0.03748973 -0.048840426 -0.07419137
-0.06490334 -0.085741706 -0.055939976 0.06909199 0.07172129 -0.06860382 0.042430174 -0.039905783
-0.07795293 0.019223101 -0.04189785 0.033550683 -0.00024694824 0.086099245 -0.08110761 0.036109515
0.070337094 -0.066172354 0.086130746 -0.03629727 0.03528243 0.04419773 0.024756387 -0.07451526
-0.025214635 -0.007916865 0.019599667 -0.032307643 0.054306976 -0.0456968 -0.07178847 -0.07598068
0.052864406 -0.044250824 0.056714546 0.07252188 -0.056700766 -0.052146804 -0.05260863 -0.069023326
-0.08314583 -0.034449678 0.06176234 -0.07320605 0.03224263 -0.060752142 0.041053478 -0.07225836
-0.01664421 -0.048066396 0.0014797398 -0.027130641 -0.07340559 0.08355034 0.052308463 0.05692131
0.04065413 0.03921338 0.023152081 0.007947035 -0.010704544 0.004369279 -0.016107671 0.056314413
-0.05262241 0.022120394 -0.021678759 -0.06319894 -0.04148028 0.030287206 0.026557758 -0.0724777
0.05193453 -0.007207854 -0.07987121 -0.0006987114 -0.00594075 0.013702142 -0.026175113 0.07506301
-0.07254878 -0.06949691 0.026959017 0.050369136 -0.009855196 0.042170905 0.02905754 -0.030169362
-0.062478296 -0.02096288 0.020902835 0.081156954 -0.082298554 -0.06427192 -0.07893099 0.0122816935
-0.055461787 -0.066706836 -0.0030483902 -0.070552155 0.021210484 0.029193275 0.018603578 0.0029640198
-0.0144252265 -0.05722078 0.019327912 0.016369946 -0.030375626 0.0116452705 -0.0453158 0.031924304
0.12520574 0.08992249 0.08313564 -0.03921023 0.080762506 0.07958254 0.118532434 0.08370131
0.017121704 0.058624648 0.014367035 -0.029340724 0.018927505 -0.04974947 -0.09696709 -0.085070245
0.044424918 -0.039800093 0.07562778 0.08965185 0.099360295 -0.03894812 0.046698406 0.048626184
0.049350217 0.06383056 0.065775335 0.06858802 0.06772502 0.06871221 0.10037522 -0.06924538
0.0220536 0.0330923 8.79566e-05 0.08294802 0.08228989 -0.034851104 0.09973194 0.06198765
0.020850824 -0.037427302 -0.011197628 0.10860652 0.108964406 0.0013835941 0.040829897 -0.004288211
0.041490454 0.08223982 0.030849474 -0.011203319 -0.042719547 -0.06369969 -0.009938532 0.082990654
-0.11274361 -0.099312015 -0.11098505 -0.026217042 0.0201926 -0.008382985 -0.09772339 -0.11511719
0.011276518 0.033208482 0.1357286 0.063834265 0.041891403 0.020039927 -0.015336659 0.07256073
0.012867429 0.00850484 -0.03534263 0.03177742 -0.046384264 -0.020259118 0.007780008 -0.11514331
0.055168305 0.046976365 0.009906309 0.038709436 0.09499986 0.0036225324 0.031744994 0.0012087538
0.09039333 0.0975564 0.07802689 0.038175493 0.06106265 -0.0133636305 -0.026273048 0.0710527
0.040311072 0.020309176 0.057110995 -0.04335872 0.011898002 0.07201166 0.045870878 -0.033685904
-0.006048535 0.005579315 0.11700179 -0.029940406 0.040310584 0.02483945 -0.034008354 0.004931742
0.11405093 0.115790404 -0.028680513 -0.010990365 0.12865387 -0.005005175 0.04995049 0.002271956
0.039588653 0.09944413 0.017480848 -0.044210304 -0.011142355 0.12607189 0.018235428 -0.023092799
00000000: 6197 56bd 4290 0dbc 6a55 81bd 61a4 10bd
00000010: 4a2e 603d d8de a2bc 149c 6dbc 8431 19bd
00000020: 32e5 a3bd af49 613d f801 303b 5cee 473b
00000030: e9a5 99bc d58e 193d e60c 48bd a5f1 97bd
00000040: 0bec 84bd 5999 afbd 5121 65bd 1a80 8d3d
00000050: 9de2 923d 2980 8cbd 43cb 2d3d 3f74 23bd
00000060: c9a5 9fbd c479 9d3c 149d 2bbd 716c 093d
00000070: d578 81b9 cd54 b03d bf1b a6bd 92e7 133d
00000080: e50c 903d 5f85 87bd 5165 b03d 72ac 14bd
00000090: 4f84 103d ae08 353d e8cd ca3c 759b 98bd
000000a0: ec8e cebc bdb5 01bc 7b8f a03c 0555 04bd
000000b0: fe70 5e3d 912c 3bbd d505 93bd c29b 9bbd
000000c0: 5988 583d 5a40 35bd 834d 683d 5a86 943d
000000d0: 103f 68bd e397 55bd 267c 57bd 1a5c 8dbd
000000e0: 5c48 aabd 1b1b 0dbd 82fa 7c3d 0eed 95bd
000000f0: d910 043d 3dd7 78bd b127 283d 31fc 93bd
00000100: 7059 88bc 45e1 44bd d4f3 c13a 1441 debc
00000110: ac55 96bd 711c ab3d 6641 563d 5226 693d
00000120: f284 263d 369e 203d 6fa9 bd3c 4834 023c
00000130: 1d62 2fbc 2b2c 8f3b 3cf4 83bc f1a9 663d
00000140: 998a 57bd d435 b53c a797 b1bc 726e 81bd
00000150: 3ae7 29bd e01c f83c a88f d93c 306f 94bd
00000160: 4db9 543d dd2f ecbb 8493 a3bd ba29 37ba
00000170: 9faa c2bb f37e 603c 316d d6bc a3ba 993d
00000180: 7494 94bd 6554 8ebd 28d9 dc3c de4f 4e3d
00000190: b077 21bc 66bb 2c3d 140a ee3c bd25 f7bc
000001a0: 3ee9 7fbd 59ba abbc 6c3c ab3c 9e35 a63d
000001b0: 258c a8bd ffa0 83bd 92a6 a1bd 2839 493c
000001c0: e62b 63bd 989d 88bd 80c7 47bb a67d 90bd
000001d0: 9cc1 ad3c bc26 ef3c 8866 983c 0040 423b
000001e0: c957 6cbc 5660 6abd 9255 9e3c 441a 863c
000001f0: 4ed6 f8bc cecb 3e3c 0f9d 39bd 0fc3 023d
00000200: ef35 003e 4829 b83d 0543 aa3d e89a 20bd
00000210: d066 a53d 2cfc a23d 22c1 f23d 986b ab3d
00000220: d142 8c3c 6620 703d b663 6b3c f55b f0bc
00000230: db0d 9b3c 1ac6 4bbd af96 c6bd 4f39 aebd
00000240: e7f6 353d 6c05 23bd bde2 9a3d 649b b73d
00000250: 697d cb3d 1088 1fbd d446 3f3d 402c 473d
00000260: 7423 4a3d 99b9 823d 38b5 863d e077 8c3d
00000270: 6ab3 8a3d fdb8 8c3d 8691 cd3d 86d0 8dbd
00000280: c0a9 b43c cb8b 073d 5775 b838 a7e0 a93d
00000290: 9a87 a83d 08c0 0ebd 4240 cc3d c3e6 7d3d
000002a0: 59cf aa3c 5f4d 19bd 4276 37bc 186d de3d
000002b0: bb28 df3d b759 b53a 403d 273d 1f84 8cbb
000002c0: e5f1 293d 5a6d a83d 09b8 fc3c 208e 37bc
000002d0: b1fa 2ebd fc74 82bd 39d5 22bc 01f7 a93d
000002e0: 1fe6 e6bd 1964 cbbd 214c e3bd 1fc5 d6bc
000002f0: f46a a53c ca58 09bc 3323 c8bd 90c2 ebbd
00000300: 25c1 383c 9e05 083d 70fc 0a3e 8abb 823d
00000310: 5296 2b3d c62a a43c 9c46 7bbc b89a 943d
00000320: e9d1 523c e257 0b3c 6fc3 10bd 0a29 023d
00000330: 6dfd 3dbd 73f6 a5bc 70ef fe3b 41d0 ebbd
00000340: 29f8 613d 4a6a 403d 124e 223c c98d 1e3d
00000350: 498f c23d 0268 6d3b 0a07 023d 0c6f 9e3a
00000360: 2320 b93d a6cb c73d 90cc 9f3d e85d 1c3d
00000370: d41c 7a3d 21f3 5abc 933a d7bc 1484 913d
00000380: 391d 253d 6e5f a63c 38ed 693d ea98 31bd
00000390: d6ef 423c d97a 933d 1ae3 3b3d 3bfa 09bd
000003a0: ca32 c6bb b0d2 b63b a29e ef3d 9545 f5bc
000003b0: b61c 253d 1a7c cb3c 584c 0bbd 739a a13b
000003c0: 8993 e93d 8523 ed3d 65f3 eabc ef10 34bc
000003d0: d7bd 033e 7302 a4bb e398 4c3d 19e5 143b
000003e0: b627 223d 5da9 cb3d ff33 8f3c dd15 35bd
000003f0: 6d8e 36bc fd18 013e 7762 953c 1c2d bdbc

encoder.6.bias f4 [32]
0.0111875925 -0.106024146 0.02351031 0.016346617 -0.106494315 0.091200344 -0.063010976 -0.09067788
0.033993248 0.09781958 -0.02180127 -0.088595375 0.0075701056 0.050125018 0.012033715 -0.099923246
0.00041696386 0.009451755 -0.019045183 -0.056863282 -0.05958519 0.04034577 0.057298813 0.06579319
-0.0867033 -0.054074187 0.07967944 -0.037182715 -0.06697755 0.056403197 0.14033766 0.14083774
00000000: 2a4c 373c 3023 d9bd b298 c03c 57e9 853c
00000010: b119 dabd 3fc7 ba3d e60b 81bd 53b5 b9bd
00000020: 813c 0b3d a255 c83d 9498 b2bc 7e71 b5bd
00000030: a60e f83b e44f 4d3d 0f29 453c 8fa4 ccbd
00000040: f19b da39 89db 1a3c a504 9cbc 79e9 68bd
00000050: 9a0f 74bd 9b41 253d 29b2 6a3d 94be 863d
00000060: 8091 b1bd e57c 5dbd f92e a33d e74c 18bd
00000070: 872b 89bd 0a07 673d adb4 0f3e c537 103e

encoder.9.weight f4 [32, 32, 8]
0.032020755 -0.044287357 -0.0360293 0.05694689 0.0022093728 0.034392275 0.033429757 -2.9754876e-05
-0.01275708 -0.008526931 0.00113059 0.05668935 -0.015297258 0.0017907451 0.06777461 0.0033016757
0.02239075 -0.012602187 -0.023976766 0.080942966 0.0651025 -0.03252069 0.03602233 0.10204266
-0.016739286 -0.0072552757 0.061272874 0.013083054 -0.006351956 0.07591817 0.045858253 0.06672209
0.013371791 0.0922777 0.037283577 -0.021840746 -0.018230878 0.061980303 0.064055346 0.052604042
-0.063625716 -0.018612238 0.0057820044 0.0023868142 0.013573603 0.010902204 -0.0120006595 -0.084934466
-0.027257746 -0.025081266 0.08902879 0.0064027137 0.041051745 0.023499936 0.06102004 0.014932214
0.066247664 0.037390586 0.0025337012 0.036493678 0.037151884 0.03582148 0.04468014 0.063654535
-0.00038616458 0.027909406 0.03406418 -0.04485388 0.0062144157 0.021106627 -0.055184588 0.05248364
-0.02333562 -0.048335887 -0.023871595 -0.043687813 0.027861947 -0.032286007 -0.0510802 0.025236832
0.022104008 0.033065762 0.007729916 0.06774267 0.011623538 0.084523186 0.023639528 0.06188132
0.082652085 0.030981688 -0.008883106 -0.01730338 -0.005737703 -0.0011684034 -0.02515033 0.023763204
-0.0010573864 -0.0004875995 0.010131314 0.04784564 -0.03889095 0.058550388 -0.030142516 -0.015052028
0.05042242 -0.015151182 0.033005632 -0.0002052789 0.00919181 0.04908783 0.012960097 -0.070163384
0.006906827 -0.015362072 0.0010442962 0.03197031 0.07703317 0.0070294114 -0.028154688 0.0036102312
0.010566487 0.021675438 0.08054556 0.01865567 0.033171296 0.018583978 0.010275303 -0.007984815
-0.06792293 -0.004016486 0.03760072 -0.04133795 -0.021354537 0.011586836 0.011570872 -0.0051511903
-0.06278966 -0.038834397 0.020526022 -0.0064337924 0.040562443 -0.027026517 0.00040918007 0.043854844
0.04978949 0.045974325 0.07996825 0.034766126 0.07802975 -0.015973516 0.030329028 0.016082965
0.046652954 0.07513283 0.055283118 0.08521844 -0.031450357 0.00096837716 0.067968085 0.077165656
-0.0163941 -0.00034889684 0.009371496 -0.006637647 0.044480518 0.024513273 0.008470458 -0.007641849
0.07107919 0.041754372 0.024660915 0.07105409 0.011211247 0.06499302 0.0050282897 0.051163163
-0.044192664 -0.071380585 -0.06217903 -0.00926059 -0.0799351 -0.034308754 -0.07766484 -0.00426414
0.0092695635 -0.057762872 -0.054750133 0.01627968 -0.0008514953 -0.09663261 -0.05457965 -0.04317654
-0.0026083419 0.074269876 0.03579474 0.038246095 -0.036195558 0.0024658928 0.021402422 0.0416528
-0.00068254175 0.07838349 0.029404635 -0.0042588864 0.02703938 -0.0049052364 0.05973427 0.053568743
0.01279756 0.03958033 -0.042983294 -0.039413743 0.008057054 0.010523839 0.008454999 0.035414096
-0.0005448077 -0.039663516 0.037587546 -0.0068544173 -0.0051904856 -0.020047138 -0.008045108 0.0590257
0.06674888 -0.02590273 -0.0060216687 0.052640934 0.080540024 0.066606134 0.021736253 0.020279054
-0.03772837 0.029972581 0.08213741 0.057994056 -0.03681663 0.06183918 0.01086217 0.06991161
-0.006126842 0.009167491 -0.029640365 0.030562222 -0.020225992 -0.010849724 -0.0649378 -0.000119996366
0.008119367 -0.004123035 -0.054334275 0.016876316 -0.030001536 0.03158022 -0.02197045 -0.00411999
00000000: 3228 033d a966 35bd 7693 13bd 2441 693d
00000010: 20cb 103b eade 0c3d a4ed 083d 1c9a f9b7
00000020: 1203 51bc 8ab4 0bbc 4e30 943a 1833 683d
00000030: 5aa1 7abc 6fb7 ea3a 6acd 8a3d ed60 583b
00000040: ce6c b73c 6779 4ebc ec6a c4bc 6dc5 a53d
00000050: 7654 853d 6a34 05bd 278c 133d befb d03d
00000060: d420 89bc aabd edbb 44f9 7a3d 4e5a 563c
00000070: 1224 d0bb fc7a 9b3d ddd5 3b3d 97a5 883d
00000080: 5b15 5b3c 17fc bc3d aab6 183d 5deb b2bc
00000090: ec58 95bc 0fdf 7d3d 732f 833d 5677 573d
000000a0: 334e 82bd b178 98bc f876 bd3b 196c 1c3b
000000b0: d163 5e3c 289f 323c 6a9e 44bc 1ff2 adbd
000000c0: a34b dfbc 3a77 cdbc ba54 b63d dbcd d13b
000000d0: e025 283d f082 c03c 26f0 793d 3fa6 743c
000000e0: dbac 873d df26 193d 740c 263b 657a 153d
000000f0: 932c 183d 8bb9 123d 8602 373d 4f5d 823d
00000100: 2276 cab9 44a2 e43c e286 0b3d b4b8 37bd
00000110: 4ca2 cb3b cee7 ac3c 3c09 62bd 16f9 563d
00000120: 582a bfbc dafb 45bd 5d8e c3bc fef1 32bd
00000130: bd3e e43c 553e 04bd 7939 51bd 79bd ce3c
00000140: 7713 b53c f76f 073d 3c4b fd3b abbc 8a3d
00000150: a770 3e3c 7e1a ad3d afa7 c13c 4477 7d3d
00000160: 7f45 a93d 4fcd fd3c 728a 11bc d1bf 8dbc
00000170: 5703 bcbb 1d25 99ba 1108 cebc 0dab c23c
00000180: 0098 8aba 7fa4 ffb9 d0fd 253c caf9 433d
00000190: 1e4c 1fbd 88d2 6f3d 70ed f6bc c89c 76bc
000001a0: bd87 4e3d aa3c 78bc ea30 073d 2340 57b9
000001b0: 3f99 163c 5210 493d 9656 543c d2b1 8fbd
000001c0: aa52 e23b 33b1 7bbc c4e0 883a 4df3 023d
000001d0: 91c3 9d3d fa56 e63b a9a4 e6bc a199 6c3b
000001e0: 0f1f 2d3c b090 b13c 12f5 a43d c7d3 983c
000001f0: a0de 073d 6d3d 983c bf59 283c bed2 02bc
00000200: 2d1b 8bbd ba9c 83bb 3603 1a3d fb51 29bd
00000210: b6ef aebc b6d6 3d3c c193 3d3c 51cb a8bb
00000220: de97 80bd d110 1fbd 3026 a83c 90d2 d2bb
00000230: ce24 263d b766 ddbc 3887 d639 23a1 333d
00000240: 10f0 4b3d 934f 3c3d 65c6 a33d ed66 0e3d
00000250: 10ce 9f3d e4da 82bc 9574 f83c 6cc0 833c
00000260: 2b17 3f3d 3edf 993d 8d70 623d 0187 ae3d
00000270: 17d2 00bd b1da 7d3a da32 8b3d 0709 9e3d
00000280: eb4c 86bc 24ec b6b9 e78a 193c 9e80 d9bb
00000290: 3431 363d 0fd0 c83c adc7 0a3c 7a68 fabb
000002a0: f791 913d a206 2b3d b005 ca3c cf84 913d
000002b0: 61af 373c 0f1b 853d 5ac4 a43b 7790 513d
000002c0: 5e03 35bd fc2f 92bd 70af 7ebd bbb9 17bc
000002d0: 04b5 a3bd 5687 0cbd be0e 9fbd 33ba 8bbb
000002e0: 5edf 173c c398 6cbd ad41 60bd f75c 853c
000002f0: e236 5fba 51e7 c5bd e98e 5fbd e2d9 30bd
00000300: b7f0 2abb ce1a 983d 819d 123d f0a7 1c3d
00000310: cb41 14bd d19a 213b 2254 af3c 209c 2a3d
00000320: 9aec 32ba 8687 a03d fde1 f03c 218e 8bbb
00000330: b181 dd3c 1bbc a0bb ecab 743d e66a 5b3d
00000340: dbac 513c fc1e 223d 400f 30bd 4e70 21bd
00000350: bc01 043c 2e6c 2c3c d686 0a3c 5f0e 113d
00000360: 6dd1 0eba 3676 22bd 66f5 193d 059b e0bb
00000370: f314 aabb e539 a4bc a1cf 03bc efc4 713d
00000380: a3b3 883d f631 d4bc 6b51 c5bb 059e 573d
00000390: 2bf2 a43d cc68 883d 3a10 b23c 4220 a63c
000003a0: 1089 1abd 0f89 f53c a937 a83d 2d8b 6d3d
000003b0: 09cd 16bd 144b 7d3d 3ef7 313c d12d 8f3d
000003c0: adc3 c8bb 3f33 163c 5ad0 f2bc a05d fa3c
000003d0: fbb0 a5bc 0ac3 31bc 1cfe 84bd 8fa6 fbb8
000003e0: 1807 053c 861a 87bb 9e8d 5ebd 3340 8a3c
000003f0: c8c5 f5bc 435a 013d 60fb b3bc fb00 87bb

encoder.9.bias f4 [32]
0.009650709 0.00635867 0.10811352 0.0027798777 0.065669246 -0.06914665 -0.04756318 -0.011137746
0.08568548 0.0023631393 0.115987085 -0.029226264 0.0017048779 0.025682785 -0.021508401 -0.06295079
0.11051876 -0.029003603 -0.028822234 0.11649098 -0.028905233 0.11698221 -0.015285228 -0.0055779433
-0.03587874 -0.0066522276 -0.071 -0.07073314 -0.03525676 0.017322049 0.052701835 -0.03026828
00000000: 021e 1e3c 645c d03b 9f6a dd3d 9c2e 363b
00000010: 997d 863d c29c 8dbd 9cd1 42bd 187b 36bc
00000020: de7b af3d e6de 1a3b a38a ed3d eb6b efbc
00000030: 3676 df3a b464 d23c 6332 b0bc 58ec 80bd
00000040: a957 e23d f798 edbc 9b1c ecbc d392 ee3d
00000050: abca ecbc 5e94 ef3d e56e 7abc 2ec7 b6bb
00000060: 96f5 12bd eefa d9bb 7368 91bd 89dc 90bd
00000070: 6469 10bd f8e6 8d3c e1dd 573d 2ff5 f7bc

encoder.12.weight f4 [64, 32, 3]
-0.027696162 0.051797118 -0.005171711 0.040962923 0.012549468 -0.10403777 0.02923161 -0.034809127
-0.06497406 0.08938399 0.09192647 -0.017349906 -0.06889629 -0.07271509 -0.033837523 -0.03744714
-0.094195664 -0.09061406 0.09643872 0.06971802 -0.0067914557 -0.0337914 0.08253327 -0.009394996
-0.0609416 -0.02531998 -0.10715326 0.043710563 0.05894921 0.12512493 0.035098445 -0.09576665
0.023323746 0.05645688 0.020995034 -0.004710038 0.05260997 0.025020242 0.03520208 -0.011439592
0.01998657 -0.0767196 0.11231299 0.099493146 0.040612854 0.036106948 0.10639208 -0.040680468
-0.009411196 -0.074807964 -0.1443991 0.1270726 0.07089229 0.03442144 -0.041947257 0.08584043
-0.02610982 -0.06709226 -0.12137804 -0.117591515 0.060031146 0.05661785 0.048566345 -0.066754416
-0.009000832 -0.13188393 0.09080202 -0.064282954 0.057151724 -0.0046107 -0.024888888 -0.10304777
0.046130437 -0.00947968 0.0011731073 -0.0011766603 0.08902942 -0.028796291 -0.0027467783 0.002479846
0.006227025 0.023188103 0.057620794 -0.019503785 -0.022293838 -0.073216856 0.053449262 -0.064811215
-0.02181746 0.072600275 -0.095020846 -0.023327203 -0.030932948 0.025725542 0.067040205 -0.055894673
-0.07604456 0.093885034 -0.0068222433 -0.09492875 0.026755959 -0.024034815 -0.0023054194 -0.02332789
-0.1193225 -0.023282645 0.05418554 0.016267547 -0.12106966 -0.13738306 -0.095238306 -0.054983314
-0.0018674894 -0.003832056 0.007207607 -0.004623947 0.039746154 0.09031318 -0.03655766 -0.022680774
0.017737273 -0.09867331 0.027195172 -0.0364658 0.13670212 0.015316303 -0.07113639 0.031522073
-0.0996933 -0.038148772 0.08643534 0.067284755 0.06929814 -0.02491598 0.08973119 -0.04292269
-0.043219134 -0.03321773 -0.042586055 -0.024443753 -0.060853057 0.11282643 -0.072762966 -0.073288225
-0.10563586 -0.0427018 -0.029307533 0.10817613 0.086675875 -0.0526304 -0.0092388205 -0.053845197
0.10171891 0.045485206 -0.10377285 0.014287949 0.05981448 -0.0063221115 0.037939027 -0.068844736
-0.105620615 -0.13029736 -0.03175021 0.021646127 -0.0360721 0.0115262 -0.05514853 0.024886211
0.14711477 0.14639062 0.104227915 0.07872915 0.090233184 0.074177876 0.004991728 -0.0135016
0.029879358 0.017764358 0.029146643 -0.06462886 0.12455904 -0.039566558 -0.019861769 0.0067617777
-0.031149339 -0.051111355 0.035096146 0.03303035 -0.088262536 -0.032868125 0.04109655 0.019135538
0.08417613 -0.03384506 0.10802875 -0.039823506 0.038055133 -0.02016843 -0.06825018 -0.0640269
-0.06257555 -0.056549378 -0.06509575 0.07264051 -0.08151168 -0.11256387 -0.027423996 0.06483541
0.0053754346 0.031571224 0.11102513 0.12758283 -0.055258267 0.03286928 0.041480184 0.100901514
-0.11331172 -0.107294574 0.008255563 -0.010868883 0.10117013 0.08704996 0.02330183 -0.11033172
0.018501423 0.12164579 -0.03849996 -0.055580337 0.07788869 0.013725117 -0.090576276 -0.096448325
-0.0729639 -0.066214226 0.11550178 -0.004981238 -0.01797758 -0.007826939 0.08928636 -0.007985566
-0.07131245 -0.13742723 0.023930948 0.10898488 0.04449045 0.10799881 0.062233273 0.023951955
0.012767924 -0.11638322 -0.10232152 -0.044718623 -0.07490595 -0.07704018 -0.0130053675 0.017613258
00000000: 10e3 e2bc 3729 543d 7577 a9bb bdc8 273d
00000010: 499c 4d3c c111 d5bd 2177 ef3c 0494 0ebd
00000020: 1f11 85bd f40e b73d f243 bc3d 6421 8ebc
00000030: 8019 8dbd a6eb 94bd 3799 0abd 2c62 19bd
00000040: a8e9 c0bd dd93 b9bd aa81 c53d 52c8 8e3d
00000050: dc8a debb da68 0abd 3407 a93d 78ed 19bc
00000060: e69d 79bd d96b cfbc 2b73 dbbd d909 333d
00000070: ba74 713d c020 003e 63c3 0f3d 4e21 c4bd
00000080: 7111 bf3c 543f 673d c7fd ab3c aa56 9abb
00000090: 8d7d 573d 40f7 cc3c 0e30 103d 206d 3bbc
000000a0: e0ba a33c 2a1f 9dbd 5a04 e63d 10c3 cb3d
000000b0: aa59 263d e1e4 133d 17e4 d93d 90a0 26bd
000000c0: 6b31 1abc eb34 99bd 5cdd 13be 521f 023e
000000d0: fa2f 913d 7ffd 0c3d e3d0 2bbd 1bcd af3d
000000e0: 43e4 d5bc ab67 89bd 0d95 f8bd d2d3 f0bd
000000f0: 38e3 753d 1ee8 673d 81ed 463d 8ab6 88bd
00000100: 3a78 13bc 950c 07be 69f6 b93d c8a6 83bd
00000110: ed17 6a3d 5b15 97bb c8e3 cbbc b60a d3bd
00000120: 45f3 3c3d a950 1bbc f3c2 993a 2b3a 9aba
00000130: 0e55 b63d 33e6 ebbc 4b03 34bb e984 223b
00000140: 120c cc3b faf4 bd3c c803 6c3d 67c6 9fbc
00000150: 91a1 b6bc b8f2 95bd 9ded 5a3d bebb 84bd
00000160: 88ba b2bc 74af 943d 4a9a c2bd b118 bfbc
00000170: 1867 fdbc 5fbe d23c 604c 893d d0f1 64bd
00000180: 40bd 9bbd cc46 c03d 208d dfbb 016a c2bd
00000190: 502f db3c a9e4 c4bc 8516 17bb 221a bfbc
000001a0: 5b5f f4bd 3fbb bebc a8f1 5d3d 8543 853c
000001b0: 5ff3 f7bd 25ae 0cbe 4d0c c3bd 2f36 61bd
000001c0: 8cc6 f4ba 3b23 7bbb ca2d ec3b 7b84 97bb
000001d0: ddcc 223d 1ef6 b83d 7cbd 15bd 08cd b9bc
000001e0: c24d 913c 3b15 cabd 69c8 de3c 2a5d 15bd
000001f0: a4fb 0b3e 3bf1 7a3c f5af 91bd 4a1d 013d
00000200: 002c ccbd e341 1cbd 0305 b13d 97cc 893d
00000210: 2fec 8d3d 991c ccbc fcc4 b73d b4cf 2fbd
00000220: 8c06 31bd 500f 08bd b76e 2ebd 443e c8bc
00000230: 0e41 79bd 8b11 e73d c004 95bd 2318 96bd
00000240: 9d57 d8bd 15e8 2ebd 5a16 f0bc 728b dd3d
00000250: 1f83 b13d f992 57bd 6c5e 17bc c88c 5cbd
00000260: 0152 d03d b24e 3a3d dc86 d4bd 0018 6a3c
00000270: 0700 753d b729 cfbb f465 1b3d 78fe 8cbd
00000280: 9f4f d8bd ac6c 05be 820c 02bd 3853 b13c
00000290: 57c0 13bd 63d8 3c3c 6de3 61bd 2bde cb3c
000002a0: 41a5 163e 6ce7 153e 7275 d53d c03c a13d
000002b0: 2dcc b83d 92ea 973d a691 a33b d135 5dbc
000002c0: 8ec5 f43c 8f86 913c f1c4 ee3c 235c 84bd
000002d0: cf18 ff3d 8b10 22bd 26b5 a2bc e791 dd3b
000002e0: e62c ffbc 245a 51bd fac0 0f3d d54a 073d
000002f0: fdc2 b4bd baa0 06bd db54 283d 22c2 9c3c
00000300: 8964 ac3d 1ea1 0abd 2d3e dd3d f91d 23bd
00000310: b3df 1b3d 4338 a5bc c0c6 8bbd 8920 83bd
00000320: 9c27 80bd 52a0 67bd ec50 85bd 8cc4 943d
00000330: 98ef a6bd e387 e6bd 4aa8 e0bc 6dc8 843d
00000340: 6a24 b03b d450 013d 2561 e33d 13a5 023e
00000350: 7e56 62bd f0a1 063d 20e7 293d 74a5 ce3d
00000360: fa0f e8bd 42bd dbbd 5742 073c 6613 32bc
00000370: 4932 cf3d 4047 b23d 7be3 be3c 99f5 e1bd
00000380: 4c90 973c 6e21 f93d 22b2 1dbd 35a8 63bd
00000390: 1b84 9f3d 50df 603c 0e80 b9bd b386 c5bd
000003a0: 196e 95bd 539b 87bd 328c ec3d a739 a3bb
000003b0: b845 93bc 903c 00bc c4db b63d e4d5 02bc
000003c0: 430c 92bd b9b9 0cbe d60a c43c 7733 df3d
000003d0: 9e3b 363d 7b2e dd3d 51e8 7e3d e436 c43c
000003e0: 8e30 513c 535a eebd f28d d1bd e02a 37bd
000003f0: 4a68 99bd 3ec7 9dbd 7714 55bc ae49 903c

encoder.12.bias f4 [64]
-0.13482283 -0.031936202 -0.085366845 -0.05575296 0.053248394 -0.07009936 0.030190222 -0.09133675
0.12201514 -0.023949593 0.032296903 -0.058340054 -0.004458862 -0.031585436 -0.039151482 -0.057868578
0.07731442 -0.018073555 0.061825294 0.024253054 -0.010057936 0.13764545 -0.0681103 0.06183933
-0.015942574 0.038995825 -0.0532614 0.076597385 -0.055316668 0.047410995 -0.114489436 -0.08908407
0.06354171 0.047493882 -0.07301854 0.0018209183 -0.05261402 0.10621413 -0.0803366 -0.11287984
-0.06925243 -0.07354506 0.11550191 0.10956977 0.09100617 -0.13180533 0.055691954 -0.030465934
0.13545407 -0.024839627 0.04032278 0.074893124 0.044932865 0.12431087 0.106157295 -0.038255088
-0.10069078 0.0585637 -0.004292696 -0.09995078 -0.10647715 0.12943397 -0.082858816 0.13765623
00000000: ff0e 0abe 89cf 02bd d0d4 aebd 375d 64bd
00000010: fd1a 5a3d 4190 8fbd 7c51 f73c c30e bbbd
00000020: 13e3 f93d f031 c4bc c249 043d fbf5 6ebd
00000030: a51b 92bb bb5f 01bd 4e5d 20bd 9a07 6dbd
00000040: 0657 9e3d fe0e 94bc 853c 7d3d 57ae c63c
00000050: 0bca 24bc eef2 0c3e 6a7d 8bbd 3d4b 7d3d
00000060: 009a 82bc 16ba 1f3d a028 5abd 17df 9c3d
00000070: bb93 62bd 0832 423d 7079 eabd b571 b6bd
00000080: 2822 823d f288 423d bf8a 95bd e1ab ee3a
00000090: cc81 57bd cb86 d93d 8487 a4bd 8c2d e7bd
000000a0: 38d4 8dbd cb9e 96bd 448c ec3d 1e66 e03d
000000b0: 7161 ba3d faf7 06be 3f1d 643d b293 f9bc
000000c0: 79b4 0a3e 797c cbbc 8029 253d 9161 993d
000000d0: 860b 383d b396 fe3d ff68 d93d 5eb1 1cbd
000000e0: f836 cebd 7ee0 6f3d bea9 8cbb ffb2 ccbd
000000f0: b110 dabd 578a 043e e2b1 a9bd c1f5 0c3e

encoder.15.weight f4 [256, 192]
-0.04694627 0.030628983 0.024740007 -0.009467801 0.061174735 -0.05317234 -0.0019174764 -0.03561875
0.0027643607 0.02896941 -0.025998482 -0.043818153 -0.072959 -0.032699782 -0.07793685 0.034379818
0.05850979 0.05721538 0.024391366 -0.019302363 0.060120177 0.055105392 0.06581112 -0.019641152
0.058330193 0.008410573 -0.07628445 0.03875375 0.07160469 -0.026414668 0.036609225 -0.0713763
-0.06768011 -0.018781627 -0.021013452 -0.032644168 0.016007911 0.07771428 0.08399583 -0.05398557
-0.058073018 -0.0494714 -0.053290553 -0.062091347 0.06955664 -0.041826807 -0.060866 0.03787889
0.04294154 -0.022535527 -0.041252285 -0.050823413 0.067256965 0.063533336 -0.009103239 0.015250563
0.03052255 0.0058897473 0.057189543 0.08125749 0.04788743 -0.022825036 0.027534096 -0.013341481
0.011521989 0.03541361 -0.06626393 -0.058439687 0.052079465 -0.054123666 0.058411904 0.02157662
0.003509267 -0.044581275 -0.022252617 -0.08737545 -0.050592262 0.03958987 0.017344588 0.036778167
0.044117767 0.07622009 -0.030336639 -0.016949493 0.07231548 0.057739243 0.054379176 0.023456365
-0.042794213 -0.043895006 0.032821864 0.067161426 -0.018354086 0.03084144 0.06623522 0.052156247
0.05615861 -0.061651476 -0.016345887 0.060785994 -0.04490675 0.05356057 0.0060758037 -0.03735427
0.050077155 0.04194621 0.06484524 -0.061497673 0.030562436 0.06355961 -0.06689233 0.04627549
-0.06727311 0.034392204 -0.0701331 -0.034628883 0.047883574 -0.06131991 0.029210087 -0.016267752
0.006162293 -0.05028383 -0.011890178 0.07437554 0.10206693 0.046070244 -0.0075057447 -0.017343346
0.053357977 0.035592373 0.029893598 0.0841786 0.0795907 -0.033243097 0.046771802 0.013013115
-0.020423291 -0.07495696 0.058259808 0.07204622 0.060241092 0.0617696 0.031361215 0.050722808
0.0141069 -0.02613459 0.019340368 0.022697568 0.040940374 -0.043693077 0.067507714 0.06283758
0.071848415 0.033787902 0.048879486 -0.051099315 0.010526511 -0.04949483 -0.049711246 -0.06380564
0.015196149 -0.02600798 0.036020074 -0.00943578 -0.0037631185 0.025878625 -0.068306796 0.063131
0.066083476 0.058536716 0.006347916 -0.043053366 -0.0642946 -0.03588991 0.0051429453 -0.040727865
-0.010742282 0.004090129 -0.038212802 -0.05193927 0.031283874 -0.02123516 -0.028363531 0.022870589
0.050197426 0.032607563 -0.060621116 0.062751904 0.020653639 -0.04559394 -0.05299414 -0.025029464
0.035327382 0.022175658 -0.022440553 -0.037775345 0.049043976 -0.06165336 0.033028264 -0.065835156
0.0028852073 -0.034066573 0.029421037 -0.054214988 0.045389663 -0.07577484 0.018226486 -0.02527529
-0.0032536762 0.04658688 -0.04598518 0.09594335 -0.02676939 0.063626744 0.054427225 0.06357936
0.04201985 -0.06663007 0.059392717 -0.028419713 0.013863112 0.018120106 0.0651346 0.03721631
-0.030992245 0.036088664 0.040967822 -0.054954994 0.014980913 0.05210081 -0.03139081 0.015627224
0.08310802 0.04918546 0.028785769 -0.015927168 -0.0037148898 -0.04313281 0.012849058 0.07228389
-0.025756292 -0.009018724 0.04828837 -0.008071144 0.07424481 0.03745833 -0.017358009 0.027919782
-0.013289199 0.032462917 0.08181359 0.013230025 -0.047303524 -0.044708345 0.030839315 -0.04647817
00000000: bb4a 40bd a2e9 fa3c 8eab ca3c d61e 1bbc
00000010: 5c92 7a3d 3dcb 59bd d553 fbba f7e4 11bd
00000020: 472a 353b 4251 ed3c c5fa d4bc aa7a 33bd
00000030: 876b 95bd 35f0 05bd 5b9d 9fbd dad1 0c3d
00000040: f6a7 6f3d ad5a 6a3d 67d0 c73c fd1f 9ebc
00000050: 9340 763d 31b6 613d fbc7 863d 7be6 a0bc
00000060: a4eb 6e3d 80cc 093c 063b 9cbd 41bc 1e3d
00000070: 7ba5 923d 9363 d8bc 8ef3 153d bd2d 92bd
00000080: df9b 8abd eddb 99bc 6724 acbc e4b5 05bd
00000090: 0623 833c aa28 9f3d 0106 ac3d f91f 5dbd
000000a0: f9dd 6dbd 86a2 4abd 3247 5abd 7f53 7ebd
000000b0: b673 8e3d 9652 2bbd a04e 79bd e526 1b3d
000000c0: 78e3 2f3d 6d9c b8bc 28f8 28bd 362c 50bd
000000d0: 05be 893d c41d 823d c025 15bc 7fdd 793c
000000e0: 6d0a fa3c c8fe c03b 953f 6a3d 546a a63d
000000f0: 9c25 443d 92fb babc 2f8f e13c 3a96 5abc
00000100: b9c6 3c3c dd0d 113d 62b5 87bd 745e 6fbd
00000110: 4751 553d c7b0 5dbd 5241 6f3d 74c1 b03c
00000120: bbfb 653b db9a 36bd 1f4b b6bc e6f1 b2bd
00000130: d539 4fbd fd28 223d 3d16 8e3c b4a4 163d
00000140: d5b4 343d 4719 9c3d 8b84 f8bc aad9 8abc
00000150: 231a 943d fc7f 6c3d b3bc 5e3d 9027 c03c
00000160: fc48 2fbd 40cb 33bd 3870 063d ee8b 893d
00000170: 4f5b 96bc 30a7 fc3c 55a6 873d caa1 553d
00000180: 9206 663d 4286 7cbd cfe7 85bc bcfa 783d
00000190: 24f0 37bd 5462 5b3d 8917 c73b cb00 19bd
000001a0: b41d 4d3d cacf 2b3d 95cd 843d fce4 7bbd
000001b0: 135e fa3c 8a2b 823d d9fe 88bd 5e8b 3d3d
000001c0: 7cc6 89bd d7de 0c3d f1a1 8fbd 04d7 0dbd
000001d0: 9121 443d 962a 7bbd fe49 ef3c f343 85bc
000001e0: 0fed c93b 6bf6 4dbd 05cf 42bc 3452 983d
000001f0: 7708 d13d 27b4 3c3d c0f2 f5bb a213 8ebc
00000200: e58d 5a3d 4fc9 113d 6be3 f43c d465 ac3d
00000210: 7300 a33d ea29 08bd ca93 3f3d f634 553c
00000220: bf4e a7bc 0983 99bd d6a1 6e3d f88c 933d
00000230: 5dbf 763d 1f02 7d3d 9e74 003d b8c2 4f3d
00000240: a120 673c 3518 d6bc b16f 9e3c 40f0 b93c
00000250: 18b1 273d 83f7 32bd 7c41 8a3d fdb0 803d
00000260: 4325 933d 2f65 0a3d db35 483d 844d 51bd
00000270: 6377 2c3c 17bb 4abd 059e 4bbd 88ac 82bd
00000280: 45f9 783c b00e d5bc c989 133d 8898 1abc
00000290: a79e 76bb 69ff d33c 6fe4 8bbd d34a 813d
000002a0: c656 873d 32c4 6f3d 2e02 d03b ba58 30bd
000002b0: e3ac 83bd 4c01 13bd 2786 a83b 43d2 26bd
000002c0: 6500 30bc 7d06 863b 0785 1cbd 46be 54bd
000002d0: 8523 003d 5cf5 adbc a35a e8bc 1a5b bb3c
000002e0: d19b 4d3d 828f 053d d94d 78bd 1284 803d
000002f0: d231 a93c b6c0 3abd 6210 59bd 970a cdbc
00000300: 72b3 103d baa9 b53c 40d5 b7bc 52ba 1abd
00000310: 56e2 483d 3c88 7cbd a548 073d 95d4 86bd
00000320: bf15 3d3b 6489 0bbd 6304 f13c 8910 5ebd
00000330: 83ea 393d d72f 9bbd b64f 953c 200e cfbc
00000340: a13b 55bb e2d1 3e3d f55a 3cbd f27d c43d
00000350: 7b4b dbbc bd4e 823d 15ef 5e3d e535 823d
00000360: 021d 2c3d 5975 88bd c745 733d 75d0 e8bc
00000370: 1b22 633c 9e70 943c 4a65 853d 2170 183d
00000380: 73e3 fdbc b5d1 133d e0cd 273d 7d18 61bd
00000390: 8172 753c a967 553d a693 00bd aa04 803c
000003a0: 8a34 aa3d b176 493d 22d0 eb3c b179 82bc
000003b0: 8275 73bb 08ac 30bd db84 523c 9309 943d
000003c0: dcfe d2bc 45c3 13bc 07ca 453d d53c 04bc
000003d0: aa0d 983d e86d 193d 6232 8ebc 07b8 e43c
000003e0: f1ba 59bc d6f7 043d e28d a73d bfc2 583c
000003f0: 57c1 41bd 1920 37bd bba2 fc3c e55f 3ebd

encoder.15.bias f4 [256]
-0.027030826 -0.05963363 -0.06081847 -0.06708073 -0.028471276 -0.053087253 0.071606286 -0.014915199
0.02115497 -0.035979733 0.06613334 -0.04682306 0.029945469 0.09444301 0.03740952 -0.05269896
-0.016720546 -0.01557186 0.044147044 -0.045757152 0.06366017 -0.016953444 -0.04340452 0.011851018
0.061290056 -0.021604557 -0.047695316 0.03512039 -0.040329114 0.0140437875 -0.038140364 0.07767171
-0.065748736 0.04433249 0.008651676 0.04866117 0.0038029375 -0.06357348 0.039157674 0.06800301
0.02780304 0.0044967956 0.0028246809 -0.055164397 0.03877865 0.023561563 -0.0332747 -0.0067020403
-0.07677908 0.06301525 -0.030384798 0.02692211 0.06336428 0.07346679 0.06143334 0.015800502
0.012574343 -0.0622498 0.03442011 -0.039505117 0.049975663 0.0030191252 0.06052257 -0.008911818
0.0010126351 0.042520095 -0.0589756 -0.049613036 -0.05157496 -0.054833516 -0.040386613 -0.012255376
0.018049344 0.0285065 0.07530645 0.042531215 -0.05142159 0.04581119 0.06701984 0.05358534
-0.042326145 0.030413315 0.022912042 -0.05477003 -0.0050451774 0.013235739 0.01122456 0.028657893
-0.046872564 -0.023729617 0.0430839 0.048751697 -0.025412071 0.022830756 -0.03719841 -0.055346828
0.0348005 -0.07093181 0.017037757 0.08226024 0.026686104 0.049089298 0.043752242 -0.020257853
-0.004752606 0.03393223 -0.07509864 0.06405501 0.009470688 -0.020806845 0.022027075 -0.046027046
0.0004969216 -0.00793116 -0.042871155 -0.044515897 -0.06450236 0.06315876 0.06807351 -0.06940622
-0.009823483 -0.02269128 -0.03280288 -0.069656126 -0.030928412 -0.025837602 0.07065086 -0.013060019
-0.0056939796 0.0280078 0.040770344 -0.009093107 0.026736885 -0.032366183 0.026080653 -0.012462142
0.00416154 0.0637299 0.027115181 0.04690209 -0.028277073 0.0017346813 0.017876193 0.06368144
-0.07682821 -0.011750325 -0.044196337 -0.030887205 -0.026385795 -0.04714494 0.02869989 -0.070201986
-0.0028147474 -0.015933229 0.07241176 0.002465993 0.002302936 -0.0015141589 -0.04286681 0.044068545
-0.00114128 0.0021033476 -0.028522216 0.06825544 0.030959014 0.0727502 -0.00662237 0.091180615
0.041002203 0.0543636 0.010274329 -0.073415205 0.04270014 0.0034743033 -0.044525236 0.06737697
0.026432045 -0.021567639 -0.037442528 0.04229912 0.003991134 -0.03765577 0.047089376 0.023104716
-0.0029445738 -0.07496988 0.060767464 0.07711825 -0.029796032 -0.04004444 -0.03942154 -0.0050818315
-0.050816 0.007852185 -0.0391166 -0.041568995 -0.061778404 0.055256613 0.02296783 0.015457764
0.0019325601 -0.004367873 0.010940314 -0.007326809 0.0033664862 -0.041892663 0.047767807 0.0774452
-0.02346804 0.002539925 -0.0020188873 -0.034598466 0.02329036 -0.038420536 0.045823295 0.026075944
0.0021144394 -0.061367493 0.038162738 -0.005746177 -0.07263021 0.07705112 -0.06229297 0.028338395
-0.071580485 -0.027070226 -0.02110405 -0.062381785 0.017113643 0.082340874 0.007291849 -0.029641377
0.0693038 0.0498793 0.014106085 0.044510573 -0.04946203 0.077629484 -0.035233483 -0.0042134156
0.04919683 -0.0839774 0.038115963 0.0012635957 0.060027618 -0.049627937 -0.069183595 0.06855291
-0.053932518 0.066063434 0.050509777 -0.06671626 -0.035806656 0.02387524 0.060824405 0.07441947
00000000: c06f ddbc 6542 74bd ca1c 79bd 9f61 89bd
00000010: 983c e9bc 0572 59bd 51a6 923d e15e 74bc
00000020: 304d ad3c 7c5f 13bd eb70 873d 89c9 3fbd
00000030: 3350 f53c 566b c13d ba3a 193d ddda 57bd
00000040: 87f9 88bc 1d21 7fbc 88d3 343d da6b 3bbd
00000050: 4360 823d f3e1 8abc f0c8 31bd c62a 423c
00000060: 480b 7b3d 0afc b0bc 2a5c 43bd 66da 0f3d
00000070: 2430 25bd ea17 663c 1239 1cbd 5812 9f3d
00000080: 46a7 86bd fc95 353d c2bf 0d3c ef50 473d
00000090: b43a 793b d032 82bd cc63 203d 2945 8b3d
000000a0: 33c3 e33c db59 933b 481e 393b 10f4 61bd
000000b0: 5dd6 1e3d 2e04 c13c 0d4b 08bd ca9c dbbb
000000c0: 5a3e 9dbd 240e 813d 8ae9 f8bc c28b dc3c
000000d0: 22c5 813d c275 963d 87a1 7b3d 0e70 813c
000000e0: 9e04 4e3c a5f9 7ebd 1afc 0c3d 1ed0 21bd
000000f0: 48b3 4c3d 84dc 453b 84e6 773d e002 12bc
00000100: 65ba 843a 8d29 2e3d 6690 71bd 0a37 4bbd
00000110: 4440 53bd 1c99 60bd 6f6c 25bd c6ca 48bc
00000120: 38dc 933c 7786 e93c 453a 9a3d 3635 2e3d
00000130: 729f 52bd 84a4 3b3d b341 893d 4d7c 5b3d
00000140: 2e5e 2dbd 5825 f93c 09b2 bb3c 8a56 60bd
00000150: 0452 a5bb b7da 583c 38e7 373c f5c3 ea3c
00000160: 72fd 3fbd 9d64 c2bc be78 303d dcaf 473d
00000170: fa2c d0bc 9107 bb3c 5c5d 18bd 5bb3 62bd
00000180: f88a 0e3d b244 91bd c492 8b3c 0f78 a83d
00000190: d19c da3c dc11 493d 8d35 333d ccf3 a5bc
000001a0: c0bb 9bbb 86fc 0a3d 51cd 99bd 462f 833d
000001b0: f22a 1b3c 1e73 aabc 2072 b43c db86 3cbd
000001c0: d843 023a b2f1 01bc aa99 2fbd 4d56 36bd
000001d0: d019 84bd 6159 813d 206a 8b3d d924 8ebd
000001e0: adf2 20bc 10e3 b9bc 505c 06bd dfa7 8ebd
000001f0: 955d fdbc 61a9 d3bc 66b1 903d b1f9 55bc
00000200: 9094 babb 9d70 e53c cefe 263d 41fb 14bc
00000210: 5007 db3c 6792 04bd 18a7 d53c 032e 4cbc
00000220: 875d 883b d284 823d a820 de3c 681c 403d
00000230: 52a5 e7bc 3f5e e33a 1871 923c 6a6b 823d
00000240: 1c58 9dbd 6f84 40bc 3807 35bd 2a07 fdbc
00000250: 0627 d8bc 0d1b 41bd 081c eb3c 0fc6 8fbd
00000260: a077 38bb 6786 82bc 9e4c 943d 7f9c 213b
00000270: dbec 163b be76 c6ba 1c95 2fbd 3881 343d
00000280: 0197 95ba 51d8 093b 6ca7 e9bc 82c9 8b3d
00000290: c29d fd3c 0ffe 943d 7700 d9bb e7bc ba3d
000002a0: edf1 273d 5eac 5e3d a955 283c b65a 96bd
000002b0: 58e6 2e3d 23b1 633b 1860 36bd f0fc 893d
000002c0: 0488 d83c 9eae b0bc 565d 19bd d841 2d3d
000002d0: 0fc8 823b f03c 1abd cae0 403d 1a46 bd3c
000002e0: c0f9 40bb cf89 99bd 4ee7 783d 2cf0 9d3d
000002f0: cf16 f4bc a405 24bd 7b78 21bd 7e85 a6bb
00000300: 7024 50bd 73a6 003c ba38 20bd 4044 2abd
00000310: 5a0b 7dbd c254 623d 0827 bc3c 9042 7d3c
00000320: f54d fd3a 6020 8fbb 013f 333c bb15 f0bb
00000330: 44a0 5c3b a497 2bbd 2da8 433d 979b 9e3d
00000340: 0c40 c0bc df74 263b 4f4f 04bb 1fb7 0dbd
00000350: 6dcb be3c da5e 1dbd 35b1 3b3d 389d d53c
00000360: 6892 0a3b 7b5c 7bbd 8850 1c3d 6d4a bcbb
00000370: 26bf 94bd facc 9d3d ea26 7fbd ec25 e83c
00000380: ca98 92bd 61c2 ddbc 67e2 acbc 0b84 7fbd
00000390: e931 8c3c 55a2 a83d 76f0 ee3b 79d2 f2bc
000003a0: 27ef 8d3d 3d4e 4c3d 351d 673c b850 363d
000003b0: b398 4abd 35fc 9e3d fc50 10bd b110 8abb
000003c0: 9d82 493d 58fc abbd 7c1f 1c3d 3c9f a53a
000003d0: 85df 753d aa46 4bbd 21b0 8dbd 7865 8c3d
000003e0: 58e8 5cbd 444c 873d 57e3 4e3d 89a2 88bd
000003f0: 00aa 12bd 0296 c33c 0323 793d 3c69 983d
