dump/source_encoder_cwru_cua_adda5.pt (torch, 284865 bytes, 12 tensors)

encoder.0.weight f4 [8, 1, 32]
00000000: ee2e 223e 118d 973c 75dd 87bd 3f08 4e3e
00000010: 22ab 393d ab9c 26be c2d4 44bc 3de6 0bbe
00000020: ab71 f8bd cedb 11bc a13e 9fbd fb3a 6cbd
00000030: 1950 4a3d 27c4 b93d 3171 88bd c794 8b3d
00000040: 3106 cb3d 63e8 e3bc f0c0 dbbd 7cfa 3ebe
00000050: 04d9 c83d b042 3a3c e9db 193c bb53 c73d
00000060: d51f d23d cc58 4fbd a585 ecbc 4105 3f3e
00000070: 340b 083c 2b23 20be 1a7a 803d 13de 143e
00000080: 8d86 e1bb fab5 00be 2516 073e a21b 133d
00000090: 03cb f9bd 91bd 153e e9fa 313e 2a53 3abe
000000a0: 3db1 fcbb f8e0 e93d 052e b6bd c2db 98bd
000000b0: 67ee 003e a9e1 f83d eb9a bfbd d877 5d3e
000000c0: 45ca 24be bf3c 23be 7ff2 c3bb e420 a5bc
000000d0: 3023 ebbd 74aa e03d eb61 b83d 7bf1 b43d
000000e0: a025 e4bd 98bf 463e 0f5d 283d 4554 223d
000000f0: 35ab 09be b1c9 26bd 8494 0b3e 97f5 2bbe
00000100: cca0 73bd 3790 713c 4813 74bd 2cd7 eebd
00000110: 5916 3ebd a122 b9bd 776b 073e 1060 583e
00000120: cbb8 553c d188 b3bd abab 3a3d e738 3bbd
00000130: fc91 5bbd 1ac8 483e a2a5 113e e2ae 363c
00000140: 358f 903d ad21 933d fba3 0fbe 3168 d4bd
00000150: 67d7 103d 7de7 95bd 4fe7 0fbe 335f 3b3d
00000160: 1dec 2dbe d07f 49be 3c8b 533e 27ff 17be
00000170: e97e fa3d 90c4 6c3e 5ded 22be 46d4 e63c
00000180: 4809 99bd b9fd 033e d4da febd 61ad 75bd
00000190: d78c 1dbd c2e0 5ebd 5a32 1dbe 1c9b 0fbd
000001a0: 4e8f 113e c3ce 1d3e 2e99 9d3d 1cfe 033e
000001b0: 78b4 343e a245 00be 7347 d23d dbdc 0bbe
000001c0: 4706 243e 2fab 1fbe a90e 81bd 6d71 02bd
000001d0: 3b4c 22be 0944 20be 2b08 74bd f4ea a9bd
000001e0: 691c 53bc fa46 f3bd f412 8bbd 91c9 19be
000001f0: 24aa 33bd 795a 603d 3524 6d3b a1d1 4bbd
00000200: 2a70 a5bd 0554 e93d 782e 0e3d 3da5 973d
00000210: 77ca 3bbe 6a5b 31be 4335 323d a59f 023e
00000220: 960e 70be 1ef2 083e 9f70 463d 5ab4 89bd
00000230: a9d0 083e 7382 553d 1b4a 873d e9ec 153d
00000240: 2df5 babd 4bcc 3fbe 1a61 853c 5a53 efbd
00000250: 89a5 c8bb 1aeb 42be dea5 633e b0d8 afbc
00000260: 4dbb 57be c977 c33d a1e9 383e 0f19 f0bd
00000270: dfd7 e7bd bfe9 01be b7f7 75bd fe35 763e
00000280: e934 12bd c1a3 043c 291d 09be 2dfb c53d
00000290: 7444 0ebe c57a 493c e996 753e 9688 f5bd
000002a0: a455 053e 2c69 093e 787c 24be 3cf1 72bd
000002b0: 50a9 4a3e ff4b 6c3c 6f84 8ebd 6395 e83c
000002c0: 0ad9 f83c 321a 34be d3ac 143e 3e70 2f3e
000002d0: 663f 70be 916c b4bd c937 30bd 7d36 76be
000002e0: 0506 983d 74f5 d7bb 388a 51be 86e9 2cbe
000002f0: 1ca0 103d 5550 53be cf23 b1bd b7d2 6b3e
00000300: 9f29 4dbc 6ed0 5b3e bb62 1cbe dc3f 7a3d
00000310: 2cf0 7cbc 0bc6 513c aa3e 7ebd cc01 26bd
00000320: 1487 473e 6af3 c7bc 9adc a8bd bda3 173e
00000330: a5bd 92bd b119 f8bc ae64 1f3d 9b20 b7bc
00000340: c83b e4bc cdcb 753e 5ecf c2bd 04c0 3fbe
00000350: 8035 ddbd c427 02bc fd0d 79be b286 9cbd
00000360: 4c13 833d 6ff0 d3bc 9f91 d53d 2f38 fdbc
00000370: 3260 fe3d 7645 213d f4bd b63d 3be4 3dbe
00000380: 7792 e3bd 587e 363c 8fac 073d caf3 e63c
00000390: 8631 943d 8593 4bbe 5248 8a3d a82d 1c3e
000003a0: f19f 43bd 2499 4e3d 706c 3d3e cdb4 e9bd
000003b0: adba 86be 2b71 afbd 852d 3d3d c027 71be
000003c0: 4d35 173e 2b23 d73d 2850 6abe 19c6 bb3d
000003d0: 6388 043e 59d5 0abe c1ed 4ebc c844 423d
000003e0: c0fb 29be 5e29 8f3d 093e 573e b15c 8cbc
000003f0: 25e4 5fbe db1b bb3d 30d4 053e 52cf 7fbe
0.15838215 0.018499883 -0.066340365 0.20120333 0.04532922 -0.16270702 -0.012013616 -0.13662048
-0.121310554 -0.008902503 -0.077756174 -0.057673436 0.049392793 0.09070616 -0.066622145 0.068154864
0.0991329 -0.027820772 -0.10730159 -0.1865024 0.098070174 0.011368439 0.00939081 0.09732767
0.10259978 -0.050621793 -0.02887232 0.18654348 0.008303452 -0.15638416 0.06273289 0.1453784
-0.006882495 -0.12569419 0.13192041 0.035915025 -0.121969245 0.14623095 0.17380871 -0.18195787
-0.007711558 0.114198625 -0.08895496 -0.074637905 0.12590943 0.12152416 -0.0935572 0.21627748
-0.16092785 -0.15941142 -0.0059798355 -0.020157285 -0.11481321 0.10970011 0.09003051 0.08835121
-0.11139989 0.19409025 0.041104373 0.039631147 -0.13444217 -0.04071969 0.13630873 -0.16792904
-0.05947952 0.014743856 -0.0595887 -0.116621345 -0.04640803 -0.09039808 0.13224588 0.21130395
0.013044546 -0.0876633 0.04557387 -0.045708563 -0.05360602 0.19607583 0.1422334 0.011150094
0.070585646 0.071841575 -0.14027397 -0.103714354 0.035361674 -0.073195435 -0.14053081 0.045745086
-0.16984601 -0.19677663 0.20658582 -0.14843427 0.122312374 0.23121858 -0.1591086 0.028177392
-0.074724734 0.12889756 -0.12444082 -0.0599798 -0.038464393 -0.054413565 -0.15351239 -0.035060033
0.14214823 0.15410905 0.07695232 0.12889904 0.17646968 -0.12526563 0.10267534 -0.13658468
0.1601802 -0.15592645 -0.06301624 -0.031846453 -0.15849392 -0.15650953 -0.059578102 -0.08296767
-0.0128851915 -0.11878772 -0.067907244 -0.15018298 -0.04386343 0.05477378 0.003618491 -0.049760465
-0.08078034 0.113929786 0.034712285 0.074045636 -0.18338953 -0.17320028 0.043507826 0.12756212
-0.23443064 0.1337361 0.048447248 -0.067238525 0.13360848 0.05212636 0.06605931 0.03660289
-0.09128795 -0.18730275 0.016281653 -0.1168582 -0.006123249 -0.19034997 0.22231242 -0.02146563
-0.21067543 0.095443316 0.18057872 -0.117235295 -0.11320471 -0.12686823 -0.060050692 0.24044034
-0.03569499 0.008095683 -0.1339003 0.096670486 -0.138933 0.012297337 0.23983349 -0.11988942
0.1302095 0.13419026 -0.16063106 -0.05931209 0.1979115 0.014422416 -0.069588535 0.028391546
0.03037693 -0.17588118 0.14519052 0.17132661 -0.23461685 -0.0880977 -0.04302195 -0.24044223
0.07423023 -0.0065905396 -0.20462883 -0.16885957 0.035308942 -0.20636113 -0.08649408 0.230296
-0.01252213 0.21466228 -0.15272038 0.061096057 -0.015438121 0.012803565 -0.06207148 -0.040529057
0.19485122 -0.024408061 -0.082452014 0.14808555 -0.07165078 -0.030285688 0.038914375 -0.022354415
-0.027860537 0.24003525 -0.095122084 -0.18725592 -0.1080122 -0.007944051 -0.24321742 -0.076428786
0.06400165 -0.025871484 0.10428166 -0.03091058 0.124206915 0.039372884 0.089229494 -0.18544094
-0.1111192 0.011138521 0.03312355 0.02819242 0.07236008 -0.19880493 0.06752075 0.15251791
-0.047759954 0.050439015 0.18498397 -0.11411438 -0.26314297 -0.08566507 0.04618599 -0.2355032
0.14766426 0.10504755 -0.2288214 0.091686435 0.12942652 -0.13557948 -0.012629927 0.047428876
-0.16599941 0.06990312 0.21019758 -0.017134042 -0.21864374 0.091361724 0.13069224 -0.2498143

encoder.0.bias f4 [8]
00000000: 2f03 563e a073 b5bd 7b0e 68bb eaf6 463e
00000010: 9283 3cbd 6d63 fb3d 7c11 b3bd 5c7e d03d
0.20899652 -0.08859944 -0.0035409022 0.19430128 -0.046023913 0.12274823 -0.08743569 0.10180351

encoder.3.weight f4 [16, 8, 16]
00000000: 2cfc 06bd 3094 5d3d d85e 213d cfa9 6f3c
00000010: 948f de3d dff8 213d 4dc3 b73c 724a ec3c
00000020: 9bf7 003e 8580 ce3d 4cca 57bc e1d5 093e
00000030: 4310 2f3c 656f e13d 1a91 db3d d024 b33c
00000040: e317 01bd 5cde 0a3c d3c5 d83d 2708 4b3c
00000050: b0e1 193e 30b1 173e e00a bb3d d1e1 0a3e
00000060: f6ea 093e 4582 873c 2fcd 2d3e f4af 323c
00000070: 0f34 c13d c8d3 b93d c2e1 013e 2563 1c3e
00000080: 1f1c d23d 6099 bf3c 9933 ac3d 006a ac3d
00000090: 578a 763c d439 d03d ce29 96ba 4ac2 f73d
000000a0: b895 273d d7f2 b13d 605a 1b3e 0195 403c
000000b0: 7e73 4b3d 9606 2b3e 19bf 003d 82d1 7f3d
000000c0: 2fe3 633d 27ae ce3d f7c3 dc3b b37b 18bd
000000d0: f544 593c 9392 f73d 1604 08bd 23f3 ca3d
000000e0: ea2c ac3d dbbf 8b3c c3eb d43c 6f83 963d
000000f0: 0d19 033e 0a4a 793d e06d 433c 5227 123d
00000100: 89e4 db3d 351f 5f3d bd4d 613d 5130 22bd
00000110: b730 0d3e 847d 913d f470 e93d 9d20 133e
00000120: 34ed 7a3d 22f1 ad3d 1ca2 c7bc 54d6 473d
00000130: d264 df3d ffe1 f43d 84f4 6ebc 8e95 d9bc
00000140: ebd4 023e cbbd 473d 88fb 9a3d 215b 6d3b
00000150: 3ac4 1e3c 8a74 a7bb 5e04 9bbc 8404 053d
00000160: c52d c03d 5b0a 6a3d c3a3 f53d 7bb3 4f3c
00000170: e43e 193d 2c85 903d 9d50 e53d 4e6a 993d
00000180: 97ed 3ebd 4783 91bc 9bac 033e a1bb 573b
00000190: 1fe2 13bc ae29 023e 9908 2a3e 28c8 533c
000001a0: 7410 be3d 3eea 463c c331 dd3d 4140 033e
000001b0: 98c1 233d 3a4e 233e 2c7a 933c 58fc be3c
000001c0: 9210 d73d 64d9 f23d c890 0f3d ddbd d53d
000001d0: 98c3 563d 450a d93d a5d9 443d 7c55 aa3d
000001e0: 9763 953d 2798 1e3d 1539 c83d c6f3 d13c
000001f0: f281 b33d 547a 9d3c 8e48 a7bc 7fd5 c7bc
00000200: 669f 81bc 0150 1a3d 20b0 923d 7d8e bd3c
00000210: d446 693d 59d1 39bd e955 9f3b 5b44 813b
00000220: d62e 43bd 8d6d e6bc f56e 503c c4bf 0dbd
00000230: 9fef e93d 253f 423d 1271 f33d fc5d bd3d
00000240: 3230 c23d b1ad 823d 94d1 493d 8e2c 153e
00000250: 02c0 d93d 050c f43d 6d22 8e3c 0773 7f3d
00000260: 130f 183e d167 033d 112e 023e b89b 293e
00000270: 2823 4b3d 1736 913d f1ba 1d3e 3923 b43d
00000280: 0534 9ebc 93a0 0c3e 7ea0 163c 5eb2 223e
00000290: a94b ef3d ce59 a03d 985a 433d 071c 1c3e
000002a0: 3296 583d 7685 293e 9d5e 1c3e 3e23 d23d
000002b0: d2f6 353d 7baa ed3d e785 3bbc b5fc 563c
000002c0: de21 5bbd c83e c63d e962 9bbc 0e3d 57bd
000002d0: 256a 8b3d ef64 f43c 4c13 813d a95e 8ebd
000002e0: 020f 85bd 72ee 9b3d bf27 39bd 5636 70bd
000002f0: 826f bd3d 4aaa 813c d3cc ca3d 7dd8 343d
00000300: 26c1 e43d b344 943c 9d83 0b3e 496e f53d
00000310: 7c41 c93d 99e4 af3d 5a65 d23c b9a3 ad3d
00000320: 7a67 cf3d b81a aa3d 77a2 cc3d 5ae1 eb3c
00000330: 46bb 69bc 2d44 ba3c f8ed f13d 2219 993d
00000340: 1eb9 643d a386 833d b3de cfbc fec9 463d
00000350: 0e7e 533c 2ffe babc 9efd 713d aeaa b83d
00000360: e3d3 0d3e 1937 b13d d2b8 01bd 3877 d03d
00000370: 40f9 f3bc 5163 c43d 879d f23d 3cd5 6fbc
00000380: efae da3d 8d7b 253e 6dff 223e 565f 593d
00000390: bec3 133e 6a2a e73d 8cce f23b e724 303e
000003a0: 207a 1d3d d5ce bd3d 6a56 ed3d 7735 083e
000003b0: f356 b03d d349 f63c 8354 8c3d 9e11 a33d
000003c0: 0efe 833d 406f fc3d d4d2 9c3c 8922 153d
000003d0: fdf0 293c b94f 4a3d 5ace 053e b3c4 c33d
000003e0: 4a43 c23d 440f 743d b5dc 833d 4f2f dc3d
000003f0: c4c7 ea3c 2f7f 063e 0d18 d63d 0fde 823c
-0.032955334 0.0540964 0.03939709 0.014627888 0.10867229 0.039543983 0.022431994 0.028844092
0.12594454 0.10083107 -0.01317079 0.13460495 0.010685029 0.11007575 0.10721035 0.02186814
-0.03151692 0.008475866 0.10584607 0.01239208 0.15027499 0.14813685 0.091329336 0.13562705
0.13468537 0.01654161 0.16972803 0.010906208 0.094337575 0.09073597 0.12683776 0.15272196
0.1025927 0.023388565 0.08408279 0.084186554 0.015047631 0.1016728 -0.001145655 0.120976046
0.040914267 0.08688896 0.15171194 0.011754275 0.04967069 0.16701731 0.031432245 0.06245566
0.05563658 0.10091811 0.006737228 -0.037227344 0.01326107 0.12088504 -0.03320702 0.09909656
0.08407004 0.017059257 0.025991326 0.07349288 0.12802525 0.060861625 0.011928052 0.03568203
0.10736949 0.05447312 0.055005778 -0.03959686 0.13788114 0.07104018 0.11398497 0.1436791
0.06126137 0.08493258 -0.024369292 0.048788384 0.10907902 0.11957168 -0.014584664 -0.026560571
0.12776534 0.048764985 0.07567507 0.0036217647 0.009690339 -0.005110328 -0.01892298 0.03247501
0.0938373 0.057138782 0.11994126 0.012677069 0.037413493 0.070566505 0.111970164 0.07490979
-0.046613302 -0.017762793 0.12858813 0.0032918232 -0.009026079 0.12711212 0.16604842 0.012926139
0.09280482 0.012140809 0.10800507 0.1281748 0.039979547 0.1594781 0.018002592 0.023313686
0.105012074 0.1185787 0.035050184 0.10436604 0.052432626 0.10597662 0.048059124 0.08317086
0.07294386 0.038719323 0.097765125 0.025628936 0.087650195 0.01922337 -0.020420339 -0.024393795
-0.015823077 0.037673954 0.071624994 0.023139233 0.056952313 -0.045365665 0.004862536 0.003944916
-0.047652088 -0.02812841 0.012721767 -0.03460671 0.11422657 0.0474235 0.11886801 0.09246442
0.09481849 0.06380785 0.049272135 0.14567778 0.10632326 0.11916355 0.0173504 0.062365558
0.148495 0.03208143 0.12712885 0.16563308 0.049594074 0.07090395 0.15403344 0.08795781
-0.019311914 0.13733129 0.009193538 0.15888354 0.11684353 0.07829629 0.04769382 0.15245067
0.052877612 0.16554818 0.15270467 0.10260628 0.04442484 0.11604782 -0.011445499 0.0131217735
-0.053499095 0.09679943 -0.018968062 -0.05254846 0.06807355 0.029833285 0.06302509 -0.06951649
-0.06497003 0.07613839 -0.04520392 -0.05864557 0.09249784 0.01582827 0.09902348 0.04415177
0.11169653 0.018099165 0.13624425 0.11983926 0.09826943 0.085885234 0.025683094 0.08478493
0.101271585 0.083058774 0.09991925 0.02879398 -0.014265841 0.022737587 0.11812967 0.07475497
0.055840604 0.06422164 -0.025374746 0.04853248 0.012908472 -0.022826282 0.05907976 0.090169296
0.1385036 0.08653087 -0.0316704 0.10178989 -0.029781938 0.095892556 0.11846452 -0.014638241
0.10677897 0.16160412 0.1591775 0.053069435 0.14430138 0.11287387 0.007409876 0.17201577
0.038446546 0.09267966 0.11588748 0.13301645 0.08610334 0.030064499 0.06852057 0.079623446
0.064449415 0.12325907 0.0191435 0.03640989 0.0103723975 0.049392436 0.13066998 0.09559002
0.094854906 0.05958487 0.06438581 0.10751211 0.028659709 0.13134454 0.10453806 0.015975026

encoder.3.bias f4 [16]
00000000: 7a4f d93d 8786 463d d63a e03a 8f09 ee3d
00000010: ff70 773d 3157 7f3c f08e 7b3d e8bd 863c
00000020: ca16 223d 384f 7dbd bb49 c43d c483 efbd
00000030: 6d47 743c 4279 07bd 9ab6 b6bd 7b31 033e
0.10610862 0.04846814 0.0017107378 0.11622917 0.060410496 0.015584753 0.061415613 0.016447976
0.039572515 -0.061843127 0.095843755 -0.11695054 0.014909607 -0.033074625 -0.08921547 0.12811844

encoder.6.weight f4 [32, 16, 8]
00000000: fb20 45bd e59a 323d d6f3 683c ca13 4cbb
00000010: bebb b63d dac9 c23d 21fa 103e ff06 083e
00000020: 826c 8f3c a921 c23c 389f debc 6ee5 d93d
00000030: 7508 cb3d 3614 d03d 66af a73d dd57 f23d
00000040: 6712 c83d 9693 723d be32 123c 8ffe cf3d
00000050: 87fa 4a3c 44e8 ac3d 2e60 0a3e 4929 b93d
00000060: 00d6 943d 23a4 d2bc a375 74bc 9d21 753c
00000070: 5a52 013e 6b4a fc3d 79e0 7f3d 9bce 8a3d
00000080: ac91 b33b 56af e83d b97a d63d bb4a 983d
00000090: cb66 bc3c d89d 9a3d ecad b8bb a119 e23d
000000a0: 3f10 2abd 4c82 603c 9368 853d 1ade c63c
000000b0: fe3a 95bc 89c2 f93d 8efc 0e3d ac88 c7bb
000000c0: 0ab0 833d fe1b ca3d 15f6 7d3c aec5 1ebd
000000d0: a30e c7bc bfbb 7ebc 3548 51bc 645c 083e
000000e0: bde7 e33d 6377 c43d 53bf 993d 012f 5a3d
000000f0: 99f7 6abc de06 763d 02f3 423c 0538 9a3d
00000100: ee71 033c 9745 1c3d 900e 3bbd 0c62 b83d
00000110: adc1 023e 903d 00bc 2e5b c23d ccff 0f3e
00000120: 2c35 0f3d cdd6 febc a2c2 ffbc 1879 d33d
00000130: bc0a da3a 6019 d8bc e3a7 2e3d 8f4c 9e3d
00000140: 3ad4 e03d 0fb3 b63d c4ac 45bc 7670 033d
00000150: 5197 a33d 1f14 b13d 9d65 913d 0fd4 943d
00000160: 5bad 2e3d 9c33 d7bc a4a9 3fbd 686b 01bd
00000170: cbd2 3b3c d96e 9f3d 58fe 1f3d ea03 023e
00000180: 32f1 3dbd 1fec db3d 1316 533d f69d 5b3d
00000190: ce0e 2f3d 50d8 ce3d 72e8 9c3c 2a34 863d
000001a0: f1b8 b63d aa05 a53c 4e08 acbc f682 f03d
000001b0: f402 023d df2a fcbc bf74 753d 41f6 cb3d
000001c0: e8ac e03c 4640 a63d 087d c83d f8d2 25bd
000001d0: f538 8b3d 3090 ab3d 104e a33c 8893 143e
000001e0: 6d44 5d3d 7474 af3c 4b4d 8cbb 48f3 13bc
000001f0: 9470 413d 375e e93c 9ed1 3b3d 7cf1 5d3c
00000200: a719 ba3d a079 90bd 26c2 25bc 7044 b03d
00000210: b9f6 8bbd ce06 4bbd 0832 7dbc cb93 27bc
00000220: e4e3 f8bc e1d0 423d 8098 0b3d 35b2 483c
00000230: 4cf2 fdbb 3235 69bd 67bc 323b 4439 d63c
00000240: 77ac d53c 6711 e13d a1f3 673d 3f64 6ebd
00000250: cc8f 3ebc 6b6a dabc ff5a 9b3d 5f27 f6bc
00000260: 92e0 d2bd 02a2 c4bd 10ab a5bd 5d64 ae3c
00000270: dec0 c9bd 6f17 2abd 4d0c d3bd 26db ac3c
00000280: 0020 9e3c 3db7 e7bb 116f 8abd f9be 60bd
00000290: 6906 133d 777d 81bc 7673 50bc caf0 d83d
000002a0: 6dcc 06bd 11f6 173d f1c3 ea3c a90f e4bc
000002b0: 4e4b 2abd bd75 25bd 246e 353d 2567 f13b
000002c0: 19fa 5bbd 2f62 133d 2f29 26bd 398c c83d
000002d0: 2808 9c3d 7eec 4ebd 1a6b 2cbd be55 92bd
000002e0: 859a 853d d149 293d f14f 9a3c 5d0c c8b9
000002f0: 9363 6a3d 233e d73d 9525 343d ac9a aa3d
00000300: 6d21 9b3c 07a5 483d c141 c43c d237 d63d
00000310: 20c3 1d3d e9ca 033d 5bcd 8abc c538 26bd
00000320: ac2d 1fbd 90e9 eb3c 1e65 853c 15fe 283c
00000330: dde7 fc3d 41fa e6bb e45e b8bc 167e 4b3d
00000340: cfb4 d93c ac58 a1bd cf4c 5cbd 9d09 07bd
00000350: a11e a13d 4302 48bc fcb6 2a3d ea89 113d
00000360: 9770 26bd acbd 36bd 4a17 ca3d 56a5 75bc
00000370: e8f0 5e3d f3c8 d43d 1f41 d13d 0587 3b3d
00000380: d5af 4abc e172 293d f4b2 7cbd e640 54bb
00000390: 87a8 933d daeb 783d b59a c03d a64e 703d
000003a0: 3bb6 b43d 836c b43d 19fc d93c 1107 833c
000003b0: 7795 883d ae72 d23c e571 9fbc 78e8 0cbc
000003c0: 899c f53d 3af2 96b9 ab4b f03d d385 4fbd
000003d0: c5cd e53d a2ff b63c 5c7c a63d ce44 19bc
000003e0: a6ee 233d a071 813d aad8 0d3d f7a6 a1bd
000003f0: 998f 3ebd f814 18bd 1321 b0bd c195 74bd
-0.048127156 0.04360475 0.014218291 -0.0031139725 0.08922528 0.095111564 0.14157917 0.13283919
0.017507795 0.023697691 -0.02717553 0.10639463 0.099137224 0.10160105 0.081877515 0.11833165
0.09769135 0.05922278 0.008923231 0.10155975 0.012388832 0.08442739 0.13513252 0.09041078
0.0726738 -0.025713032 -0.014920625 0.014961627 0.12629071 0.123188816 0.062469933 0.06777688
0.005480012 0.11361568 0.10472626 0.07436129 0.022998234 0.075496376 -0.0056359675 0.110400446
-0.0415194 0.01370294 0.065140866 0.024275828 -0.018216606 0.12195308 0.034908824 -0.0060892906
0.06430061 0.0986862 0.015500565 -0.03876274 -0.024298972 -0.015547692 -0.012773563 0.13316494
0.11128185 0.09593084 0.07507195 0.053267483 -0.014341258 0.060065143 0.011898758 0.07530216
0.008022768 0.038152304 -0.045668185 0.09003076 0.12769194 -0.007827178 0.094900474 0.14062423
0.034962818 -0.031108284 -0.031220738 0.10325831 0.0016635279 -0.026379287 0.042640578 0.07729446
0.10977979 0.089208715 -0.012065116 0.032089673 0.07987846 0.08646416 0.07099459 0.072670095
0.042645793 -0.026269726 -0.04679264 -0.03159657 0.011463831 0.077848144 0.03906092 0.12696806
-0.0463726 0.10738396 0.051534723 0.05361744 0.04273873 0.10099852 0.019153807 0.06552918
0.089219935 0.020144302 -0.021000054 0.11743729 0.031741098 -0.030782161 0.05992579 0.099590786
0.027426198 0.08117728 0.09789473 -0.0404844 0.06797973 0.08377111 0.019934684 0.14509404
0.054020334 0.021417834 -0.004281675 -0.009030171 0.047226503 0.028487308 0.045854203 0.013546344
0.09086924 -0.07054448 -0.010117089 0.086068034 -0.06834168 -0.049567036 -0.015453823 -0.010228108
-0.030382104 0.047562484 0.034080982 0.012249519 -0.0077498313 -0.056935497 0.002727294 0.026150353
0.026083214 0.10989647 0.056628827 -0.05820107 -0.0116309635 -0.026662072 0.075857155 -0.03004807
-0.1029674 -0.09601213 -0.08089268 0.021288091 -0.098512396 -0.041526254 -0.103050806 0.021100592
0.019302368 -0.0070714043 -0.067594655 -0.054869626 0.035894785 -0.015806897 -0.0127228405 0.10592802
-0.0329098 0.0370999 0.028657885 -0.027839499 -0.041575722 -0.040395487 0.04429449 0.007367032
-0.05370531 0.035982307 -0.04056662 0.0979237 0.07618743 -0.050518505 -0.042094328 -0.0714526
0.06523613 0.041330162 0.018836947 -0.00038156184 0.057223868 0.105098985 0.043981154 0.083302826
0.018936837 0.048985507 0.023957135 0.10459866 0.038516164 0.032175932 -0.016943624 -0.040581483
-0.038861915 0.028797895 0.016283568 0.010314484 0.12348912 -0.0070488756 -0.022506185 0.04968079
0.026575474 -0.07878241 -0.053784188 -0.032968152 0.0786717 -0.0122075705 0.041678414 0.035531916
-0.040634718 -0.04461448 0.09867723 -0.014993032 0.054428965 0.103898905 0.10217499 0.04578306
-0.012371023 0.041369323 -0.0616941 -0.0032387315 0.072098784 0.0607718 0.09404508 0.058668755
0.0882382 0.088097595 0.026609467 0.01599458 0.06669133 0.02568945 -0.019463489 -0.008600347
0.11992747 -0.00028790702 0.117331825 -0.050664734 0.11220888 0.022338692 0.081291884 -0.009354783
0.040022515 0.063205004 0.034630455 -0.07893174 -0.046523664 -0.037129372 -0.086000584 -0.05971313

encoder.6.bias f4 [32]
00000000: e66e 8f3d 4121 5f3d ba91 783b fb78 f7bd
00000010: 084a eebd c5e3 afbc 6cb2 e63d 3332 1fbd
00000020: 9746 c03d 4c2a 77bc 4397 bf3d 50e8 b0bd
00000030: 380b 8a3d 29ca fdbc 6c60 01be d439 51bd
00000040: 19ac de3d 7c42 07bd e21a 313d 208f 95bd
00000050: 23e8 c1bd 0026 0dbd 9169 723c 79da 10bd
00000060: 24b6 99bd 26a4 dcbc 8f56 ea3d f7ef ec3d
00000070: f05c 0a3d 14df 863d ab51 d8bd d2c0 fd3d
0.07003574 0.054475073 0.0037928657 -0.12083622 -0.11635214 -0.021470914 0.112645 -0.038866233
0.09388464 -0.015085768 0.09355023 -0.0863806 0.06740421 -0.030980187 -0.12634438 -0.05108054
0.10872669 -0.03302239 0.043238528 -0.073026896 -0.09468105 -0.034460068 0.014795677 -0.0353646
-0.07505444 -0.02693374 0.11442291 0.11569207 0.03378004 0.065855175 -0.10562452 0.12390293

encoder.9.weight f4 [32, 32, 8]
00000000: f9b6 393c f82c 903d 6d39 4f3d 79cf 9e3c
00000010: 96ec 0bbd 2186 9d3d 9955 133c fcf4 a8bc
00000020: eeab f9bc 24e8 4a3d 2fdd fc3c 2cd4 06bd
00000030: 959b 0cbd d44d 9d3c 61ab 17bc 6c01 08bd
00000040: 29cf 80bd 8e95 08bd c03e 753c 1f7a 6bbd
00000050: 72a6 b3bc 0baa 2ebb 7a67 babc edc1 65bd
00000060: 1e2d 6b3d e23b 143d 1646 043d d298 1f3c
00000070: 474b 2b3c a289 4bbd 3763 64bb b1b3 80bd
00000080: 502f 80bc 072f 37bd 0476 903c 6284 11bd
00000090: 9b23 ff3c 8dee a63c 9641 70bd 51a2 1dbd
000000a0: 064c efbc ee0b f73b e917 fdbc dd33 7e3a
000000b0: 87cd 71bb 811f 44bd 366d 5dbd fa99 35bc
000000c0: fac5 51bc d7a9 79bb dad2 e33c 22ef 333c
000000d0: d053 8d3d ec70 d9bc c905 833d c338 2f3c
000000e0: 9d87 8ebd 1b82 52bd 10b2 6f3c 8c42 41bd
000000f0: 713a bd3c 0c5c 8dbd 0698 0dbd c82b 41bd
00000100: 4527 3ebc 3d89 b63d 8b30 0c3d 00a6 4e3d
00000110: 9b04 af3d 0430 703d d233 893d 5a12 803d
00000120: 56b3 20bd 2260 2cbd bf6d 1cbd 8509 b3bc
00000130: 0fd3 1e3c afed 4cbd 30a1 9dbc a858 28bc
00000140: e356 753c 8ff6 803d 7b69 703c 4a7f ff3c
00000150: 87eb de3b 8d6d 783d 8c96 d4bc f86f 9b3d
00000160: 0ffc a6bc 451f 5b3d 375f 4a3d 5e42 e13c
00000170: b204 883d 8fe7 443d 624d 823c 4b9c 6f3c
00000180: a4bc e33c ee4d 633d b5a7 a03d 5b97 983d
00000190: cc59 9f3d 31f4 e93c 9c27 aebc d352 f9bb
000001a0: 30fe 68bd 0272 49bd 1259 123d 7eb3 0e3d
000001b0: beef 503d b8ba 58bd c8af bfbc 86e2 453d
000001c0: 6913 883d 45df 21bc 0756 8d3b 4b01 533d
000001d0: 4a54 22bd c507 593b 9183 eebc 4a37 84bb
000001e0: 4626 963d abdd acbc 64c3 8ebc d623 283d
000001f0: 70e2 163d 760a 3739 96f9 9b3c b0d0 1a3c
00000200: 1acb be3d 9532 b73d c9f9 a23c 05ec 9e3b
00000210: 2eee aa3d 0e86 b13c ecce 32bc fd3e 2e3d
00000220: 6ae2 0a3d 5627 1b3d 3872 0d3c fae7 08bd
00000230: 6840 e0bc 3eda 47bd fa97 10bd b2a2 363d
00000240: 9902 bfbc e989 35bd 5eb6 9cbb cd7a 1a3d
00000250: 648e f7bb f8af 923b 7ec2 07bd 196a 66bc
00000260: 87ab ac3c 7535 e7bc 1f21 8d3c 0a9c b53c
00000270: 92a5 43bd 6668 ebbc 0a00 84ba 949b 77bd
00000280: 3ef2 40bc c05f 103d a59e 5cbc e1e4 5bbd
00000290: e310 d2ba d84d 31bd 416c 0a3d 740b 45bd
000002a0: 33f7 32bd 5041 843d 16b2 f0bc e776 44bb
000002b0: 7514 6d3d 1161 6ebd fb02 e23c dde2 37bd
000002c0: 33d7 863d 07a6 3fbc a823 1e3d a39a 3ebd
000002d0: 9902 4f3d c99a 5fbd 50a8 b63c da27 9f3b
000002e0: 9174 233c f167 f83c 1b8f 0bbd f8f8 75bd
000002f0: e71c 66bd 2ba4 27bb 1512 90bd bd74 45bd
00000300: a599 25bc 449d 41bd 9800 6bbb 395d 4abb
00000310: 5b60 43bb fc05 293b 2cbd 23bd e6a4 d6bc
00000320: 3f21 37bd d4c9 aabc 782b 683c e1e3 79bc
00000330: 522e 173d 2e84 cf3c 8658 3ebd 2a20 0abd
00000340: afef ac3d c36b 553d 6084 193d a009 a53c
00000350: b4f5 aebc 5ba5 233b f40c 333d 2dab 8a3d
00000360: 9faf 003d f268 dfbc f5a0 933c 7fe4 a33d
00000370: f349 d73c f0b6 a1bc fef8 353c 90f0 1e3c
00000380: 8ff1 b03c b250 cfbb 8428 4fbd d482 c43c
00000390: 0a70 54bd d454 d9bc a1ad 0f3d 9cee 393c
000003a0: 333f 823d a039 953d 622e 193d 9fdf d1bc
000003b0: cbf1 b73c 12cd bb3c 6a10 6b3d c0e8 4f3d
000003c0: d27c 5f3d 7d41 6a3d 3c20 56bd 02f7 15bd
000003d0: 0a76 a0bb a40e 55bd 9750 ab3c 5083 e1b9
000003e0: e127 b03d e796 44ba 3971 863d 5a50 c23d
000003f0: ffdd 64bc 6686 b53d d2e4 7cbc 477c a33c
0.011335128 0.07039827 0.050591875 0.01938604 -0.034161173 0.07691599 0.008992576 -0.02062463
-0.03047749 0.049537793 0.030867187 -0.032917187 -0.034328062 0.01920215 -0.0092571685 -0.03320448
-0.06289513 -0.03334575 0.014968574 -0.05748951 -0.021929953 -0.0026651646 -0.02275442 -0.056093145
0.057416074 0.03618992 0.0322934 0.009741025 0.010454959 -0.049691804 -0.0034849176 -0.062842734
-0.01564756 -0.044722583 0.0176344 -0.03552664 0.031144908 0.020377422 -0.058656298 -0.038484875
-0.029211055 0.007539264 -0.03089519 0.0009697059 -0.0036896185 -0.047881607 -0.05405923 -0.011084074
-0.012803549 -0.0038095617 0.027810503 0.010982307 0.069007516 -0.026543103 0.06397588 0.010694685
-0.0695946 -0.05139361 0.014629856 -0.047182605 0.023099156 -0.06902322 -0.03456881 -0.047160894
-0.011606042 0.08912895 0.03422598 0.05045128 0.085458 0.05863954 0.06699337 0.062535
-0.039233528 -0.042083867 -0.0381906 -0.021855125 0.009693875 -0.05003136 -0.0192419 -0.010275044
0.014974329 0.06297027 0.014673586 0.031188626 0.0068029794 0.06065135 -0.025950693 0.07589716
-0.020383863 0.053496618 0.04940721 0.027497467 0.066415206 0.048072394 0.01590604 0.0146246655
0.027799912 0.05549424 0.078444876 0.07450744 0.07780799 0.028558822 -0.021259122 -0.0076087504
-0.056883037 -0.049180992 0.035729475 0.034839146 0.051009886 -0.052912444 -0.023399249 0.048311733
0.06644327 -0.009879892 0.004313234 0.051514905 -0.039631166 0.0033116203 -0.02911547 -0.0040349113
0.07331519 -0.021101793 -0.017427154 0.0410498 0.03683704 0.00017456137 0.01903991 0.009449169
0.09316082 0.08945195 0.019894497 0.004849913 0.083462104 0.021670368 -0.010913592 0.04254054
0.03390733 0.03787931 0.008633189 -0.033424355 -0.027374461 -0.048792116 -0.035301186 0.044588752
-0.023316668 -0.044320974 -0.004782482 0.03771477 -0.007554816 0.0044765435 -0.033144467 -0.014063382
0.021077884 -0.028223732 0.017227707 0.022169132 -0.047765322 -0.028736304 -0.0010070812 -0.060451105
-0.011776505 0.035247564 -0.013465558 -0.053685073 -0.0016026761 -0.04328713 0.033794645 -0.048106626
-0.04369278 0.0645777 -0.029381793 -0.0029978098 0.057880837 -0.05819804 0.027589312 -0.044894088
0.06584015 -0.011697299 0.038608223 -0.04653419 0.050539587 -0.054590974 0.022297055 0.0048570456
0.009976522 0.030323 -0.034072023 -0.06005189 -0.056179907 -0.002558003 -0.07034699 -0.048207033
-0.0101074325 -0.04726912 -0.0035858508 -0.003087832 -0.002981207 0.002579092 -0.03997533 -0.026201677
-0.04470944 -0.020848192 0.01417052 -0.0152520845 0.03690941 0.025331583 -0.04647114 -0.03372208
0.084441535 0.052104723 0.03747976 0.020146191 -0.021357395 0.0024970386 0.043713525 0.067709304
0.031417485 -0.027271722 0.018021086 0.080025665 0.026280379 -0.019740552 0.011106728 0.009700909
0.02159956 -0.0063267583 -0.050575748 0.023988165 -0.05186466 -0.026529707 0.035077695 0.011348393
0.063597105 0.07286382 0.03739775 -0.025619326 0.022454163 0.022924934 0.0573887 0.050759077
0.054562397 0.05719136 -0.052276835 -0.036612518 -0.004896884 -0.052015916 0.020912452 -0.0004301318
0.08601356 -0.0007499293 0.06564564 0.09487982 -0.013968944 0.08863525 -0.015435414 0.019956721

encoder.9.bias f4 [32]
00000000: 03cd ec3c 3ac7 4c3c da37 aebd d1da 02bd
00000010: 3591 c1bd 6dec 0bbd b56d 87bc b0c9 e5bc
00000020: 60ef 83bd 5485 f4bc 94cd 18bd de9b 8dbd
00000030: 3b4a bebd 96fe 80bd 92e0 28bd 9a44 db3d
00000040: db51 903d 7790 a4bd c8de 37bd f1a5 3abd
00000050: 15b6 40bd b0c0 2cbd aac3 893d f0b8 71bd
00000060: 8ba1 8ebd 9c33 433d beb4 98bc 0f3a 5dbd
00000070: abdb 5abb 12ca af3c d05e e13b 50d4 a0bb
0.028906351 0.012498671 -0.085067466 -0.03194696 -0.09451524 -0.03416102 -0.016531805 -0.028050274
-0.064421415 -0.029848732 -0.03730543 -0.06914495 -0.09291502 -0.062985584 -0.041229792 0.10706444
0.07046863 -0.08035367 -0.044890195 -0.04556841 -0.047048647 -0.04217595 0.06726773 -0.05901426
-0.069644056 0.04765664 -0.018640872 -0.054010447 -0.0033395092 0.02145866 0.0068777576 -0.004908122

encoder.12.weight f4 [64, 32, 3]
00000000: 5b24 243d ae88 1c3c 92a6 f63d 468c 943d
00000010: 421f f83d ad37 013e 10f6 20bd ad5a 9fbd
00000020: 6cc5 473d 238b 02bd f848 20bc 8338 873d
00000030: dc4b f1bc db81 c8bd 30a4 cbbd 567a aebd
00000040: ce4f 06bb c77a 873d 0ebb c3bd 69f6 04be
00000050: 096d c0bc f025 05bc 8a03 0cbd 60db 923b
00000060: a081 90bc ebf4 88bd 95a3 9b3d 2085 1b3c
00000070: 901a 583d deaa a93d d00f 0b3d 604b 9ebc
00000080: 2774 05bd 5e5d 9d3c 02b2 833b d523 23bd
00000090: ee97 9c3d bf99 82bc c972 fabd 205c b4bd
000000a0: cfd7 8f3c cebb b4bc 6ad2 e1bd 4fcf e4bd
000000b0: 2035 e3bb 5a8c debc 132a 7f3d 6edc 593c
000000c0: 414e 993d d526 11bd cf33 5cbd d1d4 aa3d
000000d0: f676 efbd 59e9 a63c 3bc4 023d 27f6 a5bd
000000e0: aa18 22bd 4917 2fbc c48d 63bd 20d0 253d
000000f0: c442 c83d 6885 dfbd 5002 d8bd 763e b73d
00000100: f590 753d 8fef 0c3d 9523 933d 6fce 16bc
00000110: c458 11bd 3f81 f03c edfc 89bd 9702 973d
00000120: b81d fcbc 4b2a a3bd 4b87 2e3c a139 01be
00000130: 6921 c9bd 0206 34bd f534 78bc 1420 e9bd
00000140: 2c14 b2bd 03e3 c4bd f824 98bd 5e19 a83d
00000150: 3488 b73c df05 45bd 9323 d3bd 004a 443c
00000160: 107a 88bc 4411 a93d f412 573d 9480 b83d
00000170: 7094 e6bb 5bb6 b43d e835 52bd 992f 8abd
00000180: b182 c0bd 829b 0bbd dfc2 aebd 99e8 8a3d
00000190: 61e4 43bd 01da 05bd 4c34 ad3d 3ae8 e7bd
000001a0: 9427 ab3d 06d6 cd3d 3245 4d3d 206a 75bc
000001b0: 82f8 a7bd 794d a1bc c6d6 c53c 0803 dfbc
000001c0: 8c2d f03c ce3a 8bbd b228 4a3d 3f2a 8b3d
000001d0: 979f 8dbc 9ef8 bd3d a895 33bc 48d7 c1bd
000001e0: 83a8 d2bc 0178 ddbd dd17 fbbc 5df3 25bd
000001f0: 44cb c63d 94cc c6bd 2e5c 45bd 8e69 cd3d
00000200: 2938 12bc c631 a3bd 3726 b9bd 599b 8a3c
00000210: 7c9d c2bd 29bf 9c3d a5a3 37bc aa6c 9a3b
00000220: bb9a 923c d7aa bcbd ac34 8abd 7bd2 fe3c
00000230: a5bc e1bd 4560 19bb 0aad 353d ac04 49bd
00000240: a371 89bd 46c4 273d 9d93 7dbd 0a17 16bd
00000250: 2047 a43a bd17 97bd 6df9 20bc 289a a53d
00000260: 1252 8a3c 0045 d9ba a1d5 4fbc ae75 d5ba
00000270: 44f5 a1bb e865 883d bd26 81bd 0ac1 d2bd
00000280: 6400 a3bd baaa 2fbd ab29 cbbd 32eb 24bd
00000290: a786 96bd 42f8 5ebc 0469 cebc 3733 343c
000002a0: fe3f 61bc efb8 e9bd 9e42 643d 0235 053d
000002b0: 6fc0 92bc a7eb 35bd 64a3 4a3d e000 84bd
000002c0: f36c a4bd 0028 193d ff9e 593c 76b0 17bd
000002d0: 39c8 8a3d 5498 6939 486a 373d 00dd b4bc
000002e0: 2843 2a3c c0d1 97ba e8e0 783c 29cb c0bd
000002f0: a0a8 47bd 65a4 17bb 5673 ccbc 3266 9dbd
00000300: 22e3 04be 8f0d b0bd a825 a13c e805 afbc
00000310: 3cd3 b8bd e548 9bbd c820 b43c 0b48 8d3c
00000320: d22c eabc 3d80 5e3d 16df 3c3d 20c1 613b
00000330: 1dba 6bbd 9db1 4fbc ce71 f6bc 7fd7 2a3d
00000340: 90df be3c 85a5 af3d 7e41 94bd 69d2 a13d
00000350: 7136 ae3c 9e56 8f3d a074 2b3d 0090 883d
00000360: cfbb 3f3d 2cbe 993d 7054 893d 7431 b43d
00000370: 00b3 c23c 501e eabb 16af 5ebb f640 bb3d
00000380: 869e acbd 1e1c b03d c7f0 793c 8db9 183b
00000390: 2a33 a83d 5b22 a5bd e3ed 1abd 8a8e 9ebc
000003a0: 0eb7 07bd 8851 86bd d660 a1bc 9a9c 8e3d
000003b0: afd5 56bd a76a 33bd e72e 09bd d170 88bd
000003c0: 0a2d 8abd 515c 113d cdca 3fbd 20a0 af3d
000003d0: ac06 233d eb9a 16bd 9f79 4c3d 0b8c 4abd
000003e0: 1158 1bbd e62d 60bd df9a d83c 9489 07bd
000003f0: d23c 7dbd 9228 96bd 8fbd 803c 8ffe 80bc
0.040073734 0.009554071 0.120434895 0.072533175 0.12115337 0.12618895 -0.039297163 -0.07780967
0.04877226 -0.031870972 -0.009783022 0.06602576 -0.029455118 -0.09790393 -0.09943426 -0.085194275
-0.0020494345 0.06615215 -0.09557162 -0.12984623 -0.023489492 -0.008126721 -0.034183063 0.004481718
-0.017639935 -0.066873394 0.0759956 0.009492189 0.052759707 0.082845435 0.033950627 -0.019323051
-0.032581475 0.01920956 0.004019023 -0.039829094 0.07646166 -0.015942452 -0.12228925 -0.08806634
0.01755896 -0.022062209 -0.110264614 -0.111723535 -0.006933823 -0.027166534 0.062295984 0.013297183
0.07485629 -0.035437424 -0.053760346 0.08341373 -0.11692612 0.02037494 0.03192542 -0.081035905
-0.039574303 -0.010686704 -0.05555512 0.040481687 0.097783595 -0.10914117 -0.10547316 0.0894746
0.059952695 0.03440815 0.07184521 -0.009204491 -0.035485044 0.029358504 -0.06737695 0.07373541
-0.03077589 -0.07967051 0.010652374 -0.1261964 -0.098208256 -0.043951042 -0.015149345 -0.113830715
-0.08695254 -0.096136115 -0.07428926 0.082079634 0.022403814 -0.048101302 -0.103095196 0.011980534
-0.016659766 0.08255246 0.05250831 0.09008899 -0.007036738 0.08823844 -0.05132094 -0.0674736
-0.093999274 -0.03408385 -0.085332625 0.06782646 -0.04782522 -0.032678608 0.084572405 -0.113235906
0.08357158 0.10050587 0.050114818 -0.014978915 -0.08201696 -0.019690262 0.024150264 -0.027223125
0.029318593 -0.067983255 0.049355216 0.06795167 -0.017288012 0.092759356 -0.010960974 -0.0946489
-0.025715118 -0.108139046 -0.030651027 -0.040515292 0.097067386 -0.09706989 -0.048183613 0.100298986
-0.008924522 -0.07968478 -0.09040492 0.016919779 -0.09502694 0.076536484 -0.0112084495 0.004712661
0.017896047 -0.092122726 -0.067483276 0.031106224 -0.11022309 -0.0023403328 0.044354476 -0.04907672
-0.067111276 0.040958665 -0.061908353 -0.036643066 0.0012533404 -0.073775746 -0.009825093 0.080860436
0.016884837 -0.001657635 -0.01268521 -0.0016285682 -0.004942568 0.06660062 -0.06306217 -0.102907255
-0.07959059 -0.042887427 -0.09920057 -0.040263362 -0.07349902 -0.013608994 -0.02519656 0.010998539
-0.013748167 -0.114122264 0.055727594 0.032521255 -0.017914025 -0.04441419 0.049472228 -0.064454794
-0.08028593 0.037391663 0.0132825365 -0.03703352 0.06776471 0.00022277358 0.044779092 -0.022078037
0.010391988 -0.0011582896 0.015190341 -0.0941375 -0.048744798 -0.0023138758 -0.02495734 -0.07685508
-0.1297727 -0.08596336 0.019671276 -0.021365121 -0.09024665 -0.07582263 0.021988288 0.017246267
-0.028585825 0.054321516 0.04611119 0.0034447387 -0.05755054 -0.012676624 -0.030083563 0.04170942
0.023299962 0.08576492 -0.07239054 0.07901461 0.021266194 0.06998943 0.04185927 0.06668091
0.046809968 0.075069755 0.06705558 0.08798495 0.023766994 -0.007144727 -0.003397887 0.0914325
-0.084286734 0.08599113 0.01525516 0.0023303956 0.08212884 -0.080631934 -0.037824523 -0.019355077
-0.03313356 -0.065585196 -0.019699495 0.06963463 -0.05244988 -0.043802883 -0.033491995 -0.06662143
-0.06746872 0.03548843 -0.046824265 0.08575463 0.039801285 -0.036768835 0.049920674 -0.04944996
-0.037925784 -0.054731272 0.026441036 -0.03309019 -0.06182558 -0.07331957 0.015715389 -0.015746383

encoder.12.bias f4 [64]
00000000: 71bb b43d 0fee a0bc 350e 1ebe ff9d 853d
00000010: 39f6 18be 6d13 acb9 d4df dbbd 58a8 433d
00000020: dd9e 763d ce31 94bc 8a15 b2bd 0569 f6bc
00000030: 8b63 21be 3862 9a3d d499 c0bd 7964 05be
00000040: b44a d5bd 5ff9 9fbd 2636 a9bd 939f 53bd
00000050: 99cc aebd 2403 1abe c00a 08be a4d5 a6bc
00000060: e0ab 243d 47bd 8f3d d09b 03bd 5266 753d
00000070: 1d75 d63d 7d0c b5bd 4ed4 04be 1a11 643d
00000080: 403b 9fbd ed51 96bd c6c2 613c fb5a a2bc
00000090: 7f4b f6bd ea7c 97bd 5527 d8bd 7ea9 cd3c
000000a0: 3860 e93d 9163 1b3d 2fa0 c5bd 6f35 b63d
000000b0: d6d3 bf3d 9d7f a0bc 1ebe 1e3e 4aba 27bd
000000c0: 2023 a1bc f499 29bd a70a 943d 70bb 003e
000000d0: 1ae5 bf3d fa81 5d3d 6a8b 06be 0b19 b2bd
000000e0: b93f 1a3e db9a e83c aac7 a03d 9559 683c
000000f0: 34a2 e1bc 80cd edbd 5757 bdbd f6c8 403d
0.08824814 -0.019644765 -0.15435107 0.06524276 -0.14937676 -0.0003282087 -0.10736051 0.047767967
0.060210098 -0.018090155 -0.086955145 -0.030079374 -0.15760629 0.07538265 -0.094043404 -0.13026609
-0.10414639 -0.07811236 -0.08262281 -0.051665854 -0.08535118 -0.1504026 -0.13285351 -0.020365544
0.040202975 0.07018524 -0.032131016 0.059912033 0.10471556 -0.088402726 -0.12971613 0.05568037
-0.07774973 -0.07339845 0.013779348 -0.019818773 -0.120261185 -0.07396872 -0.10554377 0.025105234
0.113953054 0.03793675 -0.09649693 0.088969104 0.093665764 -0.0195921 0.15502211 -0.040949143
-0.01967007 -0.041406587 0.07228594 0.12571502 0.093698695 0.054079033 -0.1313912 -0.08696183
0.15063371 0.028394153 0.07850583 0.014181514 -0.027543165 -0.11611462 -0.092451744 0.04706665

encoder.15.weight f4 [256, 192]
00000000: 8556 10bc acb8 91bb 1d59 aa3c 371f 21bb
00000010: 235a a2bd 9e74 0cbb baef 4f3d 6a93 833d
00000020: 3ca4 f93c b7b7 0abc fadb 3b3d 1d74 8fba
00000030: f28c 453d 8c3a 4abc 1985 513d 2b4d b43c
00000040: 455e 6abd d9f7 56bd 4f3e 7b3d 0a50 84bd
00000050: 5c3d 133d e6ae 023d 6a71 f0bc 1702 97bc
00000060: 5c43 e5bc 3158 3bbc 3cbb 29bd 08f4 243d
00000070: 7320 92bb 99fd 83bd 2ddc 80bd 5372 d73b
00000080: 2c56 97bc 80a9 85bd bbae 143d 56f9 4d3d
00000090: 95f2 8a3d bd25 66bd e4cd adbc e8e3 983d
000000a0: 2264 ecbc e762 a03b e441 34bd f3be 363d
000000b0: 8825 7abd fec1 78bd 9c58 7fbc dd5a 82bd
000000c0: 3735 313d 21de a3bd 02f2 69bb 7546 0fbd
000000d0: 12be 983d 50ad 583d e23d 433d c621 9c3d
000000e0: a184 cf3c b1c8 27bd 7600 d93c 7a6d 85bb
000000f0: 0604 1ebd 21d0 68bb 0b8c 32bc 4237 663d
00000100: e4e5 fdbc fa35 6c3d a494 253d b706 a43a
00000110: d0e4 f5bb 1c62 553d ee97 c73c db49 ebbb
00000120: de69 19bd e9b5 a73b 3133 183d e144 70bd
00000130: 3613 aebc 51bb df3a 3098 73bc 939f 83bc
00000140: 1cab 8b3d 87b9 3dbd 7e73 813d 299f 1d3d
00000150: faac 88bc 5827 9dbc 12f0 01bd a94b 5b3d
00000160: 12e3 d63c c893 503c baa8 debc 940e 11bd
00000170: ae20 75bd 0ec0 2ebd 9931 74bd f9da 54bd
00000180: 9cdf a1ba 32ad f0bc 22c8 7bb9 98bc 8e3d
00000190: 7116 083d bab2 48bd e5b6 913d d513 f03c
000001a0: 4de9 383c fce2 503d ba0f cbbc 96e5 7c3d
000001b0: 9d96 71bc 3fa1 9dbc 1347 1a3d 62a1 7e3d
000001c0: fadc 983d 9125 75bc 1675 a8bc f0aa 8abd
000001d0: f1ea 933d 250e 21bc f718 7dbc 6653 bf3c
000001e0: d828 3ebd bcd4 04bd b89d 153d 02a3 30bd
000001f0: 7268 a4bd 83fb 703d f805 1bbd 7a48 eb3c
00000200: 3fd0 3e3d ca40 4c3d 4272 39bd 764b 41bd
00000210: 6cff 6c3d f523 8fbb 5620 7dbd 6ae4 0dbd
00000220: f6d9 1f3d fb27 4d3d d251 c73b 34e8 423c
00000230: 6d99 47bd 9ff5 333d 13ce 753b 722d 403d
00000240: 5d03 2fbc aa1a 023c 36bd 8838 fc56 293d
00000250: f1b8 2b3d ae6f f63c e56d cf3c 2c38 fdbc
00000260: 05f6 7ebd 797a 1b3c 09e7 96bc 7762 dc3c
00000270: 99df 133d 00ca 713d 7c67 e73a 713d 04bd
00000280: a35c 99bc 034b 62bd 758f 323d 9dd7 90bc
00000290: 67b9 2a3d 4534 8abd 9794 2fbd 9442 f23c
000002a0: 54db 4a3d 204c 2e3d b4ef c0bc cca4 723c
000002b0: c234 463d 95a5 debb 3d07 4cbc de83 30bd
000002c0: 8188 523d de7a 403b d143 7ebc f6fe 74bc
000002d0: 928e 363d 9e89 d73c 4003 5c3d 82cc 4b3d
000002e0: e044 653c 43dc 17bd 34e4 523d d2b8 fe3c
000002f0: d852 563d d1f6 c13c a80d 4f3d afa5 84bd
00000300: b3ae 7d3c 1e1f 913d 245d 9cbc dfbe 3abd
00000310: 6e37 dfbc fc23 943c 5b1d 9d3d d6f4 7f3d
00000320: 058b 043d 430e 16bd 7112 2bbd f100 f0bc
00000330: fe00 943d f175 3d3d 1065 43bd 83ec b13d
00000340: a7eb 7cbd d7dc 1abd a5e7 b43c cf29 313d
00000350: 1094 523d 14fe 5b3d a004 673d 9d0f dabc
00000360: a362 253d 0edc 883d e473 34bd 71c8 83bb
00000370: 2553 4abd bf47 46bd 8f26 8fbc 4e84 9d3c
00000380: 5f5b 2b3d a234 5cbd 8e39 af3c 094d 33bd
00000390: 27d7 cb3d 1bf9 f43a 7acd b83c 6529 b0bc
000003a0: 96fb 903c f073 f2ba 1140 c83c 2b4a ae3b
000003b0: 5789 b2bc bfdd 803d 4eb2 783d 2090 29bd
000003c0: 3351 b6bc b8d8 893d 4e5e d6bc 3297 d7bc
000003d0: c825 da3c 2d4e 13bd a534 dd3b 506f 913d
000003e0: 3a9d 3a3c 232e 893d c963 f93c dd50 c23b
000003f0: dad2 3c3d 1259 84bd 27f3 6b3d 448e 683d
-0.00880969 -0.0044470634 0.020794446 -0.0024585256 -0.079273485 -0.0021431814 0.05076573 0.064246014
0.03047382 -0.008466653 0.045864083 -0.0010944639 0.04823012 -0.01234306 0.051152322 0.022009453
-0.05721881 -0.05248246 0.06133872 -0.06460579 0.03594719 0.031905077 -0.029350955 -0.018433614
-0.027986221 -0.011434601 -0.041438326 0.04027179 -0.0044594347 -0.06444854 -0.06291995 0.006574908
-0.018473707 -0.0652647 0.03629945 0.050286613 0.0678455 -0.056188334 -0.02121634 0.07465345
-0.02885634 0.0048946026 -0.04400815 0.044615697 -0.06107095 -0.06073188 -0.015585091 -0.06364987
0.04326364 -0.08001352 -0.0035697226 -0.034979302 0.07458128 0.05289966 0.047666438 0.07623629
0.025331797 -0.04096288 0.026489478 -0.0040718885 -0.038578056 -0.0035524445 -0.010897647 0.05620504
-0.03099341 0.057668664 0.040424958 0.0012514208 -0.007504083 0.052095518 0.024364438 -0.007180435
-0.03745448 0.005118121 0.037158195 -0.058659438 -0.021249395 0.0017069374 -0.014867827 -0.016067302
0.06819746 -0.04631951 0.063208565 0.038481865 -0.016684044 -0.0191838 -0.03172309 0.053538952
0.026231322 0.012730546 -0.027180064 -0.035414293 -0.05984562 -0.042663626 -0.059617613 -0.05196664
-0.0012349966 -0.029379461 -0.0002401178 0.06969565 0.033224527 -0.048998572 0.071149625 0.029306332
0.011286092 0.05099772 -0.024787772 0.061742388 -0.014745382 -0.019241927 0.037665438 0.062165625
0.07464023 -0.01496257 -0.020563643 -0.06770885 0.07222546 -0.0098300325 -0.015447847 0.023355197
-0.04642567 -0.03242944 0.036527365 -0.043124206 -0.08027734 0.05883361 -0.03784749 0.028721083
0.046585318 0.049866475 -0.04527498 -0.047191106 0.057860777 -0.0043683 -0.061798416 -0.03464166
0.039026223 0.050086956 0.006082752 0.011896182 -0.048730303 0.043935414 0.0037506863 0.04691834
-0.010681954 0.0079409275 6.5202286e-05 0.04134272 0.04192442 0.03008255 0.025320956 -0.030910574
-0.06224634 0.009489649 -0.018420713 0.02690242 0.03610191 0.059030533 0.0017654742 -0.032285158
-0.01872093 -0.055247318 0.043593843 -0.017680937 0.04168072 -0.06748251 -0.042866316 0.029572763
0.049525574 0.042553067 -0.0235518 0.014809798 0.048390158 -0.0067946413 -0.012452898 -0.04309451
0.05139971 0.002937011 -0.015519098 -0.014953366 0.04456956 0.026310738 0.053714037 0.04975558
0.013993472 -0.037075292 0.051487163 0.031093989 0.0523251 0.023677262 0.050550133 -0.06476914
0.015483546 0.07086013 -0.019087382 -0.045592185 -0.02724811 0.018083565 0.07671615 0.062489353
0.03235914 -0.036634695 -0.041765634 -0.029297324 0.07226752 0.046255056 -0.047703803 0.08687689
-0.061748173 -0.037808266 0.022083113 0.043252762 0.051410735 0.053709105 0.056400895 -0.026618773
0.04037727 0.06682597 -0.044055834 -0.004021697 -0.0493957 -0.048408266 -0.01747444 0.019228127
0.041835185 -0.053761132 0.021389749 -0.04377464 0.099531464 0.0018689962 0.022558916 -0.021504113
0.01769809 -0.0018497687 0.024444612 0.0053189 -0.021794004 0.06292295 0.06071692 -0.041397214
-0.022255516 0.06730789 -0.026168015 -0.026317213 0.026629344 -0.035963226 0.0067506605 0.07101309
0.011390025 0.06698253 0.03044309 0.00593005 0.04609952 -0.06462301 0.057604935 0.0567763

encoder.15.bias f4 [256]
00000000: f0d5 a83d 4ff5 babd 2214 003d e2c9 4c3c
00000010: 6762 033d d3f9 823c 4762 253c a64b c9bc
00000020: 1232 a9bc 0101 403d 62bc 0dbc 98dd 8a3d
00000030: 2b0b b63d d650 653d 74c0 cb3c 91b1 bd3d
00000040: 8b42 cf3b 9de7 6d3d cb82 c63c 212e 0ebd
00000050: 4689 bdbc 0768 1abc 2d58 4f3d 1795 7abd
00000060: d2f6 f83c c02f 373d ec5d b43d 5102 143d
00000070: a707 b2bc 79ce a83c a66f 263d 73c4 46bd
00000080: 45b1 9c3d e7d6 213d f1c3 903b 08da 883d
00000090: a1bb a4bc 0352 ae3c ef9f 953d 00a4 d0b8
000000a0: 415b 983c a863 44bd 0bfb 64bd b363 8fbd
000000b0: 299e ed3c 6490 153d 5e43 55bd 51c6 8c3d
000000c0: 6a10 a8bd 7b48 34bd c0ae 8ebd 1905 fdbc
000000d0: ba04 1bbd a513 7dbd 4514 a93d 6883 a2bc
000000e0: 1880 7cbd ee9c 7bbb e4d3 073d 38e0 4d3b
000000f0: 6b70 78bd 1091 0f3d e1a8 a0bd b245 a83d
00000100: d11d 26bc 36e0 a23d c596 1ebd 2897 693d
00000110: 7221 b9bd 45ed 95bc 9358 a23d 1cb7 853d
00000120: d33b 17bd 16a5 debc a6ce 733d 9ee3 f53c
00000130: 11d0 5bbc 28a5 fbbb c2e0 f3bc bec3 8abb
00000140: 4477 e2bc 58e2 9cbd d538 743d 97ae 78bd
00000150: cf3c 7a3c 14a7 733c 40bb 883d 3558 993d
00000160: f9c8 46bc f1cd a5bc 9736 62bd ba27 4e3d
00000170: 5f24 af3b 29f9 8e3d 807a f1bb 0673 7dbd
00000180: 8032 4b3d c03b e0bb 1080 88bd a44a 5bbd
00000190: b7eb 8b3d 5fea af3d 8c5c 573d aeb9 bf3c
000001a0: c8aa f6bc ecb2 b7bd 153c 393d 404b 8b3d
000001b0: cc5f 0d3d e183 d4bc 5054 35bd 33f3 30bc
000001c0: db6e 1abd bedf 54bd f468 eb3c c93c 003d
000001d0: 5287 be3d 4bc1 9fbd 1b57 3abd dce0 893d
000001e0: 4d0a 71bd 6c7c 8e3c d57d 643d d109 88bd
000001f0: c954 c037 1812 afbd 8c8e 92bd f303 4f3c
00000200: 80c0 c6ba 4dd1 e93c 2948 903d b174 533d
00000210: 1c24 7b3d 923a 77bd 87fe 87bc e647 593d
00000220: f72b 7fbd 7a45 e8bc 468b 1bbd c2e3 0cbd
00000230: 5539 d53c ccfe cdbc 2954 5dbd 6206 343d
00000240: 64b6 243c a5bb 81bb 630a 913d b4a7 7dbd
00000250: 26db c8bd 6b63 933d 992e 89bc 31c5 dcbd
00000260: bdf3 27bd bb06 b13c 62c1 6e3d c455 a8bc
00000270: 9110 5c3c 73da 85bc dc59 423c 5661 903d
00000280: ad54 25bd 2605 8e3c ce44 9f3d 99e6 553d
00000290: d19b a13d ac13 8a3d d6be d6bc c341 6bbd
000002a0: 1e45 823c c868 d0bd be62 213d 56c2 9bbd
000002b0: 74d1 b83d d80e 9f3d 6b4e 993d 392e 31bd
000002c0: 72c6 a73c d722 1f3d 3e0b 9e3d 5041 7e3d
000002d0: ffb3 cabd 4bb1 e13d 2ce2 dfbc 13fa 49bd
000002e0: 8e73 3d3d 00a0 c33d 9b06 933d 62b9 80bd
000002f0: 714e 95bc 4e4f ce3c d2d5 15bd 7ffd 753d
00000300: 3a1a 7a3d a4ef 16bd 3ad0 823d 76cd 77bb
00000310: 5f4f 06be 2790 69bd 40cb 923c f898 233d
00000320: a464 5cbd a9c9 803d f336 8b3d 4063 3d3d
00000330: 45d7 733a 3777 d3bd 99a8 1e3d b724 223d
00000340: efb6 d1bc 5818 50bd 91cd 043d b1da e4bc
00000350: 0322 233d f221 9b3c 4072 c2ba acbb 503c
00000360: a574 5ebd b478 653c 5c0b 753d 88ff 1cbd
00000370: 4cfa a93c ca77 8dbd eb4a 483d 2b1d cc3d
00000380: 22fb 86bc 3c7e c43d 0d31 6f3d a1bf 163d
00000390: 3ab3 353d 030a 153d f959 79bd 58c6 90bb
000003a0: 02e7 b6bd 3367 2abd a563 5abc d1b6 cbbc
000003b0: 0106 aa3b ee05 1b3d 5711 563c 0254 343d
000003c0: 0a67 81bd 4f32 74bc 674c 583d 6c09 84bd
000003d0: df45 42bd 9580 a8bb 3576 3d3d 7864 573c
000003e0: 3b8f d0bc 51a7 2d3d f78d 80bb b90b 59bd
000003f0: 0545 ddbc a94b 983d 1bc5 80bd e21b 51bd
0.0824393 -0.0912882 0.0312692 0.0124993045 0.032076266 0.015988266 0.010094232 -0.024572205
-0.020653758 0.046875957 -0.008650871 0.06780547 0.08888849 0.055985294 0.024872042 0.09262384
0.006325071 0.05808221 0.024232289 -0.03471196 -0.023136746 -0.009424216 0.0506212 -0.06117734
0.03039113 0.044723272 0.08806977 0.03613502 -0.021732165 0.020606266 0.04063382 -0.048527192
0.07650999 0.039511587 0.0044178893 0.06682211 -0.020109 0.02127934 0.073058955 -9.94876e-05
0.0185982 -0.047946602 -0.055903476 -0.07001438 0.02900608 0.036514655 -0.0520662 0.06873763
-0.08206256 -0.044014435 -0.06966925 -0.03088622 -0.037846304 -0.061786313 0.08255819 -0.01983805
-0.061645597 -0.0038393098 0.03316106 0.0031414162 -0.060654085 0.03505045 -0.07844711 0.08216418
-0.010138945 0.07952921 -0.038718004 0.05702892 -0.09039582 -0.018301615 0.079270504 0.06529066
-0.036922287 -0.027178328 0.059523247 0.030015763 -0.013416306 -0.0076796003 -0.029770259 -0.00423476
-0.02764476 -0.07660359 0.05962451 -0.060713377 0.015273287 0.0148713775 0.0667634 0.07487527
-0.012132877 -0.020239802 -0.055227842 0.050330855 0.005344912 0.06981117 -0.0073693395 -0.061877273
0.049608707 -0.0068430603 -0.06665051 -0.05353798 0.068320684 0.085896246 0.052578494 0.023403969
-0.030110732 -0.089696735 0.045223314 0.06801462 0.034515187 -0.025941791 -0.04426986 -0.010800171
-0.037703376 -0.05197119 0.028736569 0.03130797 0.09303154 -0.078005396 -0.045493226 0.06732342
-0.058847714 0.017393313 0.055784065 -0.06642497 2.2927665e-05 -0.08548373 -0.07156095 0.012635219
-0.0015163571 0.028542185 0.070450135 0.051624957 0.061313733 -0.06035859 -0.01660086 0.053047083
-0.062297788 -0.028353442 -0.03797462 -0.034396894 0.026028315 -0.02514591 -0.05403534 0.0439514
0.010053251 -0.0039591365 0.07082059 -0.061927512 -0.09807424 0.07196697 -0.016745852 -0.10779799
-0.04100393 0.021609655 0.058289893 -0.020548709 0.013431684 -0.016339516 0.011862244 0.07049815
-0.040363956 0.01733644 0.07776795 0.05222187 0.07891048 0.06742033 -0.026214045 -0.057435762
0.015902098 -0.101762354 0.03940081 -0.07605426 0.09024325 0.07766503 0.0748566 -0.043256972
0.020480368 0.038851585 0.07716988 0.062074006 -0.09897613 0.11020144 -0.027329527 -0.049310755
0.04625278 0.09552002 0.07178994 -0.06285359 -0.01822588 0.0251843 -0.036580868 0.060056206
0.061060168 -0.036849633 0.06387372 -0.0037811673 -0.13116215 -0.05702224 0.017919183 0.039940804
-0.053806916 0.062884636 0.0679759 0.04623723 0.0009301792 -0.10325473 0.038735006 0.039585795
-0.025599925 -0.050804466 0.032422606 -0.027936311 0.039827358 0.018937085 -0.0014835075 0.012740057
-0.05431046 0.014005829 0.059825286 -0.03832963 0.020749234 -0.069076136 0.048899572 0.09966501
-0.016477171 0.0959439 0.058396388 0.036803845 0.044360377 0.0363865 -0.06087682 -0.0044181757
-0.0893078 -0.041602325 -0.013329421 -0.024867447 0.005188704 0.037847452 0.013065658 0.04402543
-0.06318481 -0.014904573 0.052807238 -0.064471096 -0.047429916 -0.0051422813 0.04625531 0.013146512
-0.025458923 0.042395893 -0.0039231735 -0.052989695 -0.02701045 0.07436306 -0.06287595 -0.05105198
