dump/source_encoder_cwru_cua.pt (torch, 284865 bytes, 12 tensors)

encoder.0.weight f4 [8, 1, 32]
00000000: 2ece b9bd a222 063e 9cf4 de3d 203d 55be
00000010: d858 42be adea f13d 966c 563e c7c3 57bd
00000020: 9699 143c abf2 1b3d aa50 3c3e f17e 673d
00000030: 07db 39be b49c e8bc 9cda 913c 9f02 90bc
00000040: 0e79 123e 0aa7 8e3d 3703 8f3d 92a4 f03d
00000050: ae2c 403e 4b9c 323e 626a 49be 6ea9 15be
00000060: 37b8 513e 7794 3dbd b988 1ebe 12c5 efbd
00000070: f32e 273e 5369 653e 4570 193c 25ab 18be
00000080: 63f6 c5bb 91e1 0d3e 9920 27be 787b f7bd
00000090: 92d2 f93d d7aa 3a3e cc3c 48bd cf5a 8abd
000000a0: 3ea6 5fbd fe77 4e3d 22b9 a83d b7f1 4abe
000000b0: 4ce9 283e 4317 5d3e 9562 ddbd f7b1 59bd
000000c0: 8c93 0e3e 3891 dc3d f32a 053e 04be 6bbe
000000d0: fb84 e7bd 72c7 743e 935a 513e 2f9e 48be
000000e0: d6b6 94bd 1e03 313e 3eab da3d f2a4 d6bc
000000f0: 3ed1 6bbe ba05 4f3e db55 a8bc e4ca b93d
00000100: ef07 ecbd 3f39 933c 4f2d 123e c9b1 2ebe
00000110: b2df 6abe 11ed 3cbd 6dab babd 5c9c e03c
00000120: 5a20 25be dd89 363d 21ed 10be 3d59 3fbe
00000130: 2ef7 bd3d 666d a3bd 4b01 98bd 8f82 2c3e
00000140: cd50 6d3c 96cc 26be 14de a0bc 0477 5e3d
00000150: 6912 efbc c194 3bbe eafc 233e 8d4a 5f3e
00000160: c9e2 053c 3ecd ad3d 7c24 f0bc 3fa4 4b3e
00000170: faa0 d2ba 2d00 cdbd 4723 b93d a994 89bc
00000180: c630 41bd 9eeb 19be 94b5 353e 8588 293d
00000190: 1e0a cf3c 4669 453d bbe9 6a3e 8b5e 2f3d
000001a0: c6ca 59be 0b90 e83d 7a90 4cbd 08bb cfbd
000001b0: 3575 a1bd 8e8a f93d 528e dbbd ec97 0b3e
000001c0: 8db5 01be 6218 01be 3f6c 8d3d 0131 fd3c
000001d0: f22d b93d 70af 1abd e6fb 4ebd b476 603e
000001e0: a1f3 783d 7043 5dbe 90d1 8c3c 080f 6fbd
000001f0: 701a 9abd 5fb7 58be 1062 393d af69 fd3c
00000200: 1539 a7bc 9e66 3fbd 347b d83d d249 533e
00000210: dd01 c23d d5fa 9d3d 0485 3cbe ace7 213e
00000220: ccc2 f9bd 750d 42be 0861 f83d df05 a13d
00000230: 09cf 02be 3238 54be da2b ae3d 6c53 f3bc
00000240: 4c0b 23be 5cf3 70bd 9921 8bbd 006f 14bd
00000250: 3ffb 58be 4662 97bd c99b 5c3c ed6a 58be
00000260: c6ab 17be 87fa b63d afe0 0a3e f111 99bd
00000270: e243 103d 8e37 ac3d 38f8 b0bd a5ff ec3d
00000280: 0e47 97bd a6d8 963d 84bd 8bbd b463 77be
00000290: 4f97 0b3e 9671 6b3e 5c03 4bbe 67fd f33d
000002a0: d867 2d3c 093a 0bbe 358e 2d3d 59de 893d
000002b0: be3a d93d 10f0 bdbc b814 02ba 19a8 363e
000002c0: 5448 37be 42d0 6a3c b657 143e c0eb 42be
000002d0: e098 13bc 00a3 fa3d b5c0 2a3e 6d75 b5bd
000002e0: 9ff2 eabb 2812 093d c7ec b53c 280f bfbb
000002f0: 12c7 1bbe e74c cdbc d096 ab3d abe8 23be
00000300: d671 083e cae4 563e 963a 86bd ce25 dabd
00000310: 8315 183d d949 a83c eaa0 00be eff3 05be
00000320: b38e d5bd efaa 073e 4ea3 b4bd aa50 90bc
00000330: 855d ad3d 0146 4f3e 6b76 903d 6e90 03bd
00000340: 2643 693e 29f1 033e 9258 6fbe d9ed d6bd
00000350: 5aaa 9e3d 4412 e13d b7c4 cbbd ebab 62bc
00000360: 7f6d 223e 798e f1bd df1a 1fbd 4dd3 563e
00000370: c4e3 923d eb2c 39be 6e99 01be ed6a e23d
00000380: 13d1 633d e61d 253e d970 693e c090 2dbe
00000390: b5e6 07be 0704 a33d 4da7 5e3e 9f9f 0bbe
000003a0: eaf0 303d 550e 0c3e 7626 5abd bc2c f4bd
000003b0: 73c9 99bd 680f 1ebc 72c9 443e ac9a 13be
000003c0: bf66 87bd e8af 6c3e b0ee f3bd 97de 83bd
000003d0: 2e39 33be 50bc b93d 15b4 023e 96d8 f2bd
000003e0: 4c2e 533e 11f0 143e ed4c 15be 93ea 14be
000003f0: c3be b73d 7c6a 113e 140b 163e 1596 243e
-0.09072529 0.13099149 0.10886499 -0.20824099 -0.18979204 0.11812339 0.2093986 -0.052676942
0.009069821 0.038073223 0.18390146 0.056517545 -0.18149959 -0.028395034 0.017804436 -0.017579375
0.14303991 0.06965454 0.06983035 0.11750139 0.18767044 0.17442434 -0.19669488 -0.14615414
0.20480429 -0.046284165 -0.15481843 -0.1170751 0.16326503 0.22403459 0.009365146 -0.14909036
-0.0060413345 0.13855578 -0.16321029 -0.12084097 0.12198366 0.18229233 -0.048886105 -0.067556016
-0.0546019 0.050407402 0.08238436 -0.1981877 0.16495246 0.21590905 -0.10809819 -0.053148236
0.13923472 0.10769886 0.13004665 -0.23021704 -0.11304661 0.23904207 0.20444708 -0.19591592
-0.07261436 0.17286345 0.10677193 -0.026201699 -0.23029038 0.20217028 -0.020548752 0.090719014
-0.11524951 0.017971633 0.14275096 -0.17060007 -0.22936895 -0.04612452 -0.09114728 0.027418308
-0.16125622 0.04456507 -0.14152957 -0.18686385 0.092756614 -0.079798505 -0.074221216 0.16846679
0.014484596 -0.16288981 -0.019637145 0.05431272 -0.029183583 -0.18318464 0.16014448 0.21805783
0.008171746 0.084864125 -0.029314272 0.19886874 -0.0016069703 -0.10009799 0.09039932 -0.01679452
-0.047165655 -0.15031287 0.17745048 0.04138996 0.025273379 0.0481961 0.22940724 0.042814773
-0.21268758 0.11355599 -0.04994247 -0.10143095 -0.078836836 0.1218463 -0.10720505 0.13632172
-0.12666912 -0.12606958 0.06905412 0.030907156 0.090419665 -0.037764966 -0.050533198 0.21920282
0.060779218 -0.21607757 0.017189771 -0.058363944 -0.07524574 -0.211637 0.045259535 0.030934183
-0.020412961 -0.046728723 0.10570374 0.20633629 0.09473012 0.07713858 -0.18410116 0.15811032
-0.12195358 -0.18950446 0.12127882 0.07862448 -0.1277429 -0.20724562 0.08504458 -0.029702865
-0.15922278 -0.058825836 -0.067935176 -0.03623867 -0.21189593 -0.07391791 0.013464876 -0.21134539
-0.1481162 0.08934503 0.13562272 -0.07474125 0.035220988 0.08409034 -0.08641094 0.11572198
-0.073865995 0.07365541 -0.068232566 -0.24159127 0.13631938 0.22992548 -0.198255 0.11913567
0.01058384 -0.13596357 0.042371947 0.067318626 0.10606907 -0.02318576 -0.0004962194 0.17837562
-0.17898685 0.014331879 0.14486584 -0.19035244 -0.009008616 0.12238121 0.16675074 -0.08860288
-0.007170036 0.03346458 0.02220763 -0.005830664 -0.15212658 -0.025061084 0.083783746 -0.16006725
0.13324675 0.20985714 -0.06554143 -0.10651742 0.03712989 0.020543026 -0.12561384 -0.13081335
-0.10427608 0.132488 -0.088202104 -0.017616589 0.08465103 0.20241548 0.070538364 -0.03212016
0.22779521 0.12884964 -0.2337363 -0.104945846 0.07747336 0.10989812 -0.0994963 -0.013834934
0.15862082 -0.11794753 -0.038843986 0.20979042 0.07172349 -0.18083541 -0.12656185 0.11055551
0.05561931 0.16124687 0.22796954 -0.16949749 -0.13271601 0.079597525 0.21743508 -0.1363511
0.043198504 0.13677342 -0.053259335 -0.11922595 -0.075091265 -0.009647228 0.1921747 -0.14414471
-0.06611394 0.23113978 -0.119107604 -0.0643894 -0.17502281 0.09069121 0.12764008 -0.11857717
0.2062313 0.14544703 -0.14580126 -0.14542608 0.08971932 0.14200777 0.14652663 0.16072877

encoder.0.bias f4 [8]
00000000: de8f 843d 9e2f a33d 30dd c0bd d73c 04be
00000010: 595f 1f3e 2c38 17bd 1cba 363e 905b 8b3d
0.06472753 0.07968067 -0.09417188 -0.12913834 0.15563716 -0.036918804 0.17844433 0.068045735

encoder.3.weight f4 [16, 8, 16]
00000000: 7471 b13b c0af 53bb a47f 353d 2d54 bc3d
00000010: 23d8 983d d7c2 b23d 4f27 50bd f8d0 d93c
00000020: 3177 a83d 3264 973d a533 60bd 8b2a 37bd
00000030: 2cae 9e3d 48dc 5bbc 3380 79bd 4bff bdbd
00000040: 4cad b83d ad33 06bd 6e7e 89bd 288f c73d
00000050: 64f0 ab3d af52 ff3c acf0 13bd fc5c a6bb
00000060: 57f8 f4bc f799 643d e3f3 e23a 4425 b5bc
00000070: 0deb f43c 804e a73d f79d 3bbd 1a64 6bbd
00000080: af1e d13d 8840 b73d 893b bc3d 2251 cd3d
00000090: 8c81 df3d 6e98 fa3b a613 8dbc 18b5 fb3c
000000a0: 0108 853d 8a06 a93d b585 fe3c bc56 813d
000000b0: 4be4 f03a 6447 98bc 4f48 8c3d 481c 11bd
000000c0: 677b 053e 6f00 c83c dddc 703c e2f6 ed3d
000000d0: 3614 553d c3ea a33d 539a b83d f88b 093e
000000e0: 2bf5 f13d f358 063e 7e13 2f3c 4679 803d
000000f0: 9292 13bd 8732 4a3d 655c ec3d c07e ea3d
00000100: 7b97 1d3d 91bb ac3c 8f1c 793d d20c a03d
00000110: 2855 19bd 5d6f 843d e2cd 38bd 5f40 51bd
00000120: 0885 b6bc 7649 373d 90b8 b6bd 9748 58bd
00000130: 6469 183d 26dc 433d 0737 adbd 601e b4bd
00000140: a398 e53d 88d6 d6bc 5f56 223d c7f3 e53d
00000150: 5908 a03d bb57 323d 97d5 65bc 0239 3cbd
00000160: 1977 e9bc 62ad b43c 2827 34bd c602 ca3b
00000170: 8f02 da3d 4d5b 6b3d bc42 b63c ab4a a83d
00000180: 624b 60bc c9e7 39bd 3014 573d 36e9 ec3c
00000190: a962 6cbd db86 293d 669d 7dbd 05c7 f83c
000001a0: a8d0 9d3a 3f52 953d 9d1e 8c3d ce64 823d
000001b0: d6bb 76bc 831b 83bd a459 54bd 240a 0bbd
000001c0: a317 8d3d 403e 913d da89 6abd d563 53bd
000001d0: c019 b43d a473 67bd 7a51 943c 55b8 2dbc
000001e0: 106f 77bd 1cd5 53bc 9edc 08bd 2768 ad3d
000001f0: 5442 053d 77ca 7ebd ec23 2a3d cd6f 4d3d
00000200: eb67 a73d dd56 bb3c 3413 b73d 9bec 503c
00000210: cd68 d13c 479f 083d d9a4 df3d ac01 913d
00000220: 9812 193d b118 4a3d a364 88bd 7267 943c
00000230: bba9 b23d 1027 ac3d e218 8b3d 818c 4cbd
00000240: 308f 073d 525e b73d 7200 e3bc 8f5c c33d
00000250: 6b31 c23c 51db c73d 6087 51bd 179b 7dbc
00000260: 78ef 133d 158d 43bd 5e35 94bd 16f6 93bd
00000270: dc4c a53c 3b6c d63d 98a4 293d b7af bb3d
00000280: 365b c53d 49f5 ab3d 58be 1a3c bec5 653d
00000290: 741b c13d cdba c13c 678c ff3d bf5e 293d
000002a0: 459f ce3c 83b0 ea3c 8cdf 543d 7e9b f13d
000002b0: 1873 3abc e2b8 a43d ecdc 203d ec81 0d3e
000002c0: 7e37 1f3e 44b3 1d3e abc0 1b3d 3a85 a13d
000002d0: 3cb7 cc3d fec4 3b3d 2d6f 973b 55b6 073e
000002e0: 0fa6 d83d 6304 bc3d ab3c e03c c311 063e
000002f0: 40ec b93d f5ef d23b 7343 193e c357 4a3d
00000300: c7b3 ab3d 073e 20bb 7997 533d 782d e0bc
00000310: b2df b23d 8150 9d3c 6254 9f3d 9085 8f3d
00000320: dcd8 d2bc e5ee b8bd 2a9f 99bd 661a a5bd
00000330: 7bf5 5dbd 4959 1bbd c605 c13c 2ebf 90bd
00000340: 8ad8 123e c34d 173e 7612 713d c602 e83d
00000350: 2fe9 803d 0c8e 753d 9b6c 103e 23d9 b83d
00000360: 46e0 6c3d e693 bb39 c2cc 19bb 4356 ba3c
00000370: 2b71 9b3d 89d9 9f3d 13e0 9d3d 2345 07bd
00000380: a1a8 bcbc ed3a 043d d47d 51bd 52ba bdbc
00000390: 86a2 793d 41eb 413d 0fd6 3c3d 167f 9a3d
000003a0: c176 7ebd eee3 923d 76ec 8bbd d49c 843d
000003b0: caf6 25bc ca39 1dbd 13d1 983c 4b72 713b
000003c0: 7584 9e3d ec56 7abd f58f 50bd 17cb 333d
000003d0: 66b3 70bc fb69 633c 0b1d 883c b65d c4bc
000003e0: 62b1 7abd 4a42 393d 29b2 bb3d d7e8 473d
000003f0: d6c3 c93d 1bdf 86bc 0de9 4a3c 0120 403b
0.005415136 -0.00323008 0.04431118 0.09195743 0.074631 0.08728569 -0.050818738 0.026588902
0.08225859 0.073921576 -0.054736752 -0.044718307 0.077480644 -0.013419218 -0.060913276 -0.09277209
0.09017429 -0.032764126 -0.06713568 0.09744102 0.0839546 0.031167356 -0.036118194 -0.0050770026
-0.029903574 0.055810895 0.0017315116 -0.022112496 0.029897237 0.081692696 -0.045804944 -0.05746851
0.102109306 0.08947855 0.09191043 0.100252405 0.10913381 0.0076475656 -0.017221283 0.030726
0.06495667 0.082532 0.031069616 0.063153714 0.0018378583 -0.01858873 0.06849729 -0.03542736
0.13035356 0.02441427 0.014701095 0.11619355 0.052021228 0.080037616 0.0901381 0.134323
0.1181434 0.13119869 0.0106858 0.06273131 -0.036028452 0.049364593 0.1154106 0.11449957
0.03847454 0.021085532 0.06081825 0.07814945 -0.037434727 0.06466553 -0.04511822 -0.05108678
-0.022280231 0.044747792 -0.08921921 -0.052803602 0.037209883 0.04781737 -0.08457761 -0.08794856
0.11210754 -0.026225343 0.03963315 0.112281375 0.07814092 0.043540698 -0.014027975 -0.045952804
-0.028499173 0.022055332 -0.043982655 0.0061648814 0.10645019 0.057460118 0.022248618 0.08217367
-0.013689848 -0.045387063 0.052509487 0.028919797 -0.057711277 0.041388374 -0.061917685 0.030368337
0.0012040334 0.07291078 0.068417765 0.06366883 -0.015059432 -0.06401732 -0.0518433 -0.033945218
0.06889274 0.07091951 -0.05726037 -0.05160888 0.08793974 -0.056506768 0.018105257 -0.01060303
-0.06040865 -0.012929227 -0.033413522 0.08467131 0.03253396 -0.062204804 0.041538164 0.05015545
0.08174118 0.022868568 0.089392096 0.012751724 0.025562668 0.033355024 0.10920114 0.07080397
0.037371248 0.049339954 -0.0665982 0.018115733 0.0872378 0.08405888 0.067918554 -0.049938682
0.03309554 0.08953537 -0.027710173 0.095391385 0.023705205 0.09758628 -0.051154494 -0.015478871
0.036117047 -0.04774197 -0.072367415 -0.072246715 0.020178251 0.10469862 0.041416734 0.09164374
0.09636538 0.08396394 0.009444796 0.056096785 0.094290644 0.023648644 0.124779515 0.041350123
0.02522243 0.02864862 0.051971003 0.11797236 -0.01137998 0.08043076 0.039273188 0.13819093
0.15548512 0.15400416 0.03802554 0.07886739 0.09995887 0.045842163 0.0046214075 0.13253148
0.10578548 0.09180524 0.027372679 0.13092713 0.09078264 0.0064372965 0.14967136 0.049400102
0.08383899 -0.0024451034 0.051658127 -0.027365431 0.08734073 0.019203426 0.077797666 0.07007897
-0.025738172 -0.090299405 -0.07501061 -0.08061676 -0.054189187 -0.037926946 0.023562323 -0.07067715
0.14340416 0.14775757 0.058855496 0.11328654 0.06294476 0.05994992 0.1410393 0.090257905
0.05783107 0.00035777612 -0.0023467992 0.02274621 0.075899445 0.078051634 0.077087544 -0.03302492
-0.023029627 0.03228276 -0.05114539 -0.023160134 0.06094601 0.047343496 0.04610258 0.07543771
-0.06212497 0.071723804 -0.06832211 0.06475225 -0.01012964 -0.03838519 0.018654382 0.0036841806
0.07740108 -0.06111805 -0.050918538 0.043894853 -0.014691209 0.013880248 0.016615411 -0.023970466
-0.06120432 0.045229234 0.09164841 0.048806038 0.09851806 -0.016463807 0.012384665 0.002931595

encoder.3.bias f4 [16]
00000000: 0c11 6bbd 4a9e 3dbd 2533 e53d f98b 1dbd
00000010: d101 fe3d 78ca 0c3e 0645 b6bd 3c36 993c
00000020: 642f 993d 6880 ed3c c27f ac3d 71bc ecbd
00000030: 1f81 dabd 0a0b a5bd 37fd b6bd 9e17 aebb
-0.057389304 -0.046293534 0.11191396 -0.038463566 0.1240269 0.1374911 -0.08899884 0.018702619
0.07479742 0.028991893 0.08422805 -0.1155938 -0.10669159 -0.08058746 -0.08935016 -0.005312874

encoder.6.weight f4 [32, 16, 8]
00000000: fd3f e83c 0a1a d1bd b60d cb3b bed1 b33c
00000010: 73b7 833d 52b7 ecbc c1cb 903d f323 633d
00000020: 19cd babd 3b25 59bd 8680 4abd 8852 bd3d
00000030: 54df 70bd f8b7 73bd e74a a83d 3c70 1a3d
00000040: e121 813d 2d02 9dbd 4ee2 143d 3ede b53d
00000050: 78e2 cf3c 6f2a 24bd 6976 2cbd 5c9a 27bd
00000060: 4979 15bd 6e1a dabc e1a4 4cbd 83f5 87bd
00000070: c860 c23d 7a11 1f3d d3fe 183d 81c8 ef3c
00000080: efe6 0cbd b5fa a73d c0d4 cebc fe0d a4bd
00000090: 8de6 9dbd de4d 7ebb 1031 83bd b5bc b73d
000000a0: 8eeb a73d 9dce 40bd e8fd 8d3d 2ac0 51bd
000000b0: 353f 48bc 19d9 c3bc d475 15bd 676e 4e3d
000000c0: f725 0b3d 176b ec3c fa5e 8e3b 733e f73c
000000d0: f741 f33d 6a9d 3c3d 0e11 ad3d 4985 d03d
000000e0: 815b 073d 9a8c 953b cccb 25bd 2392 9bbd
000000f0: dfd4 723d 6c31 233d 905f 2a3d 6c94 e1bc
00000100: 0ab1 f6bc 7ad5 c6bd 1fd8 43bd 59cd 65bd
00000110: 4bdc 923d 6b27 c93d 6737 943d b01a ba3d
00000120: d690 363d 4a3a 81bd 48d6 81bd fe99 5abb
00000130: ca01 0c3d e3a1 123d c9c5 fc3d f001 ee3d
00000140: c6b9 823d 4a51 b3bd 7a91 74bd 01c3 15bd
00000150: aa06 883d 1f8b 653d 2068 4dbd 68bb 70bd
00000160: 2795 75bd 03d7 cebc e6f7 fd3c 011e 6abd
00000170: c458 ca3d e3b1 b63c 5dc4 de3d fe77 083d
00000180: 687a 7abd b53c 023d e694 343a de05 18bd
00000190: 4e31 c73d b4a5 16bd b54e 16bd 5e45 003e
000001a0: 2c40 9b3d 62a4 a6bd 42a5 023c 33c2 8bbd
000001b0: 0f80 18bd 2e95 8a3d 4836 2c3d 0dee 1e3d
000001c0: d7eb 633d 1ec1 293d 2dd4 5bbc f257 d1bc
000001d0: b842 dabb 9c23 d9bc 35fd f93d b5d0 7dbc
000001e0: 66bd 84bc a037 94bd 9662 423d e86c b33d
000001f0: 95ef f93d 9500 843d 401c 883d 17ab 783d
00000200: 54e9 133b 002c 79bd b1e2 c93c 9a2c efbc
00000210: 8018 193d 15d2 fe3c d4b4 b63d 15f9 24bd
00000220: 9798 9d3d 5f88 0bbd 14e4 9cbd 23ab 7abd
00000230: 6472 b5bc d214 93bd a49f 56bd 5bc6 ddbc
00000240: 7b4b 613c fdb4 cd3d 6553 8a3d c55a 26bb
00000250: 9101 bc3d 7766 ed3d 018f fcbc 090f f03d
00000260: 0b6d 48bd e6a0 a93c 0c1b 9c3b 83c7 7b3d
00000270: d4bc 893d 9f25 bdba cc07 50bc eeb8 b63a
00000280: d303 b93d 8a1f db3d 35eb 0fbc f613 de3d
00000290: 2195 23bc b9fc fa3d a9f9 99ba 2ee9 cf3d
000002a0: 8ae5 db3d 3df0 f63d 2ea4 d2bb b583 1bbd
000002b0: f04c a33d 03c0 823d 9117 613d d398 7e3d
000002c0: 778a 17bd 957c 20bd 45bb a6bd 08a7 243d
000002d0: d4db b5bd 14c3 a4bc ad20 9d3d 8d66 87bd
000002e0: 2943 aabc 9a15 573d e5b8 193c 02c9 d33d
000002f0: b3b6 8d3d 16c0 56ba 18bc 783d b818 943d
00000300: 1111 29bd f36d b43d 8049 a03c 7536 ac3d
00000310: 8c7d 983d 4e44 473d 5f16 613c 3417 fa3d
00000320: 156b 0fbd 3752 963d 1f77 753d c956 91bd
00000330: 8566 36bc df97 88bd c11d b2bd e511 8d3d
00000340: a3af 1ebc fa7c 9b3d c3f0 57bc 33c4 b93d
00000350: 2263 103d eb95 0fbd 9a9f 54bd bc62 8f3d
00000360: 0638 bbbc 0224 06bd 511a de3c 26ae 9fbd
00000370: 8211 733c ad91 acbd 8962 21bd 9617 39bb
00000380: 9994 ef3c 6e72 a2bd 1867 a2bd 1216 6fbc
00000390: b532 a9bd add1 803d 9866 67bd 2201 9f3d
000003a0: 49c7 a3bd b157 a43d 3cc9 993d 6236 643d
000003b0: 5845 efbc c3f5 06bc 1ed8 9bbd c077 0cbd
000003c0: 0e71 1c3d d17a a0bd c6f5 75bc 2294 b33d
000003d0: 676e 6b3d a4bd 723d aff5 5b3d cec7 d2bc
000003e0: 3d3d 723d a2c7 233d 1089 2c3b e58f 5c3d
000003f0: 84d9 0c3d f822 f1bb 358b 893d c66c 96bd
0.028350824 -0.10210045 0.006196703 0.021950599 0.064314745 -0.028896008 0.07070113 0.055454206
-0.091211505 -0.05301402 -0.049438976 0.09244257 -0.058806732 -0.05950162 0.082174115 0.03770469
0.0630529 -0.076664306 0.036348633 0.0888028 0.025376543 -0.04007953 -0.042105112 -0.040918693
-0.03649262 -0.02662393 -0.04996193 -0.066386245 0.09491116 0.038835026 0.037352394 0.029270412
-0.034399923 0.082021154 -0.025247931 -0.08010481 -0.0770999 -0.0038803737 -0.06405842 0.0897154
0.08199225 -0.04707204 0.069331944 -0.051208653 -0.012222101 -0.023907231 -0.036489323 0.050398257
0.033971753 0.028859658 0.004344818 0.030181145 0.11877816 0.04604856 0.084505185 0.10181672
0.03304625 0.00456388 -0.04047756 -0.07596233 0.05928504 0.039842054 0.04159504 -0.027536593
-0.030113716 -0.09708686 -0.04781353 -0.056104038 0.07170924 0.098219715 0.0723713 0.090871215
0.04457172 -0.06309946 -0.06339699 -0.0033355947 0.034181394 0.03579892 0.12342412 0.11621463
0.0638309 -0.08755739 -0.05970905 -0.036562923 0.06641896 0.05604088 -0.05014813 -0.058772475
-0.059956696 -0.02524901 0.031001996 -0.05715752 0.09880212 0.02230162 0.10877297 0.03331756
-0.061151892 0.031796176 0.00068886427 -0.03711497 0.09726201 -0.03677912 -0.036696155 0.12526461
0.07580599 -0.08136822 0.007973971 -0.0682415 -0.0372315 0.06766735 0.042043954 0.03880124
0.055644836 0.041443937 -0.013417286 -0.02555463 -0.0066607855 -0.026506238 0.122064985 -0.015491654
-0.016203593 -0.07237172 0.0474573 0.087610066 0.122039 0.064454235 0.06646013 0.06071004
0.0022569494 -0.060832977 0.024644228 -0.029196072 0.03737688 0.031106034 0.08921209 -0.040276606
0.0769512 -0.0340656 -0.0766069 -0.061198365 -0.022149272 -0.071817055 -0.05239834 -0.027072122
0.013750906 0.100442864 0.067541875 -0.0025383693 0.09179986 0.11591809 -0.030829908 0.11721618
-0.048932116 0.020706605 0.0047639664 0.061469566 0.06725469 -0.0014430768 -0.012697171 0.0013940611
0.090339325 0.10699375 -0.008784105 0.10843651 -0.009984286 0.12255234 -0.0011747378 0.10151897
0.107371405 0.120575406 -0.006428263 -0.037967402 0.07973659 0.063842796 0.054954115 0.062157463
-0.036997285 -0.03918131 -0.081411876 0.040198356 -0.088798195 -0.020112552 0.07672248 -0.06611357
-0.020783978 0.052510835 0.009382461 0.103410736 0.06919613 -0.0008192075 0.060726255 0.07231277
-0.04127604 0.08810034 0.019566298 0.08408824 0.07445821 0.048649125 0.013738244 0.12211457
-0.03501423 0.073399 0.059928056 -0.07096631 -0.011132841 -0.06669592 -0.08697081 0.06888179
-0.00968543 0.07592197 -0.013179961 0.09070625 0.03525079 -0.035055082 -0.05191002 0.07001254
-0.022853862 -0.032749183 0.027112158 -0.07796888 0.014835717 -0.08426223 -0.03940061 -0.0028242818
0.029245662 -0.07931982 -0.0792982 -0.014592664 -0.08261625 0.062899925 -0.056494325 0.07763888
-0.07996995 0.08024538 0.075090855 0.055715926 -0.02920787 -0.008237305 -0.076095805 -0.03429389
0.038193755 -0.07835925 -0.01501221 0.087684885 0.057478335 0.059262887 0.0537011 -0.02573004
0.059140433 0.039985307 0.0026326813 0.053848166 0.034387127 -0.007358905 0.06716005 -0.07344966

encoder.6.bias f4 [32]
00000000: 7f4f 5bbd cd7b c53d b291 813d be9e c1bc
00000010: 2392 a83c 0924 fd3d 2cd4 3dbd 9f02 cfbd
00000020: 0d9a 9fbd 0843 df3d 1419 cbbd 0782 953d
00000030: 6fda b0bb 73c5 73bd 9d98 50bd 2b4d 29bb
00000040: 17cc 33bc 1124 d23d 5227 083d 3674 f93c
00000050: 6839 623d 8a4b ac3d 832c b43d 1759 083e
00000060: 9786 8abd f8b6 823c 4742 a1bd 0ad8 e23b
00000070: a161 31bd ff85 babd eeaf 03bd e072 d2bd
-0.05354261 0.09642754 0.06326617 -0.023635264 0.020577496 0.12360389 -0.04634492 -0.10107922
-0.07793055 0.10901457 -0.09916893 0.073001914 -0.005397133 -0.059514474 -0.050926793 -0.002583335
-0.010973952 0.10260785 0.033240624 0.030450922 0.055230528 0.084128454 0.087975524 0.13315235
-0.06763952 0.015956387 -0.078739695 0.0069227265 -0.043305997 -0.09107589 -0.0321502 -0.10275817

encoder.9.weight f4 [32, 32, 8]
00000000: 4d14 8f3b 4e86 be3d 5307 aa3c efaf 3a3c
00000010: 01d0 31bc 293e e13c 0d3f 4b3d ad0f 5ebd
00000020: ea3b 2e3d 21e6 9ebc e6d4 8f3d aa30 813b
00000030: 1d82 7d3d 30fb 513d 0290 debc d73d 01bc
00000040: a1f7 e0bc ad33 133d a999 37bc 6cee b13d
00000050: 749c 973d 6984 1a3d a286 053d 2954 8f3b
00000060: 8594 07bd d080 b63d 802f 2fbc ab56 b73d
00000070: 45b7 07bd e431 373d 358c 07bd 0860 a83c
00000080: 2d0f 0f3d f646 7f3c 58aa 433d 4413 743d
00000090: 4140 a13d 6f0e be3a 6672 9a3d 88c7 5a3d
000000a0: f612 b9bb 7c19 773d ccc1 72bb 4385 a23c
000000b0: 3a2a 393d c7c0 0b3d beb7 8b3c 9460 5d3d
000000c0: 9b86 95bc 7634 da3d 4fb9 d43d 305f 593d
000000d0: 7300 ee3c 7172 1b3d de5d 183c 83d5 883d
000000e0: f777 453d b1f8 283d 80d4 3d3d fdbb a73d
000000f0: 6d57 543d 0af3 8b3c 1fc8 53bc be03 c93c
00000100: 81da 27bb 6d4e ba3c b87d f33d f54c d53d
00000110: ab4c b83d d589 3cbc 1a64 913b b200 273d
00000120: c134 e73b fe8c 0b3d 3f9c 9dbd 36ab 3dbd
00000130: b54f 4cbd 7a43 7c3c 0e33 d43b 6544 82bd
00000140: 6f86 753c c9fd 703c 5732 fe3d 3c42 593d
00000150: d9e7 953d 8d32 3a3d f3fb 7f3c a8bd 073d
00000160: da9a 2c3d d92e 66bd 4669 b8bc 47af 973b
00000170: 7faf 3fbd c02d b43b cda8 65bd 7dde 45bc
00000180: 34ef d43d e0e4 e83d 5653 163d b2fe 883d
00000190: 35e8 d1bb e639 bf3d 57bf 803d 3688 703c
000001a0: 9662 b33d fc91 c4b9 2b4a a23d 0809 493d
000001b0: 61f4 6f3d da3a 313d 02d5 f3bb 4cc3 b13d
000001c0: 1a66 24bd 6707 a43c 6cf5 b03d 9e9c dabb
000001d0: c4a1 893d 3964 563d c655 f83c e722 243d
000001e0: 4bf2 09b9 5264 043d fc24 553d a150 86bc
000001f0: 33b7 bdbc cb72 15b9 bf73 32bd 66ff 31bd
00000200: 66c0 adbb 6af0 243c 66c1 a63d 0bb1 963b
00000210: 2e33 e53d 78e2 993d 04a6 c73d bc1a e0bc
00000220: eb5c 923b 764c 15bd 9e18 593d 4ca5 8bbb
00000230: ce63 9fbc ebc3 09ba b419 75bb 0f59 213c
00000240: 279a 51bd e212 8e3a 7c85 953d bd61 993c
00000250: 915e 263d ff5d 1f3d fe59 5e3d 776e 6bbb
00000260: 50e0 643d 94f3 cf3b 8976 683d 743a a9bb
00000270: 97e6 2abb 31f2 173d 3186 cbbc 1497 703d
00000280: 24e5 0abc d23a 4b3d 2618 013d aea0 8f3c
00000290: 9c4a 543b 911d 93bc 637e 3cbd c580 a6bc
000002a0: 3b03 d9bc 9f6b 51bd df32 4cbc 9f96 73bd
000002b0: cb28 11bd 1317 033d 866d 853c 3656 5bbd
000002c0: 2d1a 5cbd 781e 3ebd c6e6 2d3d f57d 44bd
000002d0: 7ea1 173d e50e ce3c 30b5 103d 0051 3cbc
000002e0: 7b01 cfbc 94c1 71bd f97b 033d 93cb 263d
000002f0: 38d9 0fbd 47e6 29bd ae2b 43bc f0ad 2ebb
00000300: 195b 963d a3d1 9d3d 5607 963d 137d 183b
00000310: 71ae eb3d 8135 4cbb b481 883d 967d 6ebc
00000320: 060b 923c 6219 8d3d 6212 3ebc 68a1 1d3d
00000330: b575 873c 3c9c ac3d dec6 c73c 9179 ab3d
00000340: 752a af3d 199c bc3d ca67 c5bb 4ead ac3d
00000350: 76b5 193d 78e4 6e3d 8a54 a0bc ea3a 28bd
00000360: 5f17 f3bc f339 92bb 89a3 ff3c fb1d 9f3d
00000370: ebe1 4b3c f784 be3d 48cc 2ebb 5dce fb3c
00000380: dbae acbc 4f3b ac3d 4b71 ce3d 89d9 fc3a
00000390: dc5c 293d ac45 bd3d bb51 6dbc c914 913a
000003a0: 1c54 973d fda8 2dbb 3b58 e13d 05e3 eb3c
000003b0: ce20 183d 618a 703d 5798 b73d b5a8 dc3c
000003c0: caed b1bc 2d06 fbbc 8113 783c 7323 803d
000003d0: 4f48 033d 9efd 1c3d f6f6 b7bc f2b9 693c
000003e0: 4a3c 32bd 4dc4 793d 0b79 8e3d 5c56 7d3d
000003f0: ea14 d73d d821 ab3d 1785 dcbc e69a 003d
0.0043664337 0.0930296 0.020755446 0.011394485 -0.010852815 0.02749546 0.049620677 -0.05421417
0.042537607 -0.019396843 0.07023029 0.003942569 0.061891664 0.05126494 -0.027168278 -0.007888279
-0.027461829 0.035937954 -0.011206069 0.086880535 0.07402888 0.037723932 0.0325991 0.0043740463
-0.033100624 0.08911288 -0.010692477 0.089520775 -0.033133764 0.044725314 -0.033092696 0.020553604
0.034926582 0.015580883 0.047769874 0.059588686 0.078735836 0.0014500151 0.07541351 0.053412944
-0.0056480123 0.06032704 -0.0037041781 0.019838935 0.045206286 0.034119394 0.017055389 0.054047182
-0.018252661 0.106545374 0.10386907 0.053069293 0.029052949 0.037950937 0.009299723 0.06681349
0.04821011 0.041252796 0.046345234 0.08190153 0.05184119 0.017083663 -0.012926131 0.024537917
-0.0025612416 0.022742474 0.11889213 0.10415069 0.08998998 -0.011507471 0.004436982 0.040772147
0.0070558493 0.034070008 -0.07695817 -0.046305858 -0.049880702 0.015396947 0.0064758128 -0.063607015
0.014985665 0.014708945 0.12411945 0.05304168 0.07319612 0.045458365 0.015624034 0.033139855
0.042139865 -0.05619702 -0.022511136 0.004629049 -0.046798225 0.005498618 -0.056069184 -0.012076971
0.10397187 0.113717794 0.03670057 0.06689204 -0.006405855 0.09337215 0.06286495 0.014680913
0.08759038 -0.000374928 0.07924303 0.04908088 0.058582667 0.043269016 -0.007441164 0.08679828
-0.040136434 0.020023061 0.086405605 -0.0066715023 0.067203075 0.052341674 0.030314337 0.040072348
-0.000131556 0.032322235 0.052037224 -0.016395869 -0.023158645 -0.00014252511 -0.043567415 -0.043456458
-0.0053024767 0.010067085 0.081423566 0.004598742 0.111914024 0.075138986 0.09748462 -0.027356498
0.004466643 -0.036449872 0.053001992 -0.0042616483 -0.01945677 -0.00052553293 -0.0037399353 0.009847893
-0.0511724 0.0010839368 0.07300851 0.018723363 0.04061753 0.038908 0.054285042 -0.0035923996
0.055877984 0.0063461754 0.05675367 -0.005164439 -0.0026077384 0.037096206 -0.02484426 0.05873783
-0.008477483 0.049616642 0.03151717 0.017532673 0.0032393103 -0.017958434 -0.04601897 -0.020325074
-0.026490798 -0.051128026 -0.0124633005 -0.059469815 -0.035439294 0.032004427 0.016287576 -0.053549014
-0.0537359 -0.046415776 0.04245641 -0.047971684 0.037019245 0.025153587 0.035329044 -0.011493921
-0.02526926 -0.0590225 0.03210065 0.040721487 -0.035119265 -0.041479375 -0.0119122695 -0.0026653968
0.07341594 0.07706001 0.07325618 0.002326791 0.115078814 -0.003115982 0.06665364 -0.014556309
0.017827522 0.06889607 -0.0116010625 0.038484007 0.01653562 0.08428237 0.02438682 0.08372796
0.0855302 0.09209461 -0.0060243355 0.08431493 0.03752657 0.058323354 -0.019571561 -0.04107181
-0.02967423 -0.0044624745 0.03120591 0.0776939 0.012444 0.09302705 -0.0026672054 0.03073805
-0.021079471 0.0840975 0.10080203 0.0019290905 0.041348323 0.092418045 -0.014484818 0.0011068817
0.073890895 -0.002649843 0.11003157 0.028794775 0.03714066 0.05872572 0.089646034 0.026935915
-0.021719832 -0.030642593 0.015141369 0.062567614 0.03205138 0.038327806 -0.022456627 0.014265524
-0.043514527 0.060978223 0.06956681 0.061849937 0.10502036 0.083560646 -0.026918931 0.031397723

encoder.9.bias f4 [32]
00000000: 986e 97bd 6f39 0cbd 1afe abbd d804 27bd
00000010: faa2 4c3b 1668 9fbd 4435 a13c e0e7 97bb
00000020: d5e7 abbc f89a 853c 040d adbd 7708 1fbd
00000030: ef9d 4abd 9cad 8dbc 218e 0a3d d646 c8bd
00000040: dde2 5ebc f67b b73c 650b 7e3d 0294 ea3b
00000050: 4d0f 21bd 0d89 9bbd 6e4b 38bd 7eaa f6bc
00000060: 5ff2 dd3d 4ec2 51b9 abbc 82bd 4bd7 cb3d
00000070: d46d babd c439 1abd c833 a03d b254 b73d
-0.07394141 -0.03423446 -0.083980754 -0.040776104 0.0031225071 -0.07783525 0.01967872 -0.004635796
-0.02098457 0.016309246 -0.08449748 -0.038826432 -0.049467023 -0.017294697 0.03382695 -0.09779136
-0.013603893 0.022397976 0.062022585 0.007158757 -0.039321233 -0.075945 -0.04499381 -0.030110594
0.10837244 -0.00020004177 -0.06383642 0.09953173 -0.09102979 -0.037652746 0.078223765 0.08951701

encoder.12.weight f4 [64, 32, 3]
00000000: 251b c0bc ccef 8fbb 95d4 5dbd 29ba 7abd
00000010: bac6 9c3d 9ad1 3abd 4179 e2bc 3877 aa3c
00000020: 1132 883a 2acc b3bc 7419 da3c e083 743d
00000030: aed6 683d d789 c33d 96c3 0abd 2214 ed3d
00000040: cd32 52bd 0772 8a3b a78b 62bd d0e3 bb3c
00000050: 2ba0 413d 7f11 32bd fa35 6cbc 3d18 9b3d
00000060: 2466 f2bd 1055 023d ec2f 6cbd e421 b1bd
00000070: 956a 1d3b b872 1e3d df8f e63d 8e16 c33b
00000080: 86c1 493c ef6c 003e b26c 493d db25 b73d
00000090: 8bf8 a03c 8ce2 893d f778 72bd 88f2 493d
000000a0: 608d 38bb 90a8 f3bc 71d6 c7bd a767 4abd
000000b0: bc04 80bc c1d2 743d cb63 c83d 3fb1 e0bb
000000c0: 403e 8dbc 0830 46bc 3053 8a3d 597f 6f3d
000000d0: ea61 b03d 06ef c1bd 1637 9f3d a4c7 cdbc
000000e0: 1917 04be ad77 70bc af16 da3c e05b 423d
000000f0: 4d70 103d 237d c73d e6e7 553d f7f0 4f3c
00000100: af8d 283d dab4 9a3d 8e62 b83d 8719 34bb
00000110: cb34 f23d 13d2 573c 3bfe a13d a359 b83d
00000120: 8d58 853c 9183 383d f3e6 87bc 66f7 a83d
00000130: 3bed 5d3c d9bb 81bd 036f 363c 8cf4 3dbd
00000140: ed63 d23d fe4a a7bd a9be aabd cf7c cdbd
00000150: 1f65 82bd a623 923c 3b52 40bd ffbd 363d
00000160: cc6a f93d b059 803d 0b9d 043d 3329 12bd
00000170: 6140 08be 863f ebbd 96d4 b4bc a39f babd
00000180: c3ed a7bc ddd9 823d 37fe 2dbd 9219 5f3d
00000190: 93c7 32bd 44a5 2b3b a3c1 923d c53f 57bd
000001a0: 5865 263d 5b63 033d 1c75 00bd e425 90bc
000001b0: a847 203d e545 313c 83f9 463d beb2 76bd
000001c0: 3e7b ffbb c118 3bbb 2946 a5bd 563d 353d
000001d0: 9d28 1cbc 4b9d d63c 270a 473d dd51 043d
000001e0: 4af5 8b3d 6582 f33d b7e6 323d 97f4 6cbc
000001f0: 2995 e3bd 1198 cebb ea90 e7bc 2404 403d
00000200: 41b5 aa3d 292e 0abd a2e6 c93d 6940 063e
00000210: 5f78 60bd 9cd2 9f3d c88f e83d 00bf 773c
00000220: 3254 a83d 7b7f 22bd d9d3 ae3c 9f6d 24bd
00000230: 4112 0dbd 18b8 8cbc 2c85 85bd 7ae7 9f3d
00000240: 001f 46bd 73ff 923c 6791 39bc 0596 943d
00000250: 4255 a8bd cfea c63d a4a5 5bbc 5753 2dbd
00000260: fe14 efbd 15d3 56bb 36f2 b0bd dce6 49bd
00000270: cf2a a33b 3ef5 12bd af27 4abd 706c bbbb
00000280: 9022 9b3d e502 253d efde 9e3b 9a61 96bd
00000290: b8a9 243c b3f9 803a 882d c13d 911b b13d
000002a0: 975e 03be 8a95 03be 4305 113d db1d 4abd
000002b0: 3b68 c03c 26dd a83d 033e 003e a353 8b3d
000002c0: 097c 063e b4ff d7bc 1e15 753d cd36 35bd
000002d0: 012b 013d 25da db3c f18a c53c dfd4 c7bc
000002e0: 836c eb3d 01fc ba3d d245 3a3d 0b0d e4bd
000002f0: cb83 b6bd c399 313d 9ebf d9bd 91d7 dfbc
00000300: 1c5b 2c3d e4be 043c 44e0 163c b7b7 cebc
00000310: edaf e33c e804 adbd 37bf 57bd bc34 263c
00000320: 020f bb3d 4568 1d3d 9a1d 0c3c 5d40 3a3d
00000330: 7ce2 a43d 679c 9ebc e689 17bd 0358 c1bc
00000340: 7f29 a33c b2d4 a53b 9aa5 893c 8b16 be3c
00000350: 305b ef3c d8e5 d43c 3022 50bd 951a b5bd
00000360: ce5a 0fbd 5925 0dbd 39fd 82bd cd37 0dbc
00000370: 7e5f 1d3b ebf6 d4bd 9aaa c43d e9c7 b2bc
00000380: 949d 78bd ddf8 1c3d 8edc ebbc a1cd 5fbd
00000390: 8918 9c3d ea66 1c3c f660 a1bd 6982 cdbd
000003a0: 605e 813d c4d4 443d 2e8d ae3d 15d9 5e3d
000003b0: f0cb 0d3d e5b7 96bd b109 963d 50f6 8ebd
000003c0: 5190 893d deb6 edbc 965d 2d3d ca97 293c
000003d0: e483 de3b 5ccb b9bd f90c 91bd ac2c 003d
000003e0: 8693 b6bd c033 28bd 7ba7 5fbd 5f7e 3d3d
000003f0: 46bd d63d 07ba b3bc 17ce 803d ece3 66bd
-0.023450444 -0.0043925997 -0.054157812 -0.061212692 0.076550916 -0.045610048 -0.027645709 0.020808801
0.0010390898 -0.021947939 0.026623465 0.05969608 0.05684536 0.09547775 -0.03387793 0.11576106
-0.05131798 0.004225019 -0.055308964 0.022935778 0.04727189 -0.043473717 -0.014417166 0.075729825
-0.11835888 0.031819403 -0.05766289 -0.08649042 0.0024019827 0.038683623 0.1125791 0.0059536165
0.012314206 0.12541555 0.049175926 0.08942767 0.019649765 0.067326635 -0.059197392 0.04930356
-0.0028160438 -0.029743463 -0.09757698 -0.049415257 -0.015627258 0.059771303 0.09784659 -0.006857067
-0.017241597 -0.0120964125 0.06754148 0.058471058 0.086124256 -0.09469418 0.07774179 -0.02511961
-0.12899436 -0.01467697 0.026622145 0.0474509 0.03526335 0.09740665 0.05222311 0.012691728
0.041150745 0.07554026 0.09003173 -0.0027481036 0.11826476 0.013172644 0.07909819 0.09001472
0.016277576 0.045047347 -0.016589617 0.082503125 0.01354533 -0.06334657 0.011134866 -0.046375796
0.102729656 -0.081686005 -0.08337147 -0.10033571 -0.063669436 0.017839264 -0.04695342 0.04461479
0.12178573 0.062671065 0.03237633 -0.035683822 -0.13305809 -0.114867255 -0.022074025 -0.091124795
-0.020499116 0.063892104 -0.042478766 0.054467745 -0.04364736 0.0026191035 0.071658395 -0.05255105
0.040623993 0.032077175 -0.031361684 -0.017596193 0.039130837 0.010819887 0.048577797 -0.060229056
-0.007796674 -0.002854869 -0.080700226 0.044247948 -0.009531167 0.02619805 0.048593666 0.032304633
0.068338946 0.11890105 0.043677058 -0.014462612 -0.111124344 -0.006304749 -0.028267343 0.04687895
0.08335353 -0.033735428 0.09858443 0.13110508 -0.054802295 0.078038424 0.11355549 0.015121222
0.08219184 -0.039672356 0.021341251 -0.040143605 -0.034441236 -0.017177626 -0.06519541 0.078078225
-0.048369408 0.017944073 -0.0113261705 0.072551765 -0.08219387 0.09712755 -0.013406191 -0.042315807
-0.11673926 -0.0032779623 -0.08639948 -0.04929243 0.0049794684 -0.035878412 -0.04935425 -0.005719714
0.07574952 0.040285964 0.004848353 -0.07342835 0.01005023 0.0009840041 0.094325125 0.08647836
-0.12829052 -0.12850013 0.03540541 -0.04934488 0.023487201 0.08245306 0.12523656 0.06803062
0.13133253 -0.026367046 0.059834592 -0.044241715 0.031535152 0.026837418 0.024114104 -0.024393497
0.11495306 0.09130097 0.045476742 -0.111353 -0.08911856 0.04335953 -0.10632251 -0.02732447
0.042079076 0.0081021525 0.0092087425 -0.025234086 0.027793849 -0.084482014 -0.05267259 0.010144409
0.09133722 0.038429517 0.008551979 0.045471538 0.08051011 -0.019361688 -0.036996745 -0.023601538
0.019917248 0.0050607556 0.016802598 0.023204109 0.029218286 0.025988504 -0.050813854 -0.08842961
-0.034998707 -0.034459446 -0.06395955 -0.008619261 0.0024013217 -0.10398658 0.09602852 -0.02182384
-0.060697153 0.038323272 -0.028791692 -0.054639462 0.07621867 0.009546021 -0.07879822 -0.100346394
0.06316829 0.04805447 0.08523022 0.054406244 0.034618318 -0.07359294 0.07326067 -0.06980574
0.06716979 -0.029017862 0.04232558 0.010351131 0.006790625 -0.09071991 -0.070825525 0.031292602
-0.089148566 -0.041064978 -0.05460308 0.046263095 0.1048532 -0.02193929 0.062893085 -0.056369707

encoder.12.bias f4 [64]
00000000: 64cc b4bc 88d9 0ebe 0543 21be 9f23 e7bd
00000010: 7b35 ba3d a18f 8b3b cd33 1dbd e6e5 b03d
00000020: eeb3 57bd 56aa 7fbd 0608 07be 7207 b83d
00000030: b238 d6bd a8c0 c3bc e576 ea3d f513 b0bd
00000040: cfef bf3d 8853 94bb eb07 e4bd e10e ec3c
00000050: f7f9 13be 002f c8bc 25bc 6abd c604 bbbb
00000060: f50e 9e3c 7cc8 023e 4c08 f2bd d8b7 183d
00000070: c9e8 ee3d 96e3 87bc 553c 843c b039 0ebc
00000080: 73ea 893d ac48 2a3d ce19 ba3c 6c66 d8bd
00000090: ae20 b1bc 2294 eb3d 7dcd c9bd db14 693d
000000a0: aac4 d5bc d12b c5bd 431c 80bd 51f0 8bbd
000000b0: 3a2a f73d 5f77 8dbd d317 cb3d 220a 173d
000000c0: e008 0b3e 0d17 eb3d 1b4d 82bd bd83 b7bd
000000d0: 6fca c13d 651c c33d e515 793d 0d17 9abd
000000e0: 4741 e4bd 6744 4bbd f9c7 93bd 752e 453d
000000f0: d3d6 a73b 1b7b 01be 0bf7 a63d 69ce 1b3d
-0.022070117 -0.13950169 -0.15748222 -0.11286091 0.09092232 0.0042590653 -0.03837948 0.086376
-0.05266183 -0.062418304 -0.13186654 0.08985795 -0.104600325 -0.023895577 0.114484586 -0.085975565
0.09371912 -0.0045265593 -0.11134323 0.028815689 -0.14450823 -0.024436474 -0.057308335 -0.005707356
0.019294241 0.12771791 -0.11817989 0.037284702 0.11665494 -0.016588014 0.01614205 -0.008680746
0.06734171 0.04157321 0.022717383 -0.105664104 -0.021622028 0.115028635 -0.09853647 0.056904655
-0.026094753 -0.09627498 -0.062553905 -0.06832946 0.12068601 -0.06907534 0.099166535 0.036874898
0.13577604 0.11479006 -0.06362363 -0.08960674 0.09462439 0.095269 0.060811896 -0.07523928
-0.11145263 -0.04962578 -0.07215876 0.048140008 0.0051220446 -0.12644617 0.081525885 0.038038645

encoder.15.weight f4 [256, 192]
00000000: b650 0fbc 6b1e 843c abdc 1dbd f854 f63c
00000010: 2119 c73d 90ca 793c 7735 403d 8eff f3ba
00000020: 4e22 b33c 08fd 9a3d 6505 983c 7b09 853c
00000030: ff01 71bd 3b87 573c a10a 453c ccba 43bd
00000040: 6e60 c2bb adc1 29bc bae3 86bd 2730 06bd
00000050: 14bf 7bbd be75 5cbd 38e5 093c 0722 14bb
00000060: 6e02 9a3c 559b 183d 4775 823d 0dcb 5b3d
00000070: 2fdc aa3d 235e afbc 3701 4dbd c34b 58bd
00000080: 8c69 063d 2393 77bc 5958 5b3a 9ac7 81bd
00000090: d417 983c 9fc0 833c 4a3c c9bc 3474 31bd
000000a0: 53ef 09bd 408d e8bc ccf5 3dbd 6188 c23c
000000b0: d3c4 36bd 9e00 803d 2786 c8bc 27b0 973d
000000c0: c342 a03c a331 fbbc 948a 873d 0f8a 873d
000000d0: c906 78bd a8d2 873d a9d3 dabc 471b 353d
000000e0: 47ee 56bd 3fb5 0dbb 28bc 1dbd 18cc 05bd
000000f0: 0924 343d 1353 563c 29f5 533d 99da 5ebc
00000100: be36 343d 62c9 c53c f4f4 1bbd afc4 79bc
00000110: 1bbf eebc f767 88bd 5e88 bd3c 96bf 87bd
00000120: 8c40 b8bd 3d41 493d bf4e a4bd 5ea6 4e3c
00000130: 3c73 0dbc e2c3 c6bd cbe2 463c 59e4 b6bc
00000140: 87db 983d 8f9f e5bc 5edd c1ba 4e91 593d
00000150: f13c bdbc 108a 0ebd 567c 353c 51ca 873d
00000160: c9d5 7dbc 8f29 55bd 3141 fb3c 4128 8b3d
00000170: 7c8b 12bc 6233 aa3a cbb2 aabc cfbf b4bc
00000180: 0dcb 80bd de40 98bd 3ebe ac3c 7a55 d339
00000190: ff75 57bc 5dae 9cbd bd30 d6bc 4b33 0d3d
000001a0: 3c17 84bb 6642 8f3d 0dd5 cd3c 8049 0a3d
000001b0: 915b 4f3d bfa6 80bc dab8 633d 0e41 b5bc
000001c0: ef12 01bd 038d 51bd 7507 0bbc 8a10 383d
000001d0: b071 783d 2aeb 203d f4f5 253c a63a 29bd
000001e0: 6c58 333c 4c69 c63d 3249 3d3d 6042 3a3d
000001f0: 6070 723d 748d 0e3d 4671 f8bc e0a4 953c
00000200: fda7 5bbd 8878 fdbc 0bbd dbbc b977 883d
00000210: a458 89bd 48d6 433c 6648 5a3d a1ab 9b3d
00000220: 9222 f8bc c732 a93d 62bd 523d e230 9fbc
00000230: 67ad 8cbc 12d6 763c 30d8 bbbc d2a5 323d
00000240: 4638 a0bc 503b 6abd da0c c1bd 6c8c 153d
00000250: ba88 e03c b729 b8bc d4e5 acbc 78f6 8a3c
00000260: 5614 093c 0526 3cbd 01f4 103d 914b 31bd
00000270: 61ad ffbc 5c7b 053b 537d 843d 8bce dcbb
00000280: 93f5 1b3c 335c 5abd 479b 1bbd 0602 e53c
00000290: e70d 9fbd 0960 8c3d 8aba 813d 46fb 553c
000002a0: f877 85bc fd54 0b3b 9612 0c3b bd93 eebc
000002b0: f6b5 1abc cec4 95bd e305 2abd 268e 343d
000002c0: eee4 8fbc 372d babd 8dff a8bd 8ddc 643c
000002d0: ec5a 9b3d c7cd 963c 6e90 0abc 26b2 33bb
000002e0: bfbb 95bd 5a4c c4bb 9f78 363d 838a 60bc
000002f0: f589 52bd b877 8d3a 361c 9c3c 7c62 5dbd
00000300: 1ad8 6f3d 912d 6a3d e68c d4bc a252 2bbd
00000310: 542f 5cbd fd3b c63c c051 12bd 1395 16bd
00000320: 7163 50bd 8191 f53c 927a a8bb e738 7fbc
00000330: 3062 acbc 394d f4bc b1b3 953d 7cc5 50bd
00000340: 26df 533d 9050 39bd 97d0 153d fe49 df3c
00000350: d7b2 3fbd b62a de3c 0283 843d 3c15 713c
00000360: 60b6 2ebd 1ce3 013d d417 9a3d 1bce 20bd
00000370: 1af7 9abd 4f9a 48bd ff6f 6fbc c7c0 af3c
00000380: fc32 473a ef75 893d 69be 48bd 58ab 053d
00000390: 8da5 0b3d bc69 353d 5d54 6b3c ec03 443d
000003a0: da22 b03d b860 14bd 981f 9d3d 6017 26bc
000003b0: ffda 703d bdb5 dfbc b462 9e3d b5c3 38bd
000003c0: 66f9 13ba a1f3 813d 0514 a63d a6d6 503d
000003d0: e4c9 773c f433 8b3c 28cf 143d 7a8f 5b3d
000003e0: 6710 ad3c 351b e0bc 2e38 623d f672 9d3d
000003f0: 0699 983d c816 18bc 2ea7 7dbc 10fe 3ebd
-0.00874727 0.016127786 -0.038540523 0.030069813 0.0972159 0.015246049 0.046925988 -0.001861559
0.021866944 0.07567793 0.01855726 0.016239872 -0.058839794 0.0131548 0.01202646 -0.047785565
-0.0059319055 -0.010361117 -0.06586404 -0.032760765 -0.061461523 -0.053823225 0.008416466 -0.002260329
0.018799987 0.03725751 0.06370025 0.05366044 0.08342778 -0.021407193 -0.050049987 -0.052806627
0.0328155 -0.015110764 0.0008367352 -0.06336899 0.01856605 0.01608306 -0.02456488 -0.04332371
-0.033675503 -0.028387666 -0.04637699 0.023746671 -0.0446213 0.06250118 -0.024478031 0.07406645
0.019563084 -0.030663317 0.066182286 0.066181295 -0.060553346 0.06631976 -0.026712256 0.044215467
-0.052473333 -0.0021622924 -0.038509518 -0.032665342 0.04397968 0.01308133 0.051747475 -0.013601922
0.04399752 0.024143878 -0.038075402 -0.015244647 -0.02914386 -0.06660455 0.023136314 -0.06628339
-0.08996686 0.04913448 -0.08022832 0.012612907 -0.008633431 -0.097053304 0.012139033 -0.022325682
0.074637465 -0.028030185 -0.0014790704 0.05311709 -0.023100348 -0.034799635 0.011077007 0.06630386
-0.015492865 -0.052041586 0.030670734 0.06794787 -0.0089443885 0.0012985284 -0.020837208 -0.022064118
-0.06288729 -0.074342474 0.021086808 0.0004030874 -0.013150691 -0.07650445 -0.026146287 0.034472745
-0.00403109 0.06995086 0.025126005 0.0337615 0.050624434 -0.01570451 0.05559621 -0.022125747
-0.031512197 -0.05115987 -0.008485665 0.044937648 0.060655296 0.03928677 0.010129441 -0.041315697
0.010946374 0.096880525 0.046212383 0.045473456 0.0591892 0.03480287 -0.03032745 0.018267095
-0.053627003 -0.030941263 -0.026823541 0.0666346 -0.0670636 0.011952944 0.0532917 0.07601095
-0.030289922 0.08261638 0.05145014 -0.019432489 -0.017172528 0.015065687 -0.022930235 0.04361517
-0.019558083 -0.05718547 -0.09426279 0.03651087 0.027408946 -0.022480829 -0.021105684 0.016963229
0.008366665 -0.045934696 0.03538895 -0.043284956 -0.031210603 0.0020367717 0.06469216 -0.006738489
0.009518999 -0.053310584 -0.03798988 0.027955066 -0.077663235 0.06854255 0.06334408 0.013060397
-0.016292557 0.0021260374 0.0021373383 -0.029123181 -0.009442797 -0.07312928 -0.04150952 0.044080876
-0.017565217 -0.09090655 -0.082518674 0.013968599 0.07585701 0.01840867 -0.008457286 -0.0027419417
-0.073112 -0.005990547 0.044548627 -0.013704899 -0.051401097 0.0010793125 0.01905642 -0.054049
0.0585557 0.05717236 -0.025946092 -0.04182685 -0.053756073 0.024198527 -0.035722494 -0.036763262
-0.050876085 0.029976608 -0.0051415646 -0.015577531 -0.021042913 -0.029821979 0.07309664 -0.050969586
0.051726483 -0.045242846 0.03657588 0.027256962 -0.046801414 0.027119976 0.064703 0.014714535
-0.042654395 0.03171073 0.07524076 -0.039259057 -0.07566662 -0.048975285 -0.014614104 0.021454228
0.0007598845 0.06711947 -0.049009714 0.03263411 0.03409343 0.04429029 0.0143633755 0.047855303
0.086003974 -0.03622505 0.07672042 -0.010137409 0.0588026 -0.02730834 0.0773367 -0.045108516
-0.0005644768 0.06345297 0.08109287 0.050985955 0.015123818 0.016992547 0.036330372 0.053603627
0.021125985 -0.027356723 0.05522936 0.07687943 0.07451062 -0.009282775 -0.015481753 -0.04662901

encoder.15.bias f4 [256]
00000000: 6544 663b 195f b93c 1390 ebbb 68ed 073c
00000010: d041 2ebd cb84 a13d a12d 8839 fec3 853d
00000020: 04e9 453d b0de 40bd cd6b 5c3c e2fc 5a3d
00000030: 6c0f 4cbc ba99 7bba 8588 1d3d d860 d9bc
00000040: 723d 6a3b 7194 58bd c72c b93d efbd cd3b
00000050: 6ec6 bf3d 9c74 9e3c cd47 a73d 0027 453d
00000060: 7d56 a3bd a037 b0bc 6a4d 813c a612 f4bc
00000070: 9bbc 37bd 32e3 a33d b496 a93b 3874 40bd
00000080: db57 90bd 89fc 97bd bf13 ba3d 8196 2d3c
00000090: 9f44 98bd 5026 5d3d 687a fa3c c0e7 a23c
000000a0: a76f f0bc b777 9abc 03a4 80bc 09a8 c73d
000000b0: 1f8a 5b3d aadd d5bc e4b3 39bd 22de 8ebb
000000c0: f9c8 263d c53f e93c 7744 8a3b 807e 84bd
000000d0: 2286 b4bd f41b 5b3c a482 25bd cdb2 0fbd
000000e0: 8e3f 0cbc 924d 1c3d 99b0 383d e516 383c
000000f0: 9b53 873d 791a 9abb 3aec 91bd cfe8 403b
00000100: 2776 ad3a 5d1b 59bd 4c3f 653d f256 cfbc
00000110: 6aec 403c a1e1 3dbd c698 7d3d 4ee8 f03c
00000120: 9167 35bd e500 d73c ca27 0f3d d80f e03d
00000130: 585c d13c 2407 26bb 4e5f acbc b530 723d
00000140: ee70 71bd fcd7 193d b00d 783c 744d 8bbd
00000150: 4a8d 4c3c e625 073d df7c 5a3d e00e cebc
00000160: e8a9 2ebd b345 3b3d 18c0 54bd 2ed8 c9bc
00000170: be55 943b 3777 e0bc 9d27 aebc 7c57 a8bd
00000180: 2a06 a43d 73b1 623d 6830 223d db54 5ebc
00000190: b261 b53d c654 f0bc f7b0 5cbd 70da 7f3d
000001a0: f5d3 12bc bb9a 8abd 5e52 ca3d 2cd5 d03d
000001b0: 7e7c 9dbc 0170 0abd e816 283c 8ea2 b8bd
000001c0: 1847 b0bd ee0e cdbc 11f3 ad3d 75d5 afbd
000001d0: bf28 0dbd fd7f 5ebd 9132 a9bd e93f 68bd
000001e0: 4e10 893d ac5f ce3c 76ac 2b3d eed0 85bd
000001f0: b9f0 44bd 14ca c83c e7c8 613d 0cc6 6d3b
00000200: 2aa0 613d 5261 483c 7efd 12bd 5658 e0bc
00000210: 2c11 5c3d 768e 95bb e0e8 7ebd 7523 a13d
00000220: 341c 613c 24e0 70bd e96a 00bc 5708 01bc
00000230: 50f0 ba3c 0cee 243d f213 82bd 286c 303c
00000240: 6817 86bc c1a3 dcba b277 a3bc 203d 98bd
00000250: 2f17 bd3c a3a1 943d 9da5 04bb f7d1 abbd
00000260: ed78 c9bd 6728 51bd e089 99bd 12a8 7b3c
00000270: 4e21 403d 8f23 043d 80ff af3b d6e5 a0bc
00000280: 5c26 bcbd 008c 783a 2f4e 6c3d e770 343d
00000290: f469 c0bc 4230 36bc ad90 213d 2538 c93c
000002a0: 20d0 b03d 5e7c 8c3d e99a 5fbc d575 0b3d
000002b0: b627 1bbd 7352 aa3d b99a 15bd 6ec8 08bd
000002c0: 00f8 813d 6f83 893d c9fa ac3c 81b7 4bbd
000002d0: 0711 0d3d 3051 31bc 44d3 0dbd d133 a0bc
000002e0: 906f 66bc 684d d7bc fb8c 143d ba25 22bd
000002f0: 90e6 ccbb 77ba eabb 8aea fabc 76be 88bd
00000300: 2047 783d 5204 3e3d e1ae 2abd 089c 89bd
00000310: 87ff 333d 73c3 c53a 944e e03a 4596 3cbd
00000320: 1139 65bc c437 db3d e888 703d 7c0c 38bd
00000330: 3ea7 593c 949f 60bd 804c b5bd 4796 d73b
00000340: 543a cc3d d792 e73c c673 aabc 53db d43b
00000350: 3f19 6abb c438 5fbd f87c 123d 8f2a b33c
00000360: fc99 f23c 6658 13bd 4466 9fbc 462d c13a
00000370: 8a5f d03c a0c0 77bd 2ef3 063d 6a5a 69bd
00000380: d53f f03c 26f2 44bd 6b3e 0ebc fdba 0c3b
00000390: 4d82 de3c a1cf 54bd 8225 8ebd 1e0f a9ba
000003a0: 3d12 6c3d 23e2 973d 0053 83bd 7672 4fbd
000003b0: fac4 583b 3596 f43c 6dbc e7bc 1a01 903d
000003c0: bdaf ff3c d00c 223c e96e 2cbd 7fbb e0bb
000003d0: f7b7 80bc beab 18bd fd9f 38bd 8167 2cbd
000003e0: 815d de3c 5b49 82bd d98d 54bc 4360 fa3c
000003f0: f653 1c3d 7dee ec3c 2831 7cbd 9580 50bd
0.003513598 0.022628354 -0.007188806 0.008296348 -0.042543232 0.078866564 0.00025973938 0.06531523
0.048317924 -0.04708737 0.013453436 0.053463824 -0.012454849 -0.0009597797 0.038460273 -0.026535437
0.003574219 -0.05287594 0.09041744 0.0062787454 0.09364019 0.019342713 0.08167992 0.048132896
-0.07975481 -0.021510899 0.015783984 -0.029794049 -0.044857603 0.080023184 0.005175436 -0.046985835
-0.07048007 -0.07421214 0.090857975 0.010594965 -0.074349634 0.053991616 0.030575946 0.019885898
-0.029350115 -0.018855913 -0.015703207 0.09748847 0.05359852 -0.026106674 -0.045337573 -0.0043599764
0.040719006 0.02847279 0.0042195874 -0.064694405 -0.08814646 0.013373364 -0.04040779 -0.035082627
-0.0085600745 0.038159914 0.04509029 0.011235927 0.06607743 -0.004702863 -0.07125135 0.002943564
0.0013234065 -0.05300461 0.055968568 -0.025310013 0.0117751155 -0.046357755 0.061913274 0.029407647
-0.04428822 0.026245544 0.034950055 0.10940522 0.025556728 -0.0025333846 -0.021041539 0.059128482
-0.05894559 0.037559494 0.015139982 -0.068018824 0.012484858 0.032995127 0.053341743 -0.025153577
-0.042642504 0.045720767 -0.051941007 -0.024639215 0.004526823 -0.027400596 -0.021259123 -0.08219811
0.08008988 0.05534501 0.039596945 -0.013570036 0.088565245 -0.029337298 -0.053879704 0.062464178
-0.008961667 -0.06767794 0.098789915 0.10196909 -0.019224402 -0.03379822 0.0102593675 -0.0901538
-0.0860731 -0.025031533 0.08493627 -0.085856356 -0.034462687 -0.054321278 -0.08261598 -0.056701574
0.06692563 0.025192104 0.04191252 -0.06533991 -0.048081134 0.02451042 0.055123236 0.0036281375
0.055084385 0.012230234 -0.03588628 -0.027385872 0.053727314 -0.004564102 -0.062233806 0.07868091
0.013739634 -0.058807507 -0.007837989 -0.0078755235 0.022819668 0.04026608 -0.063514605 0.010767974
-0.016368583 -0.001683347 -0.019954536 -0.07433534 0.023082344 0.07257392 -0.0020240315 -0.08389657
-0.09837518 -0.05106392 -0.07497001 0.015359895 0.04690676 0.032260474 0.005371034 -0.019640844
-0.09187004 0.0009481311 0.05769175 0.044052985 -0.023488022 -0.011119904 0.039444614 0.024562905
0.08633447 0.06859659 -0.013647773 0.03404792 -0.03787967 0.08316507 -0.03652451 -0.03339427
0.0634613 0.06714522 0.021115677 -0.04973555 0.034440067 -0.010822579 -0.034625307 -0.019555958
-0.0140646845 -0.026282027 0.036267262 -0.03958676 -0.006253071 -0.0071633416 -0.030629415 -0.066769525
0.060614705 0.04639084 -0.041670684 -0.06719214 0.04394486 0.0015088156 0.0017113262 -0.046041746
-0.0139906565 0.10703996 0.058724314 -0.04493378 0.013284503 -0.054839686 -0.08852482 0.0065791938
0.09972063 0.02826826 -0.020807158 0.006495872 -0.0035720614 -0.054497495 0.03576371 0.02187088
0.029614441 -0.035972975 -0.019457944 0.0014738224 0.025436182 -0.060486436 0.032946758 -0.05697099
0.029327312 -0.048082493 -0.008681874 0.0021473758 0.027161742 -0.051955823 -0.06940748 -0.0012898182
0.05763458 0.07416179 -0.06412315 -0.050646268 0.0033076392 0.02985678 -0.02828809 0.0703146
0.031211728 0.00989075 -0.04209796 -0.006858289 -0.015712721 -0.03727316 -0.04507445 -0.042090897
0.027144196 -0.06361648 -0.012973272 0.03056348 0.03816601 0.028922314 -0.061570317 -0.050903875
